{"format": "graph-model", "generatedBy": "2.15.0", "convertedBy": "TensorFlow.js Converter v4.22.0", "signature": {"inputs": {"input": {"name": "input:0", "dtype": "DT_FLOAT", "tensorShape": {"dim": [{"size": "-1"}, {"size": "3"}, {"size": "224"}, {"size": "224"}]}}}, "outputs": {"output": {"name": "Identity:0", "dtype": "DT_FLOAT", "tensorShape": {"dim": [{"size": "-1"}, {"size": "1000"}]}}}}, "modelTopology": {"node": [{"name": "PartitionedCall/strided_slice/stack", "op": "Const", "attr": {"dtype": {"type": "DT_INT32"}, "value": {"tensor": {"dtype": "DT_INT32", "tensorShape": {"dim": [{"size": "1"}]}}}}}, {"name": "PartitionedCall/strided_slice/stack_1", "op": "Const", "attr": {"value": {"tensor": {"dtype": "DT_INT32", "tensorShape": {"dim": [{"size": "1"}]}}}, "dtype": {"type": "DT_INT32"}}}, {"name": "PartitionedCall/strided_slice/stack_2", "op": "Const", "attr": {"dtype": {"type": "DT_INT32"}, "value": {"tensor": {"dtype": "DT_INT32", "tensorShape": {"dim": [{"size": "1"}]}}}}}, {"name": "PartitionedCall/Const_29", "op": "Const", "attr": {"value": {"tensor": {"dtype": "DT_INT32", "tensorShape": {"dim": [{"size": "1"}]}}}, "dtype": {"type": "DT_INT32"}}}, {"name": "PartitionedCall/onnx_tf_prefix_/final_conv/act/Constant_2", "op": "Const", "attr": {"value": {"tensor": {"dtype": "DT_FLOAT", "tensorShape": {}}}, "dtype": {"type": "DT_FLOAT"}}}, {"name": "PartitionedCall/transpose_193/perm", "op": "Const", "attr": {"value": {"tensor": {"dtype": "DT_INT32", "tensorShape": {"dim": [{"size": "4"}]}}}, "dtype": {"type": "DT_INT32"}}}, {"name": "PartitionedCall/Reshape_134", "op": "Const", "attr": {"value": {"tensor": {"dtype": "DT_FLOAT", "tensorShape": {"dim": [{"size": "1"}, {"size": "1"}, {"size": "384"}, {"size": "2"}]}}}, "dtype": {"type": "DT_FLOAT"}}}, {"name": "unknown_224", "op": "Const", "attr": {"value": {"tensor": {"dtype": "DT_FLOAT", "tensorShape": {"dim": [{"size": "768"}]}}}, "dtype": {"type": "DT_FLOAT"}}}, {"name": "PartitionedCall/transpose_194/perm", "op": "Const", "attr": {"value": {"tensor": {"dtype": "DT_INT32", "tensorShape": {"dim": [{"size": "4"}]}}}, "dtype": {"type": "DT_INT32"}}}, {"name": "PartitionedCall/onnx_tf_prefix_/stages.3/blocks/blocks.1/mlp/act/Constant_2", "op": "Const", "attr": {"value": {"tensor": {"dtype": "DT_FLOAT", "tensorShape": {}}}, "dtype": {"type": "DT_FLOAT"}}}, {"name": "PartitionedCall/transpose_178/perm", "op": "Const", "attr": {"dtype": {"type": "DT_INT32"}, "value": {"tensor": {"dtype": "DT_INT32", "tensorShape": {"dim": [{"size": "4"}]}}}}}, {"name": "PartitionedCall/Reshape_127", "op": "Const", "attr": {"dtype": {"type": "DT_FLOAT"}, "value": {"tensor": {"dtype": "DT_FLOAT", "tensorShape": {"dim": [{"size": "1"}, {"size": "1"}, {"size": "384"}, {"size": "1"}]}}}}}, {"name": "unknown_210", "op": "Const", "attr": {"value": {"tensor": {"dtype": "DT_FLOAT", "tensorShape": {"dim": [{"size": "384"}]}}}, "dtype": {"type": "DT_FLOAT"}}}, {"name": "PartitionedCall/transpose_179/perm", "op": "Const", "attr": {"value": {"tensor": {"dtype": "DT_INT32", "tensorShape": {"dim": [{"size": "4"}]}}}, "dtype": {"type": "DT_INT32"}}}, {"name": "PartitionedCall/onnx_tf_prefix_/stages.3/blocks/blocks.1/token_mixer/mixer/identity/BatchNormalization/mul", "op": "Const", "attr": {"value": {"tensor": {"dtype": "DT_FLOAT", "tensorShape": {"dim": [{"size": "1"}, {"size": "384"}, {"size": "1"}, {"size": "1"}]}}}, "dtype": {"type": "DT_FLOAT"}}}, {"name": "PartitionedCall/onnx_tf_prefix_/stages.3/blocks/blocks.1/token_mixer/mixer/identity/BatchNormalization/sub", "op": "Const", "attr": {"value": {"tensor": {"dtype": "DT_FLOAT", "tensorShape": {"dim": [{"size": "1"}, {"size": "384"}, {"size": "1"}, {"size": "1"}]}}}, "dtype": {"type": "DT_FLOAT"}}}, {"name": "PartitionedCall/Const_26", "op": "Const", "attr": {"dtype": {"type": "DT_INT32"}, "value": {"tensor": {"dtype": "DT_INT32", "tensorShape": {"dim": [{"size": "4"}, {"size": "2"}]}}}}}, {"name": "PartitionedCall/transpose_181/perm", "op": "Const", "attr": {"value": {"tensor": {"dtype": "DT_INT32", "tensorShape": {"dim": [{"size": "4"}]}}}, "dtype": {"type": "DT_INT32"}}}, {"name": "PartitionedCall/Reshape_128", "op": "Const", "attr": {"dtype": {"type": "DT_FLOAT"}, "value": {"tensor": {"dtype": "DT_FLOAT", "tensorShape": {"dim": [{"size": "3"}, {"size": "3"}, {"size": "384"}, {"size": "1"}]}}}}}, {"name": "unknown_212", "op": "Const", "attr": {"dtype": {"type": "DT_FLOAT"}, "value": {"tensor": {"dtype": "DT_FLOAT", "tensorShape": {"dim": [{"size": "384"}]}}}}}, {"name": "PartitionedCall/transpose_182/perm", "op": "Const", "attr": {"dtype": {"type": "DT_INT32"}, "value": {"tensor": {"dtype": "DT_INT32", "tensorShape": {"dim": [{"size": "4"}]}}}}}, {"name": "PartitionedCall/onnx_tf_prefix_/stages.3/blocks/blocks.0/mlp/act/Constant_2", "op": "Const", "attr": {"dtype": {"type": "DT_FLOAT"}, "value": {"tensor": {"dtype": "DT_FLOAT", "tensorShape": {}}}}}, {"name": "PartitionedCall/transpose_163/perm", "op": "Const", "attr": {"dtype": {"type": "DT_INT32"}, "value": {"tensor": {"dtype": "DT_INT32", "tensorShape": {"dim": [{"size": "4"}]}}}}}, {"name": "PartitionedCall/Reshape_116", "op": "Const", "attr": {"value": {"tensor": {"dtype": "DT_FLOAT", "tensorShape": {"dim": [{"size": "1"}, {"size": "1"}, {"size": "384"}, {"size": "1"}]}}}, "dtype": {"type": "DT_FLOAT"}}}, {"name": "unknown_194", "op": "Const", "attr": {"value": {"tensor": {"dtype": "DT_FLOAT", "tensorShape": {"dim": [{"size": "384"}]}}}, "dtype": {"type": "DT_FLOAT"}}}, {"name": "PartitionedCall/transpose_164/perm", "op": "Const", "attr": {"value": {"tensor": {"dtype": "DT_INT32", "tensorShape": {"dim": [{"size": "4"}]}}}, "dtype": {"type": "DT_INT32"}}}, {"name": "PartitionedCall/onnx_tf_prefix_/stages.3/blocks/blocks.0/token_mixer/mixer/identity/BatchNormalization/mul", "op": "Const", "attr": {"dtype": {"type": "DT_FLOAT"}, "value": {"tensor": {"dtype": "DT_FLOAT", "tensorShape": {"dim": [{"size": "1"}, {"size": "384"}, {"size": "1"}, {"size": "1"}]}}}}}, {"name": "PartitionedCall/onnx_tf_prefix_/stages.3/blocks/blocks.0/token_mixer/mixer/identity/BatchNormalization/sub", "op": "Const", "attr": {"value": {"tensor": {"dtype": "DT_FLOAT", "tensorShape": {"dim": [{"size": "1"}, {"size": "384"}, {"size": "1"}, {"size": "1"}]}}}, "dtype": {"type": "DT_FLOAT"}}}, {"name": "PartitionedCall/Const_24", "op": "Const", "attr": {"dtype": {"type": "DT_INT32"}, "value": {"tensor": {"dtype": "DT_INT32", "tensorShape": {"dim": [{"size": "4"}, {"size": "2"}]}}}}}, {"name": "PartitionedCall/transpose_166/perm", "op": "Const", "attr": {"value": {"tensor": {"dtype": "DT_INT32", "tensorShape": {"dim": [{"size": "4"}]}}}, "dtype": {"type": "DT_INT32"}}}, {"name": "PartitionedCall/Reshape_117", "op": "Const", "attr": {"dtype": {"type": "DT_FLOAT"}, "value": {"tensor": {"dtype": "DT_FLOAT", "tensorShape": {"dim": [{"size": "3"}, {"size": "3"}, {"size": "384"}, {"size": "1"}]}}}}}, {"name": "unknown_196", "op": "Const", "attr": {"value": {"tensor": {"dtype": "DT_FLOAT", "tensorShape": {"dim": [{"size": "384"}]}}}, "dtype": {"type": "DT_FLOAT"}}}, {"name": "PartitionedCall/transpose_167/perm", "op": "Const", "attr": {"value": {"tensor": {"dtype": "DT_INT32", "tensorShape": {"dim": [{"size": "4"}]}}}, "dtype": {"type": "DT_INT32"}}}, {"name": "PartitionedCall/onnx_tf_prefix_/stages.3/downsample/proj/proj.1/act/Constant_2", "op": "Const", "attr": {"value": {"tensor": {"dtype": "DT_FLOAT", "tensorShape": {}}}, "dtype": {"type": "DT_FLOAT"}}}, {"name": "PartitionedCall/onnx_tf_prefix_/stages.3/downsample/proj/proj.1/identity/BatchNormalization/mul", "op": "Const", "attr": {"dtype": {"type": "DT_FLOAT"}, "value": {"tensor": {"dtype": "DT_FLOAT", "tensorShape": {"dim": [{"size": "1"}, {"size": "384"}, {"size": "1"}, {"size": "1"}]}}}}}, {"name": "PartitionedCall/onnx_tf_prefix_/stages.3/downsample/proj/proj.1/identity/BatchNormalization/sub", "op": "Const", "attr": {"value": {"tensor": {"dtype": "DT_FLOAT", "tensorShape": {"dim": [{"size": "1"}, {"size": "384"}, {"size": "1"}, {"size": "1"}]}}}, "dtype": {"type": "DT_FLOAT"}}}, {"name": "PartitionedCall/Const_22", "op": "Const", "attr": {"value": {"tensor": {"dtype": "DT_INT32", "tensorShape": {"dim": [{"size": "4"}, {"size": "2"}]}}}, "dtype": {"type": "DT_INT32"}}}, {"name": "PartitionedCall/transpose_154/perm", "op": "Const", "attr": {"value": {"tensor": {"dtype": "DT_INT32", "tensorShape": {"dim": [{"size": "4"}]}}}, "dtype": {"type": "DT_INT32"}}}, {"name": "PartitionedCall/Reshape_106", "op": "Const", "attr": {"value": {"tensor": {"dtype": "DT_FLOAT", "tensorShape": {"dim": [{"size": "7"}, {"size": "7"}, {"size": "192"}, {"size": "2"}]}}}, "dtype": {"type": "DT_FLOAT"}}}, {"name": "unknown_182", "op": "Const", "attr": {"value": {"tensor": {"dtype": "DT_FLOAT", "tensorShape": {"dim": [{"size": "384"}]}}}, "dtype": {"type": "DT_FLOAT"}}}, {"name": "PartitionedCall/transpose_155/perm", "op": "Const", "attr": {"value": {"tensor": {"dtype": "DT_INT32", "tensorShape": {"dim": [{"size": "4"}]}}}, "dtype": {"type": "DT_INT32"}}}, {"name": "PartitionedCall/onnx_tf_prefix_/stages.2/blocks/blocks.3/mlp/act/Constant_2", "op": "Const", "attr": {"value": {"tensor": {"dtype": "DT_FLOAT", "tensorShape": {}}}, "dtype": {"type": "DT_FLOAT"}}}, {"name": "PartitionedCall/transpose_139/perm", "op": "Const", "attr": {"dtype": {"type": "DT_INT32"}, "value": {"tensor": {"dtype": "DT_INT32", "tensorShape": {"dim": [{"size": "4"}]}}}}}, {"name": "PartitionedCall/Reshape_99", "op": "Const", "attr": {"value": {"tensor": {"dtype": "DT_FLOAT", "tensorShape": {"dim": [{"size": "1"}, {"size": "1"}, {"size": "192"}, {"size": "1"}]}}}, "dtype": {"type": "DT_FLOAT"}}}, {"name": "unknown_168", "op": "Const", "attr": {"dtype": {"type": "DT_FLOAT"}, "value": {"tensor": {"dtype": "DT_FLOAT", "tensorShape": {"dim": [{"size": "192"}]}}}}}, {"name": "PartitionedCall/transpose_140/perm", "op": "Const", "attr": {"value": {"tensor": {"dtype": "DT_INT32", "tensorShape": {"dim": [{"size": "4"}]}}}, "dtype": {"type": "DT_INT32"}}}, {"name": "PartitionedCall/onnx_tf_prefix_/stages.2/blocks/blocks.3/token_mixer/mixer/identity/BatchNormalization/mul", "op": "Const", "attr": {"dtype": {"type": "DT_FLOAT"}, "value": {"tensor": {"dtype": "DT_FLOAT", "tensorShape": {"dim": [{"size": "1"}, {"size": "192"}, {"size": "1"}, {"size": "1"}]}}}}}, {"name": "PartitionedCall/onnx_tf_prefix_/stages.2/blocks/blocks.3/token_mixer/mixer/identity/BatchNormalization/sub", "op": "Const", "attr": {"dtype": {"type": "DT_FLOAT"}, "value": {"tensor": {"dtype": "DT_FLOAT", "tensorShape": {"dim": [{"size": "1"}, {"size": "192"}, {"size": "1"}, {"size": "1"}]}}}}}, {"name": "PartitionedCall/Const_20", "op": "Const", "attr": {"dtype": {"type": "DT_INT32"}, "value": {"tensor": {"dtype": "DT_INT32", "tensorShape": {"dim": [{"size": "4"}, {"size": "2"}]}}}}}, {"name": "PartitionedCall/transpose_142/perm", "op": "Const", "attr": {"dtype": {"type": "DT_INT32"}, "value": {"tensor": {"dtype": "DT_INT32", "tensorShape": {"dim": [{"size": "4"}]}}}}}, {"name": "PartitionedCall/Reshape_100", "op": "Const", "attr": {"dtype": {"type": "DT_FLOAT"}, "value": {"tensor": {"dtype": "DT_FLOAT", "tensorShape": {"dim": [{"size": "3"}, {"size": "3"}, {"size": "192"}, {"size": "1"}]}}}}}, {"name": "unknown_170", "op": "Const", "attr": {"value": {"tensor": {"dtype": "DT_FLOAT", "tensorShape": {"dim": [{"size": "192"}]}}}, "dtype": {"type": "DT_FLOAT"}}}, {"name": "PartitionedCall/transpose_143/perm", "op": "Const", "attr": {"value": {"tensor": {"dtype": "DT_INT32", "tensorShape": {"dim": [{"size": "4"}]}}}, "dtype": {"type": "DT_INT32"}}}, {"name": "PartitionedCall/onnx_tf_prefix_/stages.2/blocks/blocks.2/mlp/act/Constant_2", "op": "Const", "attr": {"dtype": {"type": "DT_FLOAT"}, "value": {"tensor": {"dtype": "DT_FLOAT", "tensorShape": {}}}}}, {"name": "PartitionedCall/transpose_124/perm", "op": "Const", "attr": {"dtype": {"type": "DT_INT32"}, "value": {"tensor": {"dtype": "DT_INT32", "tensorShape": {"dim": [{"size": "4"}]}}}}}, {"name": "PartitionedCall/Reshape_88", "op": "Const", "attr": {"value": {"tensor": {"dtype": "DT_FLOAT", "tensorShape": {"dim": [{"size": "1"}, {"size": "1"}, {"size": "192"}, {"size": "1"}]}}}, "dtype": {"type": "DT_FLOAT"}}}, {"name": "unknown_152", "op": "Const", "attr": {"dtype": {"type": "DT_FLOAT"}, "value": {"tensor": {"dtype": "DT_FLOAT", "tensorShape": {"dim": [{"size": "192"}]}}}}}, {"name": "PartitionedCall/transpose_125/perm", "op": "Const", "attr": {"dtype": {"type": "DT_INT32"}, "value": {"tensor": {"dtype": "DT_INT32", "tensorShape": {"dim": [{"size": "4"}]}}}}}, {"name": "PartitionedCall/onnx_tf_prefix_/stages.2/blocks/blocks.2/token_mixer/mixer/identity/BatchNormalization/mul", "op": "Const", "attr": {"value": {"tensor": {"dtype": "DT_FLOAT", "tensorShape": {"dim": [{"size": "1"}, {"size": "192"}, {"size": "1"}, {"size": "1"}]}}}, "dtype": {"type": "DT_FLOAT"}}}, {"name": "PartitionedCall/onnx_tf_prefix_/stages.2/blocks/blocks.2/token_mixer/mixer/identity/BatchNormalization/sub", "op": "Const", "attr": {"value": {"tensor": {"dtype": "DT_FLOAT", "tensorShape": {"dim": [{"size": "1"}, {"size": "192"}, {"size": "1"}, {"size": "1"}]}}}, "dtype": {"type": "DT_FLOAT"}}}, {"name": "PartitionedCall/Const_18", "op": "Const", "attr": {"value": {"tensor": {"dtype": "DT_INT32", "tensorShape": {"dim": [{"size": "4"}, {"size": "2"}]}}}, "dtype": {"type": "DT_INT32"}}}, {"name": "PartitionedCall/transpose_127/perm", "op": "Const", "attr": {"dtype": {"type": "DT_INT32"}, "value": {"tensor": {"dtype": "DT_INT32", "tensorShape": {"dim": [{"size": "4"}]}}}}}, {"name": "PartitionedCall/Reshape_89", "op": "Const", "attr": {"dtype": {"type": "DT_FLOAT"}, "value": {"tensor": {"dtype": "DT_FLOAT", "tensorShape": {"dim": [{"size": "3"}, {"size": "3"}, {"size": "192"}, {"size": "1"}]}}}}}, {"name": "unknown_154", "op": "Const", "attr": {"value": {"tensor": {"dtype": "DT_FLOAT", "tensorShape": {"dim": [{"size": "192"}]}}}, "dtype": {"type": "DT_FLOAT"}}}, {"name": "PartitionedCall/transpose_128/perm", "op": "Const", "attr": {"value": {"tensor": {"dtype": "DT_INT32", "tensorShape": {"dim": [{"size": "4"}]}}}, "dtype": {"type": "DT_INT32"}}}, {"name": "PartitionedCall/onnx_tf_prefix_/stages.2/blocks/blocks.1/mlp/act/Constant_2", "op": "Const", "attr": {"dtype": {"type": "DT_FLOAT"}, "value": {"tensor": {"dtype": "DT_FLOAT", "tensorShape": {}}}}}, {"name": "PartitionedCall/transpose_109/perm", "op": "Const", "attr": {"value": {"tensor": {"dtype": "DT_INT32", "tensorShape": {"dim": [{"size": "4"}]}}}, "dtype": {"type": "DT_INT32"}}}, {"name": "PartitionedCall/Reshape_77", "op": "Const", "attr": {"value": {"tensor": {"dtype": "DT_FLOAT", "tensorShape": {"dim": [{"size": "1"}, {"size": "1"}, {"size": "192"}, {"size": "1"}]}}}, "dtype": {"type": "DT_FLOAT"}}}, {"name": "unknown_136", "op": "Const", "attr": {"value": {"tensor": {"dtype": "DT_FLOAT", "tensorShape": {"dim": [{"size": "192"}]}}}, "dtype": {"type": "DT_FLOAT"}}}, {"name": "PartitionedCall/transpose_110/perm", "op": "Const", "attr": {"value": {"tensor": {"dtype": "DT_INT32", "tensorShape": {"dim": [{"size": "4"}]}}}, "dtype": {"type": "DT_INT32"}}}, {"name": "PartitionedCall/onnx_tf_prefix_/stages.2/blocks/blocks.1/token_mixer/mixer/identity/BatchNormalization/mul", "op": "Const", "attr": {"dtype": {"type": "DT_FLOAT"}, "value": {"tensor": {"dtype": "DT_FLOAT", "tensorShape": {"dim": [{"size": "1"}, {"size": "192"}, {"size": "1"}, {"size": "1"}]}}}}}, {"name": "PartitionedCall/onnx_tf_prefix_/stages.2/blocks/blocks.1/token_mixer/mixer/identity/BatchNormalization/sub", "op": "Const", "attr": {"dtype": {"type": "DT_FLOAT"}, "value": {"tensor": {"dtype": "DT_FLOAT", "tensorShape": {"dim": [{"size": "1"}, {"size": "192"}, {"size": "1"}, {"size": "1"}]}}}}}, {"name": "PartitionedCall/Const_16", "op": "Const", "attr": {"value": {"tensor": {"dtype": "DT_INT32", "tensorShape": {"dim": [{"size": "4"}, {"size": "2"}]}}}, "dtype": {"type": "DT_INT32"}}}, {"name": "PartitionedCall/transpose_112/perm", "op": "Const", "attr": {"dtype": {"type": "DT_INT32"}, "value": {"tensor": {"dtype": "DT_INT32", "tensorShape": {"dim": [{"size": "4"}]}}}}}, {"name": "PartitionedCall/Reshape_78", "op": "Const", "attr": {"dtype": {"type": "DT_FLOAT"}, "value": {"tensor": {"dtype": "DT_FLOAT", "tensorShape": {"dim": [{"size": "3"}, {"size": "3"}, {"size": "192"}, {"size": "1"}]}}}}}, {"name": "unknown_138", "op": "Const", "attr": {"dtype": {"type": "DT_FLOAT"}, "value": {"tensor": {"dtype": "DT_FLOAT", "tensorShape": {"dim": [{"size": "192"}]}}}}}, {"name": "PartitionedCall/transpose_113/perm", "op": "Const", "attr": {"value": {"tensor": {"dtype": "DT_INT32", "tensorShape": {"dim": [{"size": "4"}]}}}, "dtype": {"type": "DT_INT32"}}}, {"name": "PartitionedCall/onnx_tf_prefix_/stages.2/blocks/blocks.0/mlp/act/Constant_2", "op": "Const", "attr": {"value": {"tensor": {"dtype": "DT_FLOAT", "tensorShape": {}}}, "dtype": {"type": "DT_FLOAT"}}}, {"name": "PartitionedCall/transpose_94/perm", "op": "Const", "attr": {"value": {"tensor": {"dtype": "DT_INT32", "tensorShape": {"dim": [{"size": "4"}]}}}, "dtype": {"type": "DT_INT32"}}}, {"name": "PartitionedCall/Reshape_66", "op": "Const", "attr": {"value": {"tensor": {"dtype": "DT_FLOAT", "tensorShape": {"dim": [{"size": "1"}, {"size": "1"}, {"size": "192"}, {"size": "1"}]}}}, "dtype": {"type": "DT_FLOAT"}}}, {"name": "unknown_120", "op": "Const", "attr": {"value": {"tensor": {"dtype": "DT_FLOAT", "tensorShape": {"dim": [{"size": "192"}]}}}, "dtype": {"type": "DT_FLOAT"}}}, {"name": "PartitionedCall/transpose_95/perm", "op": "Const", "attr": {"dtype": {"type": "DT_INT32"}, "value": {"tensor": {"dtype": "DT_INT32", "tensorShape": {"dim": [{"size": "4"}]}}}}}, {"name": "PartitionedCall/onnx_tf_prefix_/stages.2/blocks/blocks.0/token_mixer/mixer/identity/BatchNormalization/mul", "op": "Const", "attr": {"value": {"tensor": {"dtype": "DT_FLOAT", "tensorShape": {"dim": [{"size": "1"}, {"size": "192"}, {"size": "1"}, {"size": "1"}]}}}, "dtype": {"type": "DT_FLOAT"}}}, {"name": "PartitionedCall/onnx_tf_prefix_/stages.2/blocks/blocks.0/token_mixer/mixer/identity/BatchNormalization/sub", "op": "Const", "attr": {"value": {"tensor": {"dtype": "DT_FLOAT", "tensorShape": {"dim": [{"size": "1"}, {"size": "192"}, {"size": "1"}, {"size": "1"}]}}}, "dtype": {"type": "DT_FLOAT"}}}, {"name": "PartitionedCall/Const_14", "op": "Const", "attr": {"value": {"tensor": {"dtype": "DT_INT32", "tensorShape": {"dim": [{"size": "4"}, {"size": "2"}]}}}, "dtype": {"type": "DT_INT32"}}}, {"name": "PartitionedCall/transpose_97/perm", "op": "Const", "attr": {"dtype": {"type": "DT_INT32"}, "value": {"tensor": {"dtype": "DT_INT32", "tensorShape": {"dim": [{"size": "4"}]}}}}}, {"name": "PartitionedCall/Reshape_67", "op": "Const", "attr": {"value": {"tensor": {"dtype": "DT_FLOAT", "tensorShape": {"dim": [{"size": "3"}, {"size": "3"}, {"size": "192"}, {"size": "1"}]}}}, "dtype": {"type": "DT_FLOAT"}}}, {"name": "unknown_122", "op": "Const", "attr": {"dtype": {"type": "DT_FLOAT"}, "value": {"tensor": {"dtype": "DT_FLOAT", "tensorShape": {"dim": [{"size": "192"}]}}}}}, {"name": "PartitionedCall/transpose_98/perm", "op": "Const", "attr": {"dtype": {"type": "DT_INT32"}, "value": {"tensor": {"dtype": "DT_INT32", "tensorShape": {"dim": [{"size": "4"}]}}}}}, {"name": "PartitionedCall/onnx_tf_prefix_/stages.2/downsample/proj/proj.1/act/Constant_2", "op": "Const", "attr": {"value": {"tensor": {"dtype": "DT_FLOAT", "tensorShape": {}}}, "dtype": {"type": "DT_FLOAT"}}}, {"name": "PartitionedCall/onnx_tf_prefix_/stages.2/downsample/proj/proj.1/identity/BatchNormalization/mul", "op": "Const", "attr": {"value": {"tensor": {"dtype": "DT_FLOAT", "tensorShape": {"dim": [{"size": "1"}, {"size": "192"}, {"size": "1"}, {"size": "1"}]}}}, "dtype": {"type": "DT_FLOAT"}}}, {"name": "PartitionedCall/onnx_tf_prefix_/stages.2/downsample/proj/proj.1/identity/BatchNormalization/sub", "op": "Const", "attr": {"value": {"tensor": {"dtype": "DT_FLOAT", "tensorShape": {"dim": [{"size": "1"}, {"size": "192"}, {"size": "1"}, {"size": "1"}]}}}, "dtype": {"type": "DT_FLOAT"}}}, {"name": "PartitionedCall/Const_12", "op": "Const", "attr": {"dtype": {"type": "DT_INT32"}, "value": {"tensor": {"dtype": "DT_INT32", "tensorShape": {"dim": [{"size": "4"}, {"size": "2"}]}}}}}, {"name": "PartitionedCall/transpose_85/perm", "op": "Const", "attr": {"value": {"tensor": {"dtype": "DT_INT32", "tensorShape": {"dim": [{"size": "4"}]}}}, "dtype": {"type": "DT_INT32"}}}, {"name": "PartitionedCall/Reshape_56", "op": "Const", "attr": {"dtype": {"type": "DT_FLOAT"}, "value": {"tensor": {"dtype": "DT_FLOAT", "tensorShape": {"dim": [{"size": "7"}, {"size": "7"}, {"size": "96"}, {"size": "2"}]}}}}}, {"name": "unknown_108", "op": "Const", "attr": {"value": {"tensor": {"dtype": "DT_FLOAT", "tensorShape": {"dim": [{"size": "192"}]}}}, "dtype": {"type": "DT_FLOAT"}}}, {"name": "PartitionedCall/transpose_86/perm", "op": "Const", "attr": {"dtype": {"type": "DT_INT32"}, "value": {"tensor": {"dtype": "DT_INT32", "tensorShape": {"dim": [{"size": "4"}]}}}}}, {"name": "PartitionedCall/onnx_tf_prefix_/stages.1/blocks/blocks.1/mlp/act/Constant_2", "op": "Const", "attr": {"value": {"tensor": {"dtype": "DT_FLOAT", "tensorShape": {}}}, "dtype": {"type": "DT_FLOAT"}}}, {"name": "PartitionedCall/transpose_70/perm", "op": "Const", "attr": {"value": {"tensor": {"dtype": "DT_INT32", "tensorShape": {"dim": [{"size": "4"}]}}}, "dtype": {"type": "DT_INT32"}}}, {"name": "PartitionedCall/Reshape_49", "op": "Const", "attr": {"dtype": {"type": "DT_FLOAT"}, "value": {"tensor": {"dtype": "DT_FLOAT", "tensorShape": {"dim": [{"size": "1"}, {"size": "1"}, {"size": "96"}, {"size": "1"}]}}}}}, {"name": "unknown_94", "op": "Const", "attr": {"dtype": {"type": "DT_FLOAT"}, "value": {"tensor": {"dtype": "DT_FLOAT", "tensorShape": {"dim": [{"size": "96"}]}}}}}, {"name": "PartitionedCall/transpose_71/perm", "op": "Const", "attr": {"value": {"tensor": {"dtype": "DT_INT32", "tensorShape": {"dim": [{"size": "4"}]}}}, "dtype": {"type": "DT_INT32"}}}, {"name": "PartitionedCall/onnx_tf_prefix_/stages.1/blocks/blocks.1/token_mixer/mixer/identity/BatchNormalization/mul", "op": "Const", "attr": {"dtype": {"type": "DT_FLOAT"}, "value": {"tensor": {"dtype": "DT_FLOAT", "tensorShape": {"dim": [{"size": "1"}, {"size": "96"}, {"size": "1"}, {"size": "1"}]}}}}}, {"name": "PartitionedCall/onnx_tf_prefix_/stages.1/blocks/blocks.1/token_mixer/mixer/identity/BatchNormalization/sub", "op": "Const", "attr": {"value": {"tensor": {"dtype": "DT_FLOAT", "tensorShape": {"dim": [{"size": "1"}, {"size": "96"}, {"size": "1"}, {"size": "1"}]}}}, "dtype": {"type": "DT_FLOAT"}}}, {"name": "PartitionedCall/Const_10", "op": "Const", "attr": {"value": {"tensor": {"dtype": "DT_INT32", "tensorShape": {"dim": [{"size": "4"}, {"size": "2"}]}}}, "dtype": {"type": "DT_INT32"}}}, {"name": "PartitionedCall/transpose_73/perm", "op": "Const", "attr": {"value": {"tensor": {"dtype": "DT_INT32", "tensorShape": {"dim": [{"size": "4"}]}}}, "dtype": {"type": "DT_INT32"}}}, {"name": "PartitionedCall/Reshape_50", "op": "Const", "attr": {"dtype": {"type": "DT_FLOAT"}, "value": {"tensor": {"dtype": "DT_FLOAT", "tensorShape": {"dim": [{"size": "3"}, {"size": "3"}, {"size": "96"}, {"size": "1"}]}}}}}, {"name": "unknown_96", "op": "Const", "attr": {"dtype": {"type": "DT_FLOAT"}, "value": {"tensor": {"dtype": "DT_FLOAT", "tensorShape": {"dim": [{"size": "96"}]}}}}}, {"name": "PartitionedCall/transpose_74/perm", "op": "Const", "attr": {"value": {"tensor": {"dtype": "DT_INT32", "tensorShape": {"dim": [{"size": "4"}]}}}, "dtype": {"type": "DT_INT32"}}}, {"name": "PartitionedCall/onnx_tf_prefix_/stages.1/blocks/blocks.0/mlp/act/Constant_2", "op": "Const", "attr": {"value": {"tensor": {"dtype": "DT_FLOAT", "tensorShape": {}}}, "dtype": {"type": "DT_FLOAT"}}}, {"name": "PartitionedCall/transpose_55/perm", "op": "Const", "attr": {"value": {"tensor": {"dtype": "DT_INT32", "tensorShape": {"dim": [{"size": "4"}]}}}, "dtype": {"type": "DT_INT32"}}}, {"name": "PartitionedCall/Reshape_38", "op": "Const", "attr": {"dtype": {"type": "DT_FLOAT"}, "value": {"tensor": {"dtype": "DT_FLOAT", "tensorShape": {"dim": [{"size": "1"}, {"size": "1"}, {"size": "96"}, {"size": "1"}]}}}}}, {"name": "unknown_78", "op": "Const", "attr": {"dtype": {"type": "DT_FLOAT"}, "value": {"tensor": {"dtype": "DT_FLOAT", "tensorShape": {"dim": [{"size": "96"}]}}}}}, {"name": "PartitionedCall/transpose_56/perm", "op": "Const", "attr": {"dtype": {"type": "DT_INT32"}, "value": {"tensor": {"dtype": "DT_INT32", "tensorShape": {"dim": [{"size": "4"}]}}}}}, {"name": "PartitionedCall/onnx_tf_prefix_/stages.1/blocks/blocks.0/token_mixer/mixer/identity/BatchNormalization/mul", "op": "Const", "attr": {"dtype": {"type": "DT_FLOAT"}, "value": {"tensor": {"dtype": "DT_FLOAT", "tensorShape": {"dim": [{"size": "1"}, {"size": "96"}, {"size": "1"}, {"size": "1"}]}}}}}, {"name": "PartitionedCall/onnx_tf_prefix_/stages.1/blocks/blocks.0/token_mixer/mixer/identity/BatchNormalization/sub", "op": "Const", "attr": {"dtype": {"type": "DT_FLOAT"}, "value": {"tensor": {"dtype": "DT_FLOAT", "tensorShape": {"dim": [{"size": "1"}, {"size": "96"}, {"size": "1"}, {"size": "1"}]}}}}}, {"name": "PartitionedCall/Const_8", "op": "Const", "attr": {"value": {"tensor": {"dtype": "DT_INT32", "tensorShape": {"dim": [{"size": "4"}, {"size": "2"}]}}}, "dtype": {"type": "DT_INT32"}}}, {"name": "PartitionedCall/transpose_58/perm", "op": "Const", "attr": {"dtype": {"type": "DT_INT32"}, "value": {"tensor": {"dtype": "DT_INT32", "tensorShape": {"dim": [{"size": "4"}]}}}}}, {"name": "PartitionedCall/Reshape_39", "op": "Const", "attr": {"dtype": {"type": "DT_FLOAT"}, "value": {"tensor": {"dtype": "DT_FLOAT", "tensorShape": {"dim": [{"size": "3"}, {"size": "3"}, {"size": "96"}, {"size": "1"}]}}}}}, {"name": "unknown_80", "op": "Const", "attr": {"dtype": {"type": "DT_FLOAT"}, "value": {"tensor": {"dtype": "DT_FLOAT", "tensorShape": {"dim": [{"size": "96"}]}}}}}, {"name": "PartitionedCall/transpose_59/perm", "op": "Const", "attr": {"value": {"tensor": {"dtype": "DT_INT32", "tensorShape": {"dim": [{"size": "4"}]}}}, "dtype": {"type": "DT_INT32"}}}, {"name": "PartitionedCall/onnx_tf_prefix_/stages.1/downsample/proj/proj.1/act/Constant_2", "op": "Const", "attr": {"dtype": {"type": "DT_FLOAT"}, "value": {"tensor": {"dtype": "DT_FLOAT", "tensorShape": {}}}}}, {"name": "PartitionedCall/onnx_tf_prefix_/stages.1/downsample/proj/proj.1/identity/BatchNormalization/mul", "op": "Const", "attr": {"value": {"tensor": {"dtype": "DT_FLOAT", "tensorShape": {"dim": [{"size": "1"}, {"size": "96"}, {"size": "1"}, {"size": "1"}]}}}, "dtype": {"type": "DT_FLOAT"}}}, {"name": "PartitionedCall/onnx_tf_prefix_/stages.1/downsample/proj/proj.1/identity/BatchNormalization/sub", "op": "Const", "attr": {"value": {"tensor": {"dtype": "DT_FLOAT", "tensorShape": {"dim": [{"size": "1"}, {"size": "96"}, {"size": "1"}, {"size": "1"}]}}}, "dtype": {"type": "DT_FLOAT"}}}, {"name": "PartitionedCall/Const_6", "op": "Const", "attr": {"dtype": {"type": "DT_INT32"}, "value": {"tensor": {"dtype": "DT_INT32", "tensorShape": {"dim": [{"size": "4"}, {"size": "2"}]}}}}}, {"name": "PartitionedCall/transpose_46/perm", "op": "Const", "attr": {"dtype": {"type": "DT_INT32"}, "value": {"tensor": {"dtype": "DT_INT32", "tensorShape": {"dim": [{"size": "4"}]}}}}}, {"name": "PartitionedCall/Reshape_28", "op": "Const", "attr": {"value": {"tensor": {"dtype": "DT_FLOAT", "tensorShape": {"dim": [{"size": "7"}, {"size": "7"}, {"size": "48"}, {"size": "2"}]}}}, "dtype": {"type": "DT_FLOAT"}}}, {"name": "unknown_66", "op": "Const", "attr": {"dtype": {"type": "DT_FLOAT"}, "value": {"tensor": {"dtype": "DT_FLOAT", "tensorShape": {"dim": [{"size": "96"}]}}}}}, {"name": "PartitionedCall/transpose_47/perm", "op": "Const", "attr": {"dtype": {"type": "DT_INT32"}, "value": {"tensor": {"dtype": "DT_INT32", "tensorShape": {"dim": [{"size": "4"}]}}}}}, {"name": "PartitionedCall/onnx_tf_prefix_/stages.0/blocks/blocks.1/mlp/act/Constant_2", "op": "Const", "attr": {"dtype": {"type": "DT_FLOAT"}, "value": {"tensor": {"dtype": "DT_FLOAT", "tensorShape": {}}}}}, {"name": "PartitionedCall/transpose_31/perm", "op": "Const", "attr": {"value": {"tensor": {"dtype": "DT_INT32", "tensorShape": {"dim": [{"size": "4"}]}}}, "dtype": {"type": "DT_INT32"}}}, {"name": "PartitionedCall/Reshape_21", "op": "Const", "attr": {"value": {"tensor": {"dtype": "DT_FLOAT", "tensorShape": {"dim": [{"size": "1"}, {"size": "1"}, {"size": "48"}, {"size": "1"}]}}}, "dtype": {"type": "DT_FLOAT"}}}, {"name": "unknown_52", "op": "Const", "attr": {"dtype": {"type": "DT_FLOAT"}, "value": {"tensor": {"dtype": "DT_FLOAT", "tensorShape": {"dim": [{"size": "48"}]}}}}}, {"name": "PartitionedCall/transpose_32/perm", "op": "Const", "attr": {"dtype": {"type": "DT_INT32"}, "value": {"tensor": {"dtype": "DT_INT32", "tensorShape": {"dim": [{"size": "4"}]}}}}}, {"name": "PartitionedCall/onnx_tf_prefix_/stages.0/blocks/blocks.1/token_mixer/mixer/identity/BatchNormalization/mul", "op": "Const", "attr": {"dtype": {"type": "DT_FLOAT"}, "value": {"tensor": {"dtype": "DT_FLOAT", "tensorShape": {"dim": [{"size": "1"}, {"size": "48"}, {"size": "1"}, {"size": "1"}]}}}}}, {"name": "PartitionedCall/onnx_tf_prefix_/stages.0/blocks/blocks.1/token_mixer/mixer/identity/BatchNormalization/sub", "op": "Const", "attr": {"value": {"tensor": {"dtype": "DT_FLOAT", "tensorShape": {"dim": [{"size": "1"}, {"size": "48"}, {"size": "1"}, {"size": "1"}]}}}, "dtype": {"type": "DT_FLOAT"}}}, {"name": "PartitionedCall/Const_4", "op": "Const", "attr": {"value": {"tensor": {"dtype": "DT_INT32", "tensorShape": {"dim": [{"size": "4"}, {"size": "2"}]}}}, "dtype": {"type": "DT_INT32"}}}, {"name": "PartitionedCall/transpose_34/perm", "op": "Const", "attr": {"value": {"tensor": {"dtype": "DT_INT32", "tensorShape": {"dim": [{"size": "4"}]}}}, "dtype": {"type": "DT_INT32"}}}, {"name": "PartitionedCall/Reshape_22", "op": "Const", "attr": {"dtype": {"type": "DT_FLOAT"}, "value": {"tensor": {"dtype": "DT_FLOAT", "tensorShape": {"dim": [{"size": "3"}, {"size": "3"}, {"size": "48"}, {"size": "1"}]}}}}}, {"name": "unknown_54", "op": "Const", "attr": {"value": {"tensor": {"dtype": "DT_FLOAT", "tensorShape": {"dim": [{"size": "48"}]}}}, "dtype": {"type": "DT_FLOAT"}}}, {"name": "PartitionedCall/transpose_35/perm", "op": "Const", "attr": {"dtype": {"type": "DT_INT32"}, "value": {"tensor": {"dtype": "DT_INT32", "tensorShape": {"dim": [{"size": "4"}]}}}}}, {"name": "PartitionedCall/onnx_tf_prefix_/stages.0/blocks/blocks.0/mlp/act/Constant_2", "op": "Const", "attr": {"dtype": {"type": "DT_FLOAT"}, "value": {"tensor": {"dtype": "DT_FLOAT", "tensorShape": {}}}}}, {"name": "PartitionedCall/transpose_16/perm", "op": "Const", "attr": {"dtype": {"type": "DT_INT32"}, "value": {"tensor": {"dtype": "DT_INT32", "tensorShape": {"dim": [{"size": "4"}]}}}}}, {"name": "PartitionedCall/Reshape_10", "op": "Const", "attr": {"value": {"tensor": {"dtype": "DT_FLOAT", "tensorShape": {"dim": [{"size": "1"}, {"size": "1"}, {"size": "48"}, {"size": "1"}]}}}, "dtype": {"type": "DT_FLOAT"}}}, {"name": "unknown_36", "op": "Const", "attr": {"dtype": {"type": "DT_FLOAT"}, "value": {"tensor": {"dtype": "DT_FLOAT", "tensorShape": {"dim": [{"size": "48"}]}}}}}, {"name": "PartitionedCall/transpose_17/perm", "op": "Const", "attr": {"value": {"tensor": {"dtype": "DT_INT32", "tensorShape": {"dim": [{"size": "4"}]}}}, "dtype": {"type": "DT_INT32"}}}, {"name": "PartitionedCall/onnx_tf_prefix_/stages.0/blocks/blocks.0/token_mixer/mixer/identity/BatchNormalization/mul", "op": "Const", "attr": {"value": {"tensor": {"dtype": "DT_FLOAT", "tensorShape": {"dim": [{"size": "1"}, {"size": "48"}, {"size": "1"}, {"size": "1"}]}}}, "dtype": {"type": "DT_FLOAT"}}}, {"name": "PartitionedCall/onnx_tf_prefix_/stages.0/blocks/blocks.0/token_mixer/mixer/identity/BatchNormalization/sub", "op": "Const", "attr": {"dtype": {"type": "DT_FLOAT"}, "value": {"tensor": {"dtype": "DT_FLOAT", "tensorShape": {"dim": [{"size": "1"}, {"size": "48"}, {"size": "1"}, {"size": "1"}]}}}}}, {"name": "PartitionedCall/Const_2", "op": "Const", "attr": {"value": {"tensor": {"dtype": "DT_INT32", "tensorShape": {"dim": [{"size": "4"}, {"size": "2"}]}}}, "dtype": {"type": "DT_INT32"}}}, {"name": "PartitionedCall/transpose_19/perm", "op": "Const", "attr": {"value": {"tensor": {"dtype": "DT_INT32", "tensorShape": {"dim": [{"size": "4"}]}}}, "dtype": {"type": "DT_INT32"}}}, {"name": "PartitionedCall/Reshape_11", "op": "Const", "attr": {"dtype": {"type": "DT_FLOAT"}, "value": {"tensor": {"dtype": "DT_FLOAT", "tensorShape": {"dim": [{"size": "3"}, {"size": "3"}, {"size": "48"}, {"size": "1"}]}}}}}, {"name": "unknown_38", "op": "Const", "attr": {"dtype": {"type": "DT_FLOAT"}, "value": {"tensor": {"dtype": "DT_FLOAT", "tensorShape": {"dim": [{"size": "48"}]}}}}}, {"name": "PartitionedCall/transpose_20/perm", "op": "Const", "attr": {"value": {"tensor": {"dtype": "DT_INT32", "tensorShape": {"dim": [{"size": "4"}]}}}, "dtype": {"type": "DT_INT32"}}}, {"name": "PartitionedCall/onnx_tf_prefix_/stem/stem.2/act/Constant_2", "op": "Const", "attr": {"value": {"tensor": {"dtype": "DT_FLOAT", "tensorShape": {}}}, "dtype": {"type": "DT_FLOAT"}}}, {"name": "PartitionedCall/onnx_tf_prefix_/stem/stem.2/identity/BatchNormalization/mul", "op": "Const", "attr": {"value": {"tensor": {"dtype": "DT_FLOAT", "tensorShape": {"dim": [{"size": "1"}, {"size": "48"}, {"size": "1"}, {"size": "1"}]}}}, "dtype": {"type": "DT_FLOAT"}}}, {"name": "PartitionedCall/onnx_tf_prefix_/stem/stem.2/identity/BatchNormalization/sub", "op": "Const", "attr": {"value": {"tensor": {"dtype": "DT_FLOAT", "tensorShape": {"dim": [{"size": "1"}, {"size": "48"}, {"size": "1"}, {"size": "1"}]}}}, "dtype": {"type": "DT_FLOAT"}}}, {"name": "PartitionedCall/onnx_tf_prefix_/stem/stem.1/act/Constant_2", "op": "Const", "attr": {"dtype": {"type": "DT_FLOAT"}, "value": {"tensor": {"dtype": "DT_FLOAT", "tensorShape": {}}}}}, {"name": "PartitionedCall/transpose_7/perm", "op": "Const", "attr": {"value": {"tensor": {"dtype": "DT_INT32", "tensorShape": {"dim": [{"size": "4"}]}}}, "dtype": {"type": "DT_INT32"}}}, {"name": "PartitionedCall/Reshape", "op": "Const", "attr": {"value": {"tensor": {"dtype": "DT_FLOAT", "tensorShape": {"dim": [{"size": "1"}, {"size": "1"}, {"size": "48"}, {"size": "1"}]}}}, "dtype": {"type": "DT_FLOAT"}}}, {"name": "unknown_24", "op": "Const", "attr": {"value": {"tensor": {"dtype": "DT_FLOAT", "tensorShape": {"dim": [{"size": "48"}]}}}, "dtype": {"type": "DT_FLOAT"}}}, {"name": "PartitionedCall/transpose_8/perm", "op": "Const", "attr": {"value": {"tensor": {"dtype": "DT_INT32", "tensorShape": {"dim": [{"size": "4"}]}}}, "dtype": {"type": "DT_INT32"}}}, {"name": "PartitionedCall/onnx_tf_prefix_/stem/stem.0/act/Constant_2", "op": "Const", "attr": {"value": {"tensor": {"dtype": "DT_FLOAT", "tensorShape": {}}}, "dtype": {"type": "DT_FLOAT"}}}, {"name": "PartitionedCall/transpose_1/perm", "op": "Const", "attr": {"dtype": {"type": "DT_INT32"}, "value": {"tensor": {"dtype": "DT_INT32", "tensorShape": {"dim": [{"size": "4"}]}}}}}, {"name": "PartitionedCall/split", "op": "Const", "attr": {"dtype": {"type": "DT_FLOAT"}, "value": {"tensor": {"dtype": "DT_FLOAT", "tensorShape": {"dim": [{"size": "1"}, {"size": "1"}, {"size": "3"}, {"size": "48"}]}}}}}, {"name": "unknown_20", "op": "Const", "attr": {"value": {"tensor": {"dtype": "DT_FLOAT", "tensorShape": {"dim": [{"size": "48"}]}}}, "dtype": {"type": "DT_FLOAT"}}}, {"name": "PartitionedCall/transpose_2/perm", "op": "Const", "attr": {"dtype": {"type": "DT_INT32"}, "value": {"tensor": {"dtype": "DT_INT32", "tensorShape": {"dim": [{"size": "4"}]}}}}}, {"name": "PartitionedCall/Const", "op": "Const", "attr": {"value": {"tensor": {"dtype": "DT_INT32", "tensorShape": {"dim": [{"size": "4"}, {"size": "2"}]}}}, "dtype": {"type": "DT_INT32"}}}, {"name": "PartitionedCall/transpose_4/perm", "op": "Const", "attr": {"value": {"tensor": {"dtype": "DT_INT32", "tensorShape": {"dim": [{"size": "4"}]}}}, "dtype": {"type": "DT_INT32"}}}, {"name": "PartitionedCall/split_1", "op": "Const", "attr": {"value": {"tensor": {"dtype": "DT_FLOAT", "tensorShape": {"dim": [{"size": "3"}, {"size": "3"}, {"size": "3"}, {"size": "48"}]}}}, "dtype": {"type": "DT_FLOAT"}}}, {"name": "unknown_22", "op": "Const", "attr": {"value": {"tensor": {"dtype": "DT_FLOAT", "tensorShape": {"dim": [{"size": "48"}]}}}, "dtype": {"type": "DT_FLOAT"}}}, {"name": "PartitionedCall/transpose_5/perm", "op": "Const", "attr": {"value": {"tensor": {"dtype": "DT_INT32", "tensorShape": {"dim": [{"size": "4"}]}}}, "dtype": {"type": "DT_INT32"}}}, {"name": "ConstantFolding/PartitionedCall/onnx_tf_prefix_/stem/stem.0/act/Div_recip", "op": "Const", "attr": {"dtype": {"type": "DT_FLOAT"}, "value": {"tensor": {"dtype": "DT_FLOAT", "tensorShape": {}}}}}, {"name": "PartitionedCall/onnx_tf_prefix_/stem/stem.0/act/Constant_1", "op": "Const", "attr": {"value": {"tensor": {"dtype": "DT_FLOAT", "tensorShape": {}}}, "dtype": {"type": "DT_FLOAT"}}}, {"name": "PartitionedCall/Const_1", "op": "Const", "attr": {"value": {"tensor": {"dtype": "DT_INT32", "tensorShape": {"dim": [{"size": "4"}, {"size": "2"}]}}}, "dtype": {"type": "DT_INT32"}}}, {"name": "PartitionedCall/transpose_10/perm", "op": "Const", "attr": {"value": {"tensor": {"dtype": "DT_INT32", "tensorShape": {"dim": [{"size": "4"}]}}}, "dtype": {"type": "DT_INT32"}}}, {"name": "PartitionedCall/Reshape_1", "op": "Const", "attr": {"dtype": {"type": "DT_FLOAT"}, "value": {"tensor": {"dtype": "DT_FLOAT", "tensorShape": {"dim": [{"size": "3"}, {"size": "3"}, {"size": "48"}, {"size": "1"}]}}}}}, {"name": "unknown_26", "op": "Const", "attr": {"dtype": {"type": "DT_FLOAT"}, "value": {"tensor": {"dtype": "DT_FLOAT", "tensorShape": {"dim": [{"size": "48"}]}}}}}, {"name": "PartitionedCall/transpose_11/perm", "op": "Const", "attr": {"value": {"tensor": {"dtype": "DT_INT32", "tensorShape": {"dim": [{"size": "4"}]}}}, "dtype": {"type": "DT_INT32"}}}, {"name": "ConstantFolding/PartitionedCall/onnx_tf_prefix_/stem/stem.1/act/Div_recip", "op": "Const", "attr": {"dtype": {"type": "DT_FLOAT"}, "value": {"tensor": {"dtype": "DT_FLOAT", "tensorShape": {}}}}}, {"name": "PartitionedCall/onnx_tf_prefix_/stem/stem.1/act/Constant_1", "op": "Const", "attr": {"value": {"tensor": {"dtype": "DT_FLOAT", "tensorShape": {}}}, "dtype": {"type": "DT_FLOAT"}}}, {"name": "PartitionedCall/transpose_13/perm", "op": "Const", "attr": {"value": {"tensor": {"dtype": "DT_INT32", "tensorShape": {"dim": [{"size": "4"}]}}}, "dtype": {"type": "DT_INT32"}}}, {"name": "PartitionedCall/split_2", "op": "Const", "attr": {"value": {"tensor": {"dtype": "DT_FLOAT", "tensorShape": {"dim": [{"size": "1"}, {"size": "1"}, {"size": "48"}, {"size": "48"}]}}}, "dtype": {"type": "DT_FLOAT"}}}, {"name": "unknown_32", "op": "Const", "attr": {"value": {"tensor": {"dtype": "DT_FLOAT", "tensorShape": {"dim": [{"size": "48"}]}}}, "dtype": {"type": "DT_FLOAT"}}}, {"name": "PartitionedCall/transpose_14/perm", "op": "Const", "attr": {"dtype": {"type": "DT_INT32"}, "value": {"tensor": {"dtype": "DT_INT32", "tensorShape": {"dim": [{"size": "4"}]}}}}}, {"name": "ConstantFolding/PartitionedCall/onnx_tf_prefix_/stem/stem.2/act/Div_recip", "op": "Const", "attr": {"value": {"tensor": {"dtype": "DT_FLOAT", "tensorShape": {}}}, "dtype": {"type": "DT_FLOAT"}}}, {"name": "PartitionedCall/onnx_tf_prefix_/stem/stem.2/act/Constant_1", "op": "Const", "attr": {"value": {"tensor": {"dtype": "DT_FLOAT", "tensorShape": {}}}, "dtype": {"type": "DT_FLOAT"}}}, {"name": "PartitionedCall/onnx_tf_prefix_/stages.0/blocks/blocks.0/token_mixer/norm/identity/BatchNormalization/mul", "op": "Const", "attr": {"value": {"tensor": {"dtype": "DT_FLOAT", "tensorShape": {"dim": [{"size": "1"}, {"size": "48"}, {"size": "1"}, {"size": "1"}]}}}, "dtype": {"type": "DT_FLOAT"}}}, {"name": "PartitionedCall/onnx_tf_prefix_/stages.0/blocks/blocks.0/token_mixer/norm/identity/BatchNormalization/sub", "op": "Const", "attr": {"value": {"tensor": {"dtype": "DT_FLOAT", "tensorShape": {"dim": [{"size": "1"}, {"size": "48"}, {"size": "1"}, {"size": "1"}]}}}, "dtype": {"type": "DT_FLOAT"}}}, {"name": "unknown_41", "op": "Const", "attr": {"value": {"tensor": {"dtype": "DT_FLOAT", "tensorShape": {"dim": [{"size": "48"}, {"size": "1"}, {"size": "1"}]}}}, "dtype": {"type": "DT_FLOAT"}}}, {"name": "PartitionedCall/Const_3", "op": "Const", "attr": {"value": {"tensor": {"dtype": "DT_INT32", "tensorShape": {"dim": [{"size": "4"}, {"size": "2"}]}}}, "dtype": {"type": "DT_INT32"}}}, {"name": "PartitionedCall/transpose_22/perm", "op": "Const", "attr": {"dtype": {"type": "DT_INT32"}, "value": {"tensor": {"dtype": "DT_INT32", "tensorShape": {"dim": [{"size": "4"}]}}}}}, {"name": "PartitionedCall/Reshape_16", "op": "Const", "attr": {"value": {"tensor": {"dtype": "DT_FLOAT", "tensorShape": {"dim": [{"size": "7"}, {"size": "7"}, {"size": "48"}, {"size": "1"}]}}}, "dtype": {"type": "DT_FLOAT"}}}, {"name": "unknown_43", "op": "Const", "attr": {"dtype": {"type": "DT_FLOAT"}, "value": {"tensor": {"dtype": "DT_FLOAT", "tensorShape": {"dim": [{"size": "48"}]}}}}}, {"name": "PartitionedCall/split_3", "op": "Const", "attr": {"dtype": {"type": "DT_FLOAT"}, "value": {"tensor": {"dtype": "DT_FLOAT", "tensorShape": {"dim": [{"size": "1"}, {"size": "1"}, {"size": "48"}, {"size": "144"}]}}}}}, {"name": "unknown_45", "op": "Const", "attr": {"value": {"tensor": {"dtype": "DT_FLOAT", "tensorShape": {"dim": [{"size": "144"}]}}}, "dtype": {"type": "DT_FLOAT"}}}, {"name": "PartitionedCall/transpose_26/perm", "op": "Const", "attr": {"value": {"tensor": {"dtype": "DT_INT32", "tensorShape": {"dim": [{"size": "4"}]}}}, "dtype": {"type": "DT_INT32"}}}, {"name": "ConstantFolding/PartitionedCall/onnx_tf_prefix_/stages.0/blocks/blocks.0/mlp/act/Div_recip", "op": "Const", "attr": {"dtype": {"type": "DT_FLOAT"}, "value": {"tensor": {"dtype": "DT_FLOAT", "tensorShape": {}}}}}, {"name": "PartitionedCall/onnx_tf_prefix_/stages.0/blocks/blocks.0/mlp/act/Constant_1", "op": "Const", "attr": {"dtype": {"type": "DT_FLOAT"}, "value": {"tensor": {"dtype": "DT_FLOAT", "tensorShape": {}}}}}, {"name": "PartitionedCall/transpose_28/perm", "op": "Const", "attr": {"value": {"tensor": {"dtype": "DT_INT32", "tensorShape": {"dim": [{"size": "4"}]}}}, "dtype": {"type": "DT_INT32"}}}, {"name": "PartitionedCall/split_4", "op": "Const", "attr": {"dtype": {"type": "DT_FLOAT"}, "value": {"tensor": {"dtype": "DT_FLOAT", "tensorShape": {"dim": [{"size": "1"}, {"size": "1"}, {"size": "144"}, {"size": "48"}]}}}}}, {"name": "unknown_47", "op": "Const", "attr": {"value": {"tensor": {"dtype": "DT_FLOAT", "tensorShape": {"dim": [{"size": "48"}]}}}, "dtype": {"type": "DT_FLOAT"}}}, {"name": "PartitionedCall/transpose_29/perm", "op": "Const", "attr": {"value": {"tensor": {"dtype": "DT_INT32", "tensorShape": {"dim": [{"size": "4"}]}}}, "dtype": {"type": "DT_INT32"}}}, {"name": "unknown_48", "op": "Const", "attr": {"dtype": {"type": "DT_FLOAT"}, "value": {"tensor": {"dtype": "DT_FLOAT", "tensorShape": {"dim": [{"size": "48"}, {"size": "1"}, {"size": "1"}]}}}}}, {"name": "PartitionedCall/onnx_tf_prefix_/stages.0/blocks/blocks.1/token_mixer/norm/identity/BatchNormalization/mul", "op": "Const", "attr": {"value": {"tensor": {"dtype": "DT_FLOAT", "tensorShape": {"dim": [{"size": "1"}, {"size": "48"}, {"size": "1"}, {"size": "1"}]}}}, "dtype": {"type": "DT_FLOAT"}}}, {"name": "PartitionedCall/onnx_tf_prefix_/stages.0/blocks/blocks.1/token_mixer/norm/identity/BatchNormalization/sub", "op": "Const", "attr": {"value": {"tensor": {"dtype": "DT_FLOAT", "tensorShape": {"dim": [{"size": "1"}, {"size": "48"}, {"size": "1"}, {"size": "1"}]}}}, "dtype": {"type": "DT_FLOAT"}}}, {"name": "unknown_57", "op": "Const", "attr": {"value": {"tensor": {"dtype": "DT_FLOAT", "tensorShape": {"dim": [{"size": "48"}, {"size": "1"}, {"size": "1"}]}}}, "dtype": {"type": "DT_FLOAT"}}}, {"name": "PartitionedCall/Const_5", "op": "Const", "attr": {"value": {"tensor": {"dtype": "DT_INT32", "tensorShape": {"dim": [{"size": "4"}, {"size": "2"}]}}}, "dtype": {"type": "DT_INT32"}}}, {"name": "PartitionedCall/transpose_37/perm", "op": "Const", "attr": {"dtype": {"type": "DT_INT32"}, "value": {"tensor": {"dtype": "DT_INT32", "tensorShape": {"dim": [{"size": "4"}]}}}}}, {"name": "PartitionedCall/Reshape_27", "op": "Const", "attr": {"dtype": {"type": "DT_FLOAT"}, "value": {"tensor": {"dtype": "DT_FLOAT", "tensorShape": {"dim": [{"size": "7"}, {"size": "7"}, {"size": "48"}, {"size": "1"}]}}}}}, {"name": "unknown_59", "op": "Const", "attr": {"value": {"tensor": {"dtype": "DT_FLOAT", "tensorShape": {"dim": [{"size": "48"}]}}}, "dtype": {"type": "DT_FLOAT"}}}, {"name": "PartitionedCall/split_5", "op": "Const", "attr": {"value": {"tensor": {"dtype": "DT_FLOAT", "tensorShape": {"dim": [{"size": "1"}, {"size": "1"}, {"size": "48"}, {"size": "144"}]}}}, "dtype": {"type": "DT_FLOAT"}}}, {"name": "unknown_61", "op": "Const", "attr": {"value": {"tensor": {"dtype": "DT_FLOAT", "tensorShape": {"dim": [{"size": "144"}]}}}, "dtype": {"type": "DT_FLOAT"}}}, {"name": "PartitionedCall/transpose_41/perm", "op": "Const", "attr": {"dtype": {"type": "DT_INT32"}, "value": {"tensor": {"dtype": "DT_INT32", "tensorShape": {"dim": [{"size": "4"}]}}}}}, {"name": "ConstantFolding/PartitionedCall/onnx_tf_prefix_/stages.0/blocks/blocks.1/mlp/act/Div_recip", "op": "Const", "attr": {"value": {"tensor": {"dtype": "DT_FLOAT", "tensorShape": {}}}, "dtype": {"type": "DT_FLOAT"}}}, {"name": "PartitionedCall/onnx_tf_prefix_/stages.0/blocks/blocks.1/mlp/act/Constant_1", "op": "Const", "attr": {"dtype": {"type": "DT_FLOAT"}, "value": {"tensor": {"dtype": "DT_FLOAT", "tensorShape": {}}}}}, {"name": "PartitionedCall/transpose_43/perm", "op": "Const", "attr": {"dtype": {"type": "DT_INT32"}, "value": {"tensor": {"dtype": "DT_INT32", "tensorShape": {"dim": [{"size": "4"}]}}}}}, {"name": "PartitionedCall/split_6", "op": "Const", "attr": {"dtype": {"type": "DT_FLOAT"}, "value": {"tensor": {"dtype": "DT_FLOAT", "tensorShape": {"dim": [{"size": "1"}, {"size": "1"}, {"size": "144"}, {"size": "48"}]}}}}}, {"name": "unknown_63", "op": "Const", "attr": {"dtype": {"type": "DT_FLOAT"}, "value": {"tensor": {"dtype": "DT_FLOAT", "tensorShape": {"dim": [{"size": "48"}]}}}}}, {"name": "PartitionedCall/transpose_44/perm", "op": "Const", "attr": {"dtype": {"type": "DT_INT32"}, "value": {"tensor": {"dtype": "DT_INT32", "tensorShape": {"dim": [{"size": "4"}]}}}}}, {"name": "unknown_64", "op": "Const", "attr": {"value": {"tensor": {"dtype": "DT_FLOAT", "tensorShape": {"dim": [{"size": "48"}, {"size": "1"}, {"size": "1"}]}}}, "dtype": {"type": "DT_FLOAT"}}}, {"name": "PartitionedCall/Const_7", "op": "Const", "attr": {"dtype": {"type": "DT_INT32"}, "value": {"tensor": {"dtype": "DT_INT32", "tensorShape": {"dim": [{"size": "4"}, {"size": "2"}]}}}}}, {"name": "PartitionedCall/transpose_49/perm", "op": "Const", "attr": {"dtype": {"type": "DT_INT32"}, "value": {"tensor": {"dtype": "DT_INT32", "tensorShape": {"dim": [{"size": "4"}]}}}}}, {"name": "PartitionedCall/Reshape_29", "op": "Const", "attr": {"value": {"tensor": {"dtype": "DT_FLOAT", "tensorShape": {"dim": [{"size": "3"}, {"size": "3"}, {"size": "48"}, {"size": "2"}]}}}, "dtype": {"type": "DT_FLOAT"}}}, {"name": "unknown_68", "op": "Const", "attr": {"value": {"tensor": {"dtype": "DT_FLOAT", "tensorShape": {"dim": [{"size": "96"}]}}}, "dtype": {"type": "DT_FLOAT"}}}, {"name": "PartitionedCall/transpose_50/perm", "op": "Const", "attr": {"dtype": {"type": "DT_INT32"}, "value": {"tensor": {"dtype": "DT_INT32", "tensorShape": {"dim": [{"size": "4"}]}}}}}, {"name": "PartitionedCall/transpose_52/perm", "op": "Const", "attr": {"value": {"tensor": {"dtype": "DT_INT32", "tensorShape": {"dim": [{"size": "4"}]}}}, "dtype": {"type": "DT_INT32"}}}, {"name": "PartitionedCall/split_7", "op": "Const", "attr": {"dtype": {"type": "DT_FLOAT"}, "value": {"tensor": {"dtype": "DT_FLOAT", "tensorShape": {"dim": [{"size": "1"}, {"size": "1"}, {"size": "96"}, {"size": "96"}]}}}}}, {"name": "unknown_74", "op": "Const", "attr": {"dtype": {"type": "DT_FLOAT"}, "value": {"tensor": {"dtype": "DT_FLOAT", "tensorShape": {"dim": [{"size": "96"}]}}}}}, {"name": "PartitionedCall/transpose_53/perm", "op": "Const", "attr": {"dtype": {"type": "DT_INT32"}, "value": {"tensor": {"dtype": "DT_INT32", "tensorShape": {"dim": [{"size": "4"}]}}}}}, {"name": "ConstantFolding/PartitionedCall/onnx_tf_prefix_/stages.1/downsample/proj/proj.1/act/Div_recip", "op": "Const", "attr": {"dtype": {"type": "DT_FLOAT"}, "value": {"tensor": {"dtype": "DT_FLOAT", "tensorShape": {}}}}}, {"name": "PartitionedCall/onnx_tf_prefix_/stages.1/downsample/proj/proj.1/act/Constant_1", "op": "Const", "attr": {"dtype": {"type": "DT_FLOAT"}, "value": {"tensor": {"dtype": "DT_FLOAT", "tensorShape": {}}}}}, {"name": "PartitionedCall/onnx_tf_prefix_/stages.1/blocks/blocks.0/token_mixer/norm/identity/BatchNormalization/mul", "op": "Const", "attr": {"dtype": {"type": "DT_FLOAT"}, "value": {"tensor": {"dtype": "DT_FLOAT", "tensorShape": {"dim": [{"size": "1"}, {"size": "96"}, {"size": "1"}, {"size": "1"}]}}}}}, {"name": "PartitionedCall/onnx_tf_prefix_/stages.1/blocks/blocks.0/token_mixer/norm/identity/BatchNormalization/sub", "op": "Const", "attr": {"dtype": {"type": "DT_FLOAT"}, "value": {"tensor": {"dtype": "DT_FLOAT", "tensorShape": {"dim": [{"size": "1"}, {"size": "96"}, {"size": "1"}, {"size": "1"}]}}}}}, {"name": "unknown_83", "op": "Const", "attr": {"value": {"tensor": {"dtype": "DT_FLOAT", "tensorShape": {"dim": [{"size": "96"}, {"size": "1"}, {"size": "1"}]}}}, "dtype": {"type": "DT_FLOAT"}}}, {"name": "PartitionedCall/Const_9", "op": "Const", "attr": {"value": {"tensor": {"dtype": "DT_INT32", "tensorShape": {"dim": [{"size": "4"}, {"size": "2"}]}}}, "dtype": {"type": "DT_INT32"}}}, {"name": "PartitionedCall/transpose_61/perm", "op": "Const", "attr": {"value": {"tensor": {"dtype": "DT_INT32", "tensorShape": {"dim": [{"size": "4"}]}}}, "dtype": {"type": "DT_INT32"}}}, {"name": "PartitionedCall/Reshape_44", "op": "Const", "attr": {"dtype": {"type": "DT_FLOAT"}, "value": {"tensor": {"dtype": "DT_FLOAT", "tensorShape": {"dim": [{"size": "7"}, {"size": "7"}, {"size": "96"}, {"size": "1"}]}}}}}, {"name": "unknown_85", "op": "Const", "attr": {"value": {"tensor": {"dtype": "DT_FLOAT", "tensorShape": {"dim": [{"size": "96"}]}}}, "dtype": {"type": "DT_FLOAT"}}}, {"name": "PartitionedCall/split_8", "op": "Const", "attr": {"value": {"tensor": {"dtype": "DT_FLOAT", "tensorShape": {"dim": [{"size": "1"}, {"size": "1"}, {"size": "96"}, {"size": "288"}]}}}, "dtype": {"type": "DT_FLOAT"}}}, {"name": "unknown_87", "op": "Const", "attr": {"dtype": {"type": "DT_FLOAT"}, "value": {"tensor": {"dtype": "DT_FLOAT", "tensorShape": {"dim": [{"size": "288"}]}}}}}, {"name": "PartitionedCall/transpose_65/perm", "op": "Const", "attr": {"value": {"tensor": {"dtype": "DT_INT32", "tensorShape": {"dim": [{"size": "4"}]}}}, "dtype": {"type": "DT_INT32"}}}, {"name": "ConstantFolding/PartitionedCall/onnx_tf_prefix_/stages.1/blocks/blocks.0/mlp/act/Div_recip", "op": "Const", "attr": {"value": {"tensor": {"dtype": "DT_FLOAT", "tensorShape": {}}}, "dtype": {"type": "DT_FLOAT"}}}, {"name": "PartitionedCall/onnx_tf_prefix_/stages.1/blocks/blocks.0/mlp/act/Constant_1", "op": "Const", "attr": {"dtype": {"type": "DT_FLOAT"}, "value": {"tensor": {"dtype": "DT_FLOAT", "tensorShape": {}}}}}, {"name": "PartitionedCall/transpose_67/perm", "op": "Const", "attr": {"value": {"tensor": {"dtype": "DT_INT32", "tensorShape": {"dim": [{"size": "4"}]}}}, "dtype": {"type": "DT_INT32"}}}, {"name": "PartitionedCall/split_9", "op": "Const", "attr": {"dtype": {"type": "DT_FLOAT"}, "value": {"tensor": {"dtype": "DT_FLOAT", "tensorShape": {"dim": [{"size": "1"}, {"size": "1"}, {"size": "288"}, {"size": "96"}]}}}}}, {"name": "unknown_89", "op": "Const", "attr": {"value": {"tensor": {"dtype": "DT_FLOAT", "tensorShape": {"dim": [{"size": "96"}]}}}, "dtype": {"type": "DT_FLOAT"}}}, {"name": "PartitionedCall/transpose_68/perm", "op": "Const", "attr": {"value": {"tensor": {"dtype": "DT_INT32", "tensorShape": {"dim": [{"size": "4"}]}}}, "dtype": {"type": "DT_INT32"}}}, {"name": "unknown_90", "op": "Const", "attr": {"value": {"tensor": {"dtype": "DT_FLOAT", "tensorShape": {"dim": [{"size": "96"}, {"size": "1"}, {"size": "1"}]}}}, "dtype": {"type": "DT_FLOAT"}}}, {"name": "PartitionedCall/onnx_tf_prefix_/stages.1/blocks/blocks.1/token_mixer/norm/identity/BatchNormalization/mul", "op": "Const", "attr": {"value": {"tensor": {"dtype": "DT_FLOAT", "tensorShape": {"dim": [{"size": "1"}, {"size": "96"}, {"size": "1"}, {"size": "1"}]}}}, "dtype": {"type": "DT_FLOAT"}}}, {"name": "PartitionedCall/onnx_tf_prefix_/stages.1/blocks/blocks.1/token_mixer/norm/identity/BatchNormalization/sub", "op": "Const", "attr": {"value": {"tensor": {"dtype": "DT_FLOAT", "tensorShape": {"dim": [{"size": "1"}, {"size": "96"}, {"size": "1"}, {"size": "1"}]}}}, "dtype": {"type": "DT_FLOAT"}}}, {"name": "unknown_99", "op": "Const", "attr": {"dtype": {"type": "DT_FLOAT"}, "value": {"tensor": {"dtype": "DT_FLOAT", "tensorShape": {"dim": [{"size": "96"}, {"size": "1"}, {"size": "1"}]}}}}}, {"name": "PartitionedCall/Const_11", "op": "Const", "attr": {"value": {"tensor": {"dtype": "DT_INT32", "tensorShape": {"dim": [{"size": "4"}, {"size": "2"}]}}}, "dtype": {"type": "DT_INT32"}}}, {"name": "PartitionedCall/transpose_76/perm", "op": "Const", "attr": {"value": {"tensor": {"dtype": "DT_INT32", "tensorShape": {"dim": [{"size": "4"}]}}}, "dtype": {"type": "DT_INT32"}}}, {"name": "PartitionedCall/Reshape_55", "op": "Const", "attr": {"dtype": {"type": "DT_FLOAT"}, "value": {"tensor": {"dtype": "DT_FLOAT", "tensorShape": {"dim": [{"size": "7"}, {"size": "7"}, {"size": "96"}, {"size": "1"}]}}}}}, {"name": "unknown_101", "op": "Const", "attr": {"dtype": {"type": "DT_FLOAT"}, "value": {"tensor": {"dtype": "DT_FLOAT", "tensorShape": {"dim": [{"size": "96"}]}}}}}, {"name": "PartitionedCall/split_10", "op": "Const", "attr": {"value": {"tensor": {"dtype": "DT_FLOAT", "tensorShape": {"dim": [{"size": "1"}, {"size": "1"}, {"size": "96"}, {"size": "288"}]}}}, "dtype": {"type": "DT_FLOAT"}}}, {"name": "unknown_103", "op": "Const", "attr": {"dtype": {"type": "DT_FLOAT"}, "value": {"tensor": {"dtype": "DT_FLOAT", "tensorShape": {"dim": [{"size": "288"}]}}}}}, {"name": "PartitionedCall/transpose_80/perm", "op": "Const", "attr": {"value": {"tensor": {"dtype": "DT_INT32", "tensorShape": {"dim": [{"size": "4"}]}}}, "dtype": {"type": "DT_INT32"}}}, {"name": "ConstantFolding/PartitionedCall/onnx_tf_prefix_/stages.1/blocks/blocks.1/mlp/act/Div_recip", "op": "Const", "attr": {"dtype": {"type": "DT_FLOAT"}, "value": {"tensor": {"dtype": "DT_FLOAT", "tensorShape": {}}}}}, {"name": "PartitionedCall/onnx_tf_prefix_/stages.1/blocks/blocks.1/mlp/act/Constant_1", "op": "Const", "attr": {"dtype": {"type": "DT_FLOAT"}, "value": {"tensor": {"dtype": "DT_FLOAT", "tensorShape": {}}}}}, {"name": "PartitionedCall/transpose_82/perm", "op": "Const", "attr": {"value": {"tensor": {"dtype": "DT_INT32", "tensorShape": {"dim": [{"size": "4"}]}}}, "dtype": {"type": "DT_INT32"}}}, {"name": "PartitionedCall/split_11", "op": "Const", "attr": {"dtype": {"type": "DT_FLOAT"}, "value": {"tensor": {"dtype": "DT_FLOAT", "tensorShape": {"dim": [{"size": "1"}, {"size": "1"}, {"size": "288"}, {"size": "96"}]}}}}}, {"name": "unknown_105", "op": "Const", "attr": {"value": {"tensor": {"dtype": "DT_FLOAT", "tensorShape": {"dim": [{"size": "96"}]}}}, "dtype": {"type": "DT_FLOAT"}}}, {"name": "PartitionedCall/transpose_83/perm", "op": "Const", "attr": {"value": {"tensor": {"dtype": "DT_INT32", "tensorShape": {"dim": [{"size": "4"}]}}}, "dtype": {"type": "DT_INT32"}}}, {"name": "unknown_106", "op": "Const", "attr": {"dtype": {"type": "DT_FLOAT"}, "value": {"tensor": {"dtype": "DT_FLOAT", "tensorShape": {"dim": [{"size": "96"}, {"size": "1"}, {"size": "1"}]}}}}}, {"name": "PartitionedCall/Const_13", "op": "Const", "attr": {"value": {"tensor": {"dtype": "DT_INT32", "tensorShape": {"dim": [{"size": "4"}, {"size": "2"}]}}}, "dtype": {"type": "DT_INT32"}}}, {"name": "PartitionedCall/transpose_88/perm", "op": "Const", "attr": {"dtype": {"type": "DT_INT32"}, "value": {"tensor": {"dtype": "DT_INT32", "tensorShape": {"dim": [{"size": "4"}]}}}}}, {"name": "PartitionedCall/Reshape_57", "op": "Const", "attr": {"value": {"tensor": {"dtype": "DT_FLOAT", "tensorShape": {"dim": [{"size": "3"}, {"size": "3"}, {"size": "96"}, {"size": "2"}]}}}, "dtype": {"type": "DT_FLOAT"}}}, {"name": "unknown_110", "op": "Const", "attr": {"dtype": {"type": "DT_FLOAT"}, "value": {"tensor": {"dtype": "DT_FLOAT", "tensorShape": {"dim": [{"size": "192"}]}}}}}, {"name": "PartitionedCall/transpose_89/perm", "op": "Const", "attr": {"value": {"tensor": {"dtype": "DT_INT32", "tensorShape": {"dim": [{"size": "4"}]}}}, "dtype": {"type": "DT_INT32"}}}, {"name": "PartitionedCall/transpose_91/perm", "op": "Const", "attr": {"value": {"tensor": {"dtype": "DT_INT32", "tensorShape": {"dim": [{"size": "4"}]}}}, "dtype": {"type": "DT_INT32"}}}, {"name": "PartitionedCall/split_12", "op": "Const", "attr": {"dtype": {"type": "DT_FLOAT"}, "value": {"tensor": {"dtype": "DT_FLOAT", "tensorShape": {"dim": [{"size": "1"}, {"size": "1"}, {"size": "192"}, {"size": "192"}]}}}}}, {"name": "unknown_116", "op": "Const", "attr": {"dtype": {"type": "DT_FLOAT"}, "value": {"tensor": {"dtype": "DT_FLOAT", "tensorShape": {"dim": [{"size": "192"}]}}}}}, {"name": "PartitionedCall/transpose_92/perm", "op": "Const", "attr": {"dtype": {"type": "DT_INT32"}, "value": {"tensor": {"dtype": "DT_INT32", "tensorShape": {"dim": [{"size": "4"}]}}}}}, {"name": "ConstantFolding/PartitionedCall/onnx_tf_prefix_/stages.2/downsample/proj/proj.1/act/Div_recip", "op": "Const", "attr": {"value": {"tensor": {"dtype": "DT_FLOAT", "tensorShape": {}}}, "dtype": {"type": "DT_FLOAT"}}}, {"name": "PartitionedCall/onnx_tf_prefix_/stages.2/downsample/proj/proj.1/act/Constant_1", "op": "Const", "attr": {"dtype": {"type": "DT_FLOAT"}, "value": {"tensor": {"dtype": "DT_FLOAT", "tensorShape": {}}}}}, {"name": "PartitionedCall/onnx_tf_prefix_/stages.2/blocks/blocks.0/token_mixer/norm/identity/BatchNormalization/mul", "op": "Const", "attr": {"dtype": {"type": "DT_FLOAT"}, "value": {"tensor": {"dtype": "DT_FLOAT", "tensorShape": {"dim": [{"size": "1"}, {"size": "192"}, {"size": "1"}, {"size": "1"}]}}}}}, {"name": "PartitionedCall/onnx_tf_prefix_/stages.2/blocks/blocks.0/token_mixer/norm/identity/BatchNormalization/sub", "op": "Const", "attr": {"value": {"tensor": {"dtype": "DT_FLOAT", "tensorShape": {"dim": [{"size": "1"}, {"size": "192"}, {"size": "1"}, {"size": "1"}]}}}, "dtype": {"type": "DT_FLOAT"}}}, {"name": "unknown_125", "op": "Const", "attr": {"value": {"tensor": {"dtype": "DT_FLOAT", "tensorShape": {"dim": [{"size": "192"}, {"size": "1"}, {"size": "1"}]}}}, "dtype": {"type": "DT_FLOAT"}}}, {"name": "PartitionedCall/Const_15", "op": "Const", "attr": {"value": {"tensor": {"dtype": "DT_INT32", "tensorShape": {"dim": [{"size": "4"}, {"size": "2"}]}}}, "dtype": {"type": "DT_INT32"}}}, {"name": "PartitionedCall/transpose_100/perm", "op": "Const", "attr": {"value": {"tensor": {"dtype": "DT_INT32", "tensorShape": {"dim": [{"size": "4"}]}}}, "dtype": {"type": "DT_INT32"}}}, {"name": "PartitionedCall/Reshape_72", "op": "Const", "attr": {"dtype": {"type": "DT_FLOAT"}, "value": {"tensor": {"dtype": "DT_FLOAT", "tensorShape": {"dim": [{"size": "7"}, {"size": "7"}, {"size": "192"}, {"size": "1"}]}}}}}, {"name": "unknown_127", "op": "Const", "attr": {"value": {"tensor": {"dtype": "DT_FLOAT", "tensorShape": {"dim": [{"size": "192"}]}}}, "dtype": {"type": "DT_FLOAT"}}}, {"name": "PartitionedCall/split_13", "op": "Const", "attr": {"value": {"tensor": {"dtype": "DT_FLOAT", "tensorShape": {"dim": [{"size": "1"}, {"size": "1"}, {"size": "192"}, {"size": "576"}]}}}, "dtype": {"type": "DT_FLOAT"}}}, {"name": "unknown_129", "op": "Const", "attr": {"value": {"tensor": {"dtype": "DT_FLOAT", "tensorShape": {"dim": [{"size": "576"}]}}}, "dtype": {"type": "DT_FLOAT"}}}, {"name": "PartitionedCall/transpose_104/perm", "op": "Const", "attr": {"dtype": {"type": "DT_INT32"}, "value": {"tensor": {"dtype": "DT_INT32", "tensorShape": {"dim": [{"size": "4"}]}}}}}, {"name": "ConstantFolding/PartitionedCall/onnx_tf_prefix_/stages.2/blocks/blocks.0/mlp/act/Div_recip", "op": "Const", "attr": {"dtype": {"type": "DT_FLOAT"}, "value": {"tensor": {"dtype": "DT_FLOAT", "tensorShape": {}}}}}, {"name": "PartitionedCall/onnx_tf_prefix_/stages.2/blocks/blocks.0/mlp/act/Constant_1", "op": "Const", "attr": {"dtype": {"type": "DT_FLOAT"}, "value": {"tensor": {"dtype": "DT_FLOAT", "tensorShape": {}}}}}, {"name": "PartitionedCall/transpose_106/perm", "op": "Const", "attr": {"value": {"tensor": {"dtype": "DT_INT32", "tensorShape": {"dim": [{"size": "4"}]}}}, "dtype": {"type": "DT_INT32"}}}, {"name": "PartitionedCall/split_14", "op": "Const", "attr": {"value": {"tensor": {"dtype": "DT_FLOAT", "tensorShape": {"dim": [{"size": "1"}, {"size": "1"}, {"size": "576"}, {"size": "192"}]}}}, "dtype": {"type": "DT_FLOAT"}}}, {"name": "unknown_131", "op": "Const", "attr": {"dtype": {"type": "DT_FLOAT"}, "value": {"tensor": {"dtype": "DT_FLOAT", "tensorShape": {"dim": [{"size": "192"}]}}}}}, {"name": "PartitionedCall/transpose_107/perm", "op": "Const", "attr": {"dtype": {"type": "DT_INT32"}, "value": {"tensor": {"dtype": "DT_INT32", "tensorShape": {"dim": [{"size": "4"}]}}}}}, {"name": "unknown_132", "op": "Const", "attr": {"value": {"tensor": {"dtype": "DT_FLOAT", "tensorShape": {"dim": [{"size": "192"}, {"size": "1"}, {"size": "1"}]}}}, "dtype": {"type": "DT_FLOAT"}}}, {"name": "PartitionedCall/onnx_tf_prefix_/stages.2/blocks/blocks.1/token_mixer/norm/identity/BatchNormalization/mul", "op": "Const", "attr": {"dtype": {"type": "DT_FLOAT"}, "value": {"tensor": {"dtype": "DT_FLOAT", "tensorShape": {"dim": [{"size": "1"}, {"size": "192"}, {"size": "1"}, {"size": "1"}]}}}}}, {"name": "PartitionedCall/onnx_tf_prefix_/stages.2/blocks/blocks.1/token_mixer/norm/identity/BatchNormalization/sub", "op": "Const", "attr": {"value": {"tensor": {"dtype": "DT_FLOAT", "tensorShape": {"dim": [{"size": "1"}, {"size": "192"}, {"size": "1"}, {"size": "1"}]}}}, "dtype": {"type": "DT_FLOAT"}}}, {"name": "unknown_141", "op": "Const", "attr": {"dtype": {"type": "DT_FLOAT"}, "value": {"tensor": {"dtype": "DT_FLOAT", "tensorShape": {"dim": [{"size": "192"}, {"size": "1"}, {"size": "1"}]}}}}}, {"name": "PartitionedCall/Const_17", "op": "Const", "attr": {"dtype": {"type": "DT_INT32"}, "value": {"tensor": {"dtype": "DT_INT32", "tensorShape": {"dim": [{"size": "4"}, {"size": "2"}]}}}}}, {"name": "PartitionedCall/transpose_115/perm", "op": "Const", "attr": {"dtype": {"type": "DT_INT32"}, "value": {"tensor": {"dtype": "DT_INT32", "tensorShape": {"dim": [{"size": "4"}]}}}}}, {"name": "PartitionedCall/Reshape_83", "op": "Const", "attr": {"value": {"tensor": {"dtype": "DT_FLOAT", "tensorShape": {"dim": [{"size": "7"}, {"size": "7"}, {"size": "192"}, {"size": "1"}]}}}, "dtype": {"type": "DT_FLOAT"}}}, {"name": "unknown_143", "op": "Const", "attr": {"value": {"tensor": {"dtype": "DT_FLOAT", "tensorShape": {"dim": [{"size": "192"}]}}}, "dtype": {"type": "DT_FLOAT"}}}, {"name": "PartitionedCall/split_15", "op": "Const", "attr": {"value": {"tensor": {"dtype": "DT_FLOAT", "tensorShape": {"dim": [{"size": "1"}, {"size": "1"}, {"size": "192"}, {"size": "576"}]}}}, "dtype": {"type": "DT_FLOAT"}}}, {"name": "unknown_145", "op": "Const", "attr": {"dtype": {"type": "DT_FLOAT"}, "value": {"tensor": {"dtype": "DT_FLOAT", "tensorShape": {"dim": [{"size": "576"}]}}}}}, {"name": "PartitionedCall/transpose_119/perm", "op": "Const", "attr": {"dtype": {"type": "DT_INT32"}, "value": {"tensor": {"dtype": "DT_INT32", "tensorShape": {"dim": [{"size": "4"}]}}}}}, {"name": "ConstantFolding/PartitionedCall/onnx_tf_prefix_/stages.2/blocks/blocks.1/mlp/act/Div_recip", "op": "Const", "attr": {"value": {"tensor": {"dtype": "DT_FLOAT", "tensorShape": {}}}, "dtype": {"type": "DT_FLOAT"}}}, {"name": "PartitionedCall/onnx_tf_prefix_/stages.2/blocks/blocks.1/mlp/act/Constant_1", "op": "Const", "attr": {"dtype": {"type": "DT_FLOAT"}, "value": {"tensor": {"dtype": "DT_FLOAT", "tensorShape": {}}}}}, {"name": "PartitionedCall/transpose_121/perm", "op": "Const", "attr": {"value": {"tensor": {"dtype": "DT_INT32", "tensorShape": {"dim": [{"size": "4"}]}}}, "dtype": {"type": "DT_INT32"}}}, {"name": "PartitionedCall/split_16", "op": "Const", "attr": {"value": {"tensor": {"dtype": "DT_FLOAT", "tensorShape": {"dim": [{"size": "1"}, {"size": "1"}, {"size": "576"}, {"size": "192"}]}}}, "dtype": {"type": "DT_FLOAT"}}}, {"name": "unknown_147", "op": "Const", "attr": {"value": {"tensor": {"dtype": "DT_FLOAT", "tensorShape": {"dim": [{"size": "192"}]}}}, "dtype": {"type": "DT_FLOAT"}}}, {"name": "PartitionedCall/transpose_122/perm", "op": "Const", "attr": {"value": {"tensor": {"dtype": "DT_INT32", "tensorShape": {"dim": [{"size": "4"}]}}}, "dtype": {"type": "DT_INT32"}}}, {"name": "unknown_148", "op": "Const", "attr": {"dtype": {"type": "DT_FLOAT"}, "value": {"tensor": {"dtype": "DT_FLOAT", "tensorShape": {"dim": [{"size": "192"}, {"size": "1"}, {"size": "1"}]}}}}}, {"name": "PartitionedCall/onnx_tf_prefix_/stages.2/blocks/blocks.2/token_mixer/norm/identity/BatchNormalization/mul", "op": "Const", "attr": {"value": {"tensor": {"dtype": "DT_FLOAT", "tensorShape": {"dim": [{"size": "1"}, {"size": "192"}, {"size": "1"}, {"size": "1"}]}}}, "dtype": {"type": "DT_FLOAT"}}}, {"name": "PartitionedCall/onnx_tf_prefix_/stages.2/blocks/blocks.2/token_mixer/norm/identity/BatchNormalization/sub", "op": "Const", "attr": {"dtype": {"type": "DT_FLOAT"}, "value": {"tensor": {"dtype": "DT_FLOAT", "tensorShape": {"dim": [{"size": "1"}, {"size": "192"}, {"size": "1"}, {"size": "1"}]}}}}}, {"name": "unknown_157", "op": "Const", "attr": {"dtype": {"type": "DT_FLOAT"}, "value": {"tensor": {"dtype": "DT_FLOAT", "tensorShape": {"dim": [{"size": "192"}, {"size": "1"}, {"size": "1"}]}}}}}, {"name": "PartitionedCall/Const_19", "op": "Const", "attr": {"value": {"tensor": {"dtype": "DT_INT32", "tensorShape": {"dim": [{"size": "4"}, {"size": "2"}]}}}, "dtype": {"type": "DT_INT32"}}}, {"name": "PartitionedCall/transpose_130/perm", "op": "Const", "attr": {"dtype": {"type": "DT_INT32"}, "value": {"tensor": {"dtype": "DT_INT32", "tensorShape": {"dim": [{"size": "4"}]}}}}}, {"name": "PartitionedCall/Reshape_94", "op": "Const", "attr": {"value": {"tensor": {"dtype": "DT_FLOAT", "tensorShape": {"dim": [{"size": "7"}, {"size": "7"}, {"size": "192"}, {"size": "1"}]}}}, "dtype": {"type": "DT_FLOAT"}}}, {"name": "unknown_159", "op": "Const", "attr": {"dtype": {"type": "DT_FLOAT"}, "value": {"tensor": {"dtype": "DT_FLOAT", "tensorShape": {"dim": [{"size": "192"}]}}}}}, {"name": "PartitionedCall/split_17", "op": "Const", "attr": {"value": {"tensor": {"dtype": "DT_FLOAT", "tensorShape": {"dim": [{"size": "1"}, {"size": "1"}, {"size": "192"}, {"size": "576"}]}}}, "dtype": {"type": "DT_FLOAT"}}}, {"name": "unknown_161", "op": "Const", "attr": {"value": {"tensor": {"dtype": "DT_FLOAT", "tensorShape": {"dim": [{"size": "576"}]}}}, "dtype": {"type": "DT_FLOAT"}}}, {"name": "PartitionedCall/transpose_134/perm", "op": "Const", "attr": {"value": {"tensor": {"dtype": "DT_INT32", "tensorShape": {"dim": [{"size": "4"}]}}}, "dtype": {"type": "DT_INT32"}}}, {"name": "ConstantFolding/PartitionedCall/onnx_tf_prefix_/stages.2/blocks/blocks.2/mlp/act/Div_recip", "op": "Const", "attr": {"dtype": {"type": "DT_FLOAT"}, "value": {"tensor": {"dtype": "DT_FLOAT", "tensorShape": {}}}}}, {"name": "PartitionedCall/onnx_tf_prefix_/stages.2/blocks/blocks.2/mlp/act/Constant_1", "op": "Const", "attr": {"value": {"tensor": {"dtype": "DT_FLOAT", "tensorShape": {}}}, "dtype": {"type": "DT_FLOAT"}}}, {"name": "PartitionedCall/transpose_136/perm", "op": "Const", "attr": {"value": {"tensor": {"dtype": "DT_INT32", "tensorShape": {"dim": [{"size": "4"}]}}}, "dtype": {"type": "DT_INT32"}}}, {"name": "PartitionedCall/split_18", "op": "Const", "attr": {"dtype": {"type": "DT_FLOAT"}, "value": {"tensor": {"dtype": "DT_FLOAT", "tensorShape": {"dim": [{"size": "1"}, {"size": "1"}, {"size": "576"}, {"size": "192"}]}}}}}, {"name": "unknown_163", "op": "Const", "attr": {"dtype": {"type": "DT_FLOAT"}, "value": {"tensor": {"dtype": "DT_FLOAT", "tensorShape": {"dim": [{"size": "192"}]}}}}}, {"name": "PartitionedCall/transpose_137/perm", "op": "Const", "attr": {"dtype": {"type": "DT_INT32"}, "value": {"tensor": {"dtype": "DT_INT32", "tensorShape": {"dim": [{"size": "4"}]}}}}}, {"name": "unknown_164", "op": "Const", "attr": {"dtype": {"type": "DT_FLOAT"}, "value": {"tensor": {"dtype": "DT_FLOAT", "tensorShape": {"dim": [{"size": "192"}, {"size": "1"}, {"size": "1"}]}}}}}, {"name": "PartitionedCall/onnx_tf_prefix_/stages.2/blocks/blocks.3/token_mixer/norm/identity/BatchNormalization/mul", "op": "Const", "attr": {"value": {"tensor": {"dtype": "DT_FLOAT", "tensorShape": {"dim": [{"size": "1"}, {"size": "192"}, {"size": "1"}, {"size": "1"}]}}}, "dtype": {"type": "DT_FLOAT"}}}, {"name": "PartitionedCall/onnx_tf_prefix_/stages.2/blocks/blocks.3/token_mixer/norm/identity/BatchNormalization/sub", "op": "Const", "attr": {"dtype": {"type": "DT_FLOAT"}, "value": {"tensor": {"dtype": "DT_FLOAT", "tensorShape": {"dim": [{"size": "1"}, {"size": "192"}, {"size": "1"}, {"size": "1"}]}}}}}, {"name": "unknown_173", "op": "Const", "attr": {"value": {"tensor": {"dtype": "DT_FLOAT", "tensorShape": {"dim": [{"size": "192"}, {"size": "1"}, {"size": "1"}]}}}, "dtype": {"type": "DT_FLOAT"}}}, {"name": "PartitionedCall/Const_21", "op": "Const", "attr": {"dtype": {"type": "DT_INT32"}, "value": {"tensor": {"dtype": "DT_INT32", "tensorShape": {"dim": [{"size": "4"}, {"size": "2"}]}}}}}, {"name": "PartitionedCall/transpose_145/perm", "op": "Const", "attr": {"value": {"tensor": {"dtype": "DT_INT32", "tensorShape": {"dim": [{"size": "4"}]}}}, "dtype": {"type": "DT_INT32"}}}, {"name": "PartitionedCall/Reshape_105", "op": "Const", "attr": {"value": {"tensor": {"dtype": "DT_FLOAT", "tensorShape": {"dim": [{"size": "7"}, {"size": "7"}, {"size": "192"}, {"size": "1"}]}}}, "dtype": {"type": "DT_FLOAT"}}}, {"name": "unknown_175", "op": "Const", "attr": {"value": {"tensor": {"dtype": "DT_FLOAT", "tensorShape": {"dim": [{"size": "192"}]}}}, "dtype": {"type": "DT_FLOAT"}}}, {"name": "PartitionedCall/split_19", "op": "Const", "attr": {"value": {"tensor": {"dtype": "DT_FLOAT", "tensorShape": {"dim": [{"size": "1"}, {"size": "1"}, {"size": "192"}, {"size": "576"}]}}}, "dtype": {"type": "DT_FLOAT"}}}, {"name": "unknown_177", "op": "Const", "attr": {"value": {"tensor": {"dtype": "DT_FLOAT", "tensorShape": {"dim": [{"size": "576"}]}}}, "dtype": {"type": "DT_FLOAT"}}}, {"name": "PartitionedCall/transpose_149/perm", "op": "Const", "attr": {"dtype": {"type": "DT_INT32"}, "value": {"tensor": {"dtype": "DT_INT32", "tensorShape": {"dim": [{"size": "4"}]}}}}}, {"name": "ConstantFolding/PartitionedCall/onnx_tf_prefix_/stages.2/blocks/blocks.3/mlp/act/Div_recip", "op": "Const", "attr": {"dtype": {"type": "DT_FLOAT"}, "value": {"tensor": {"dtype": "DT_FLOAT", "tensorShape": {}}}}}, {"name": "PartitionedCall/onnx_tf_prefix_/stages.2/blocks/blocks.3/mlp/act/Constant_1", "op": "Const", "attr": {"value": {"tensor": {"dtype": "DT_FLOAT", "tensorShape": {}}}, "dtype": {"type": "DT_FLOAT"}}}, {"name": "PartitionedCall/transpose_151/perm", "op": "Const", "attr": {"dtype": {"type": "DT_INT32"}, "value": {"tensor": {"dtype": "DT_INT32", "tensorShape": {"dim": [{"size": "4"}]}}}}}, {"name": "PartitionedCall/split_20", "op": "Const", "attr": {"value": {"tensor": {"dtype": "DT_FLOAT", "tensorShape": {"dim": [{"size": "1"}, {"size": "1"}, {"size": "576"}, {"size": "192"}]}}}, "dtype": {"type": "DT_FLOAT"}}}, {"name": "unknown_179", "op": "Const", "attr": {"dtype": {"type": "DT_FLOAT"}, "value": {"tensor": {"dtype": "DT_FLOAT", "tensorShape": {"dim": [{"size": "192"}]}}}}}, {"name": "PartitionedCall/transpose_152/perm", "op": "Const", "attr": {"dtype": {"type": "DT_INT32"}, "value": {"tensor": {"dtype": "DT_INT32", "tensorShape": {"dim": [{"size": "4"}]}}}}}, {"name": "unknown_180", "op": "Const", "attr": {"value": {"tensor": {"dtype": "DT_FLOAT", "tensorShape": {"dim": [{"size": "192"}, {"size": "1"}, {"size": "1"}]}}}, "dtype": {"type": "DT_FLOAT"}}}, {"name": "PartitionedCall/Const_23", "op": "Const", "attr": {"value": {"tensor": {"dtype": "DT_INT32", "tensorShape": {"dim": [{"size": "4"}, {"size": "2"}]}}}, "dtype": {"type": "DT_INT32"}}}, {"name": "PartitionedCall/transpose_157/perm", "op": "Const", "attr": {"dtype": {"type": "DT_INT32"}, "value": {"tensor": {"dtype": "DT_INT32", "tensorShape": {"dim": [{"size": "4"}]}}}}}, {"name": "PartitionedCall/Reshape_107", "op": "Const", "attr": {"dtype": {"type": "DT_FLOAT"}, "value": {"tensor": {"dtype": "DT_FLOAT", "tensorShape": {"dim": [{"size": "3"}, {"size": "3"}, {"size": "192"}, {"size": "2"}]}}}}}, {"name": "unknown_184", "op": "Const", "attr": {"value": {"tensor": {"dtype": "DT_FLOAT", "tensorShape": {"dim": [{"size": "384"}]}}}, "dtype": {"type": "DT_FLOAT"}}}, {"name": "PartitionedCall/transpose_158/perm", "op": "Const", "attr": {"value": {"tensor": {"dtype": "DT_INT32", "tensorShape": {"dim": [{"size": "4"}]}}}, "dtype": {"type": "DT_INT32"}}}, {"name": "PartitionedCall/transpose_160/perm", "op": "Const", "attr": {"value": {"tensor": {"dtype": "DT_INT32", "tensorShape": {"dim": [{"size": "4"}]}}}, "dtype": {"type": "DT_INT32"}}}, {"name": "PartitionedCall/split_21", "op": "Const", "attr": {"value": {"tensor": {"dtype": "DT_FLOAT", "tensorShape": {"dim": [{"size": "1"}, {"size": "1"}, {"size": "384"}, {"size": "384"}]}}}, "dtype": {"type": "DT_FLOAT"}}}, {"name": "unknown_190", "op": "Const", "attr": {"value": {"tensor": {"dtype": "DT_FLOAT", "tensorShape": {"dim": [{"size": "384"}]}}}, "dtype": {"type": "DT_FLOAT"}}}, {"name": "PartitionedCall/transpose_161/perm", "op": "Const", "attr": {"value": {"tensor": {"dtype": "DT_INT32", "tensorShape": {"dim": [{"size": "4"}]}}}, "dtype": {"type": "DT_INT32"}}}, {"name": "ConstantFolding/PartitionedCall/onnx_tf_prefix_/stages.3/downsample/proj/proj.1/act/Div_recip", "op": "Const", "attr": {"dtype": {"type": "DT_FLOAT"}, "value": {"tensor": {"dtype": "DT_FLOAT", "tensorShape": {}}}}}, {"name": "PartitionedCall/onnx_tf_prefix_/stages.3/downsample/proj/proj.1/act/Constant_1", "op": "Const", "attr": {"dtype": {"type": "DT_FLOAT"}, "value": {"tensor": {"dtype": "DT_FLOAT", "tensorShape": {}}}}}, {"name": "PartitionedCall/onnx_tf_prefix_/stages.3/blocks/blocks.0/token_mixer/norm/identity/BatchNormalization/mul", "op": "Const", "attr": {"value": {"tensor": {"dtype": "DT_FLOAT", "tensorShape": {"dim": [{"size": "1"}, {"size": "384"}, {"size": "1"}, {"size": "1"}]}}}, "dtype": {"type": "DT_FLOAT"}}}, {"name": "PartitionedCall/onnx_tf_prefix_/stages.3/blocks/blocks.0/token_mixer/norm/identity/BatchNormalization/sub", "op": "Const", "attr": {"dtype": {"type": "DT_FLOAT"}, "value": {"tensor": {"dtype": "DT_FLOAT", "tensorShape": {"dim": [{"size": "1"}, {"size": "384"}, {"size": "1"}, {"size": "1"}]}}}}}, {"name": "unknown_199", "op": "Const", "attr": {"dtype": {"type": "DT_FLOAT"}, "value": {"tensor": {"dtype": "DT_FLOAT", "tensorShape": {"dim": [{"size": "384"}, {"size": "1"}, {"size": "1"}]}}}}}, {"name": "PartitionedCall/Const_25", "op": "Const", "attr": {"value": {"tensor": {"dtype": "DT_INT32", "tensorShape": {"dim": [{"size": "4"}, {"size": "2"}]}}}, "dtype": {"type": "DT_INT32"}}}, {"name": "PartitionedCall/transpose_169/perm", "op": "Const", "attr": {"value": {"tensor": {"dtype": "DT_INT32", "tensorShape": {"dim": [{"size": "4"}]}}}, "dtype": {"type": "DT_INT32"}}}, {"name": "PartitionedCall/Reshape_122", "op": "Const", "attr": {"value": {"tensor": {"dtype": "DT_FLOAT", "tensorShape": {"dim": [{"size": "7"}, {"size": "7"}, {"size": "384"}, {"size": "1"}]}}}, "dtype": {"type": "DT_FLOAT"}}}, {"name": "unknown_201", "op": "Const", "attr": {"value": {"tensor": {"dtype": "DT_FLOAT", "tensorShape": {"dim": [{"size": "384"}]}}}, "dtype": {"type": "DT_FLOAT"}}}, {"name": "PartitionedCall/split_22", "op": "Const", "attr": {"value": {"tensor": {"dtype": "DT_FLOAT", "tensorShape": {"dim": [{"size": "1"}, {"size": "1"}, {"size": "384"}, {"size": "1152"}]}}}, "dtype": {"type": "DT_FLOAT"}}}, {"name": "unknown_203", "op": "Const", "attr": {"value": {"tensor": {"dtype": "DT_FLOAT", "tensorShape": {"dim": [{"size": "1152"}]}}}, "dtype": {"type": "DT_FLOAT"}}}, {"name": "PartitionedCall/transpose_173/perm", "op": "Const", "attr": {"dtype": {"type": "DT_INT32"}, "value": {"tensor": {"dtype": "DT_INT32", "tensorShape": {"dim": [{"size": "4"}]}}}}}, {"name": "ConstantFolding/PartitionedCall/onnx_tf_prefix_/stages.3/blocks/blocks.0/mlp/act/Div_recip", "op": "Const", "attr": {"value": {"tensor": {"dtype": "DT_FLOAT", "tensorShape": {}}}, "dtype": {"type": "DT_FLOAT"}}}, {"name": "PartitionedCall/onnx_tf_prefix_/stages.3/blocks/blocks.0/mlp/act/Constant_1", "op": "Const", "attr": {"value": {"tensor": {"dtype": "DT_FLOAT", "tensorShape": {}}}, "dtype": {"type": "DT_FLOAT"}}}, {"name": "PartitionedCall/transpose_175/perm", "op": "Const", "attr": {"value": {"tensor": {"dtype": "DT_INT32", "tensorShape": {"dim": [{"size": "4"}]}}}, "dtype": {"type": "DT_INT32"}}}, {"name": "PartitionedCall/split_23", "op": "Const", "attr": {"value": {"tensor": {"dtype": "DT_FLOAT", "tensorShape": {"dim": [{"size": "1"}, {"size": "1"}, {"size": "1152"}, {"size": "384"}]}}}, "dtype": {"type": "DT_FLOAT"}}}, {"name": "unknown_205", "op": "Const", "attr": {"value": {"tensor": {"dtype": "DT_FLOAT", "tensorShape": {"dim": [{"size": "384"}]}}}, "dtype": {"type": "DT_FLOAT"}}}, {"name": "PartitionedCall/transpose_176/perm", "op": "Const", "attr": {"value": {"tensor": {"dtype": "DT_INT32", "tensorShape": {"dim": [{"size": "4"}]}}}, "dtype": {"type": "DT_INT32"}}}, {"name": "unknown_206", "op": "Const", "attr": {"dtype": {"type": "DT_FLOAT"}, "value": {"tensor": {"dtype": "DT_FLOAT", "tensorShape": {"dim": [{"size": "384"}, {"size": "1"}, {"size": "1"}]}}}}}, {"name": "PartitionedCall/onnx_tf_prefix_/stages.3/blocks/blocks.1/token_mixer/norm/identity/BatchNormalization/mul", "op": "Const", "attr": {"dtype": {"type": "DT_FLOAT"}, "value": {"tensor": {"dtype": "DT_FLOAT", "tensorShape": {"dim": [{"size": "1"}, {"size": "384"}, {"size": "1"}, {"size": "1"}]}}}}}, {"name": "PartitionedCall/onnx_tf_prefix_/stages.3/blocks/blocks.1/token_mixer/norm/identity/BatchNormalization/sub", "op": "Const", "attr": {"dtype": {"type": "DT_FLOAT"}, "value": {"tensor": {"dtype": "DT_FLOAT", "tensorShape": {"dim": [{"size": "1"}, {"size": "384"}, {"size": "1"}, {"size": "1"}]}}}}}, {"name": "unknown_215", "op": "Const", "attr": {"value": {"tensor": {"dtype": "DT_FLOAT", "tensorShape": {"dim": [{"size": "384"}, {"size": "1"}, {"size": "1"}]}}}, "dtype": {"type": "DT_FLOAT"}}}, {"name": "PartitionedCall/Const_27", "op": "Const", "attr": {"value": {"tensor": {"dtype": "DT_INT32", "tensorShape": {"dim": [{"size": "4"}, {"size": "2"}]}}}, "dtype": {"type": "DT_INT32"}}}, {"name": "PartitionedCall/transpose_184/perm", "op": "Const", "attr": {"value": {"tensor": {"dtype": "DT_INT32", "tensorShape": {"dim": [{"size": "4"}]}}}, "dtype": {"type": "DT_INT32"}}}, {"name": "PartitionedCall/Reshape_133", "op": "Const", "attr": {"value": {"tensor": {"dtype": "DT_FLOAT", "tensorShape": {"dim": [{"size": "7"}, {"size": "7"}, {"size": "384"}, {"size": "1"}]}}}, "dtype": {"type": "DT_FLOAT"}}}, {"name": "unknown_217", "op": "Const", "attr": {"dtype": {"type": "DT_FLOAT"}, "value": {"tensor": {"dtype": "DT_FLOAT", "tensorShape": {"dim": [{"size": "384"}]}}}}}, {"name": "PartitionedCall/split_24", "op": "Const", "attr": {"value": {"tensor": {"dtype": "DT_FLOAT", "tensorShape": {"dim": [{"size": "1"}, {"size": "1"}, {"size": "384"}, {"size": "1152"}]}}}, "dtype": {"type": "DT_FLOAT"}}}, {"name": "unknown_219", "op": "Const", "attr": {"value": {"tensor": {"dtype": "DT_FLOAT", "tensorShape": {"dim": [{"size": "1152"}]}}}, "dtype": {"type": "DT_FLOAT"}}}, {"name": "PartitionedCall/transpose_188/perm", "op": "Const", "attr": {"value": {"tensor": {"dtype": "DT_INT32", "tensorShape": {"dim": [{"size": "4"}]}}}, "dtype": {"type": "DT_INT32"}}}, {"name": "ConstantFolding/PartitionedCall/onnx_tf_prefix_/stages.3/blocks/blocks.1/mlp/act/Div_recip", "op": "Const", "attr": {"dtype": {"type": "DT_FLOAT"}, "value": {"tensor": {"dtype": "DT_FLOAT", "tensorShape": {}}}}}, {"name": "PartitionedCall/onnx_tf_prefix_/stages.3/blocks/blocks.1/mlp/act/Constant_1", "op": "Const", "attr": {"dtype": {"type": "DT_FLOAT"}, "value": {"tensor": {"dtype": "DT_FLOAT", "tensorShape": {}}}}}, {"name": "PartitionedCall/transpose_190/perm", "op": "Const", "attr": {"value": {"tensor": {"dtype": "DT_INT32", "tensorShape": {"dim": [{"size": "4"}]}}}, "dtype": {"type": "DT_INT32"}}}, {"name": "PartitionedCall/split_25", "op": "Const", "attr": {"value": {"tensor": {"dtype": "DT_FLOAT", "tensorShape": {"dim": [{"size": "1"}, {"size": "1"}, {"size": "1152"}, {"size": "384"}]}}}, "dtype": {"type": "DT_FLOAT"}}}, {"name": "unknown_221", "op": "Const", "attr": {"value": {"tensor": {"dtype": "DT_FLOAT", "tensorShape": {"dim": [{"size": "384"}]}}}, "dtype": {"type": "DT_FLOAT"}}}, {"name": "PartitionedCall/transpose_191/perm", "op": "Const", "attr": {"value": {"tensor": {"dtype": "DT_INT32", "tensorShape": {"dim": [{"size": "4"}]}}}, "dtype": {"type": "DT_INT32"}}}, {"name": "unknown_222", "op": "Const", "attr": {"value": {"tensor": {"dtype": "DT_FLOAT", "tensorShape": {"dim": [{"size": "384"}, {"size": "1"}, {"size": "1"}]}}}, "dtype": {"type": "DT_FLOAT"}}}, {"name": "PartitionedCall/Const_28", "op": "Const", "attr": {"value": {"tensor": {"dtype": "DT_INT32", "tensorShape": {"dim": [{"size": "4"}, {"size": "2"}]}}}, "dtype": {"type": "DT_INT32"}}}, {"name": "PartitionedCall/transpose_196/perm", "op": "Const", "attr": {"value": {"tensor": {"dtype": "DT_INT32", "tensorShape": {"dim": [{"size": "4"}]}}}, "dtype": {"type": "DT_INT32"}}}, {"name": "PartitionedCall/Reshape_135", "op": "Const", "attr": {"value": {"tensor": {"dtype": "DT_FLOAT", "tensorShape": {"dim": [{"size": "3"}, {"size": "3"}, {"size": "384"}, {"size": "2"}]}}}, "dtype": {"type": "DT_FLOAT"}}}, {"name": "unknown_226", "op": "Const", "attr": {"value": {"tensor": {"dtype": "DT_FLOAT", "tensorShape": {"dim": [{"size": "768"}]}}}, "dtype": {"type": "DT_FLOAT"}}}, {"name": "PartitionedCall/transpose_197/perm", "op": "Const", "attr": {"value": {"tensor": {"dtype": "DT_INT32", "tensorShape": {"dim": [{"size": "4"}]}}}, "dtype": {"type": "DT_INT32"}}}, {"name": "PartitionedCall/onnx_tf_prefix_/final_conv/se/ReduceMean/reduction_indices", "op": "Const", "attr": {"value": {"tensor": {"dtype": "DT_INT32", "tensorShape": {"dim": [{"size": "2"}]}}}, "dtype": {"type": "DT_INT32"}}}, {"name": "PartitionedCall/transpose_199/perm", "op": "Const", "attr": {"value": {"tensor": {"dtype": "DT_INT32", "tensorShape": {"dim": [{"size": "4"}]}}}, "dtype": {"type": "DT_INT32"}}}, {"name": "PartitionedCall/split_26", "op": "Const", "attr": {"value": {"tensor": {"dtype": "DT_FLOAT", "tensorShape": {"dim": [{"size": "1"}, {"size": "1"}, {"size": "768"}, {"size": "48"}]}}}, "dtype": {"type": "DT_FLOAT"}}}, {"name": "unknown_228", "op": "Const", "attr": {"dtype": {"type": "DT_FLOAT"}, "value": {"tensor": {"dtype": "DT_FLOAT", "tensorShape": {"dim": [{"size": "48"}]}}}}}, {"name": "PartitionedCall/transpose_200/perm", "op": "Const", "attr": {"dtype": {"type": "DT_INT32"}, "value": {"tensor": {"dtype": "DT_INT32", "tensorShape": {"dim": [{"size": "4"}]}}}}}, {"name": "PartitionedCall/transpose_202/perm", "op": "Const", "attr": {"dtype": {"type": "DT_INT32"}, "value": {"tensor": {"dtype": "DT_INT32", "tensorShape": {"dim": [{"size": "4"}]}}}}}, {"name": "PartitionedCall/split_27", "op": "Const", "attr": {"value": {"tensor": {"dtype": "DT_FLOAT", "tensorShape": {"dim": [{"size": "1"}, {"size": "1"}, {"size": "48"}, {"size": "768"}]}}}, "dtype": {"type": "DT_FLOAT"}}}, {"name": "unknown_230", "op": "Const", "attr": {"value": {"tensor": {"dtype": "DT_FLOAT", "tensorShape": {"dim": [{"size": "768"}]}}}, "dtype": {"type": "DT_FLOAT"}}}, {"name": "PartitionedCall/transpose_203/perm", "op": "Const", "attr": {"dtype": {"type": "DT_INT32"}, "value": {"tensor": {"dtype": "DT_INT32", "tensorShape": {"dim": [{"size": "4"}]}}}}}, {"name": "ConstantFolding/PartitionedCall/onnx_tf_prefix_/final_conv/act/Div_recip", "op": "Const", "attr": {"value": {"tensor": {"dtype": "DT_FLOAT", "tensorShape": {}}}, "dtype": {"type": "DT_FLOAT"}}}, {"name": "PartitionedCall/onnx_tf_prefix_/final_conv/act/Constant_1", "op": "Const", "attr": {"dtype": {"type": "DT_FLOAT"}, "value": {"tensor": {"dtype": "DT_FLOAT", "tensorShape": {}}}}}, {"name": "ConstantFolding/PartitionedCall/split_28-folded-1", "op": "Const", "attr": {"dtype": {"type": "DT_INT32"}, "value": {"tensor": {"dtype": "DT_INT32", "tensorShape": {"dim": [{"size": "2"}]}}}}}, {"name": "PartitionedCall/strided_slice_1/stack", "op": "Const", "attr": {"value": {"tensor": {"dtype": "DT_INT32", "tensorShape": {"dim": [{"size": "1"}]}}}, "dtype": {"type": "DT_INT32"}}}, {"name": "PartitionedCall/strided_slice_1/stack_1", "op": "Const", "attr": {"value": {"tensor": {"dtype": "DT_INT32", "tensorShape": {"dim": [{"size": "1"}]}}}, "dtype": {"type": "DT_INT32"}}}, {"name": "PartitionedCall/strided_slice_1/stack_2", "op": "Const", "attr": {"value": {"tensor": {"dtype": "DT_INT32", "tensorShape": {"dim": [{"size": "1"}]}}}, "dtype": {"type": "DT_INT32"}}}, {"name": "PartitionedCall/Const_31", "op": "Const", "attr": {"dtype": {"type": "DT_INT32"}, "value": {"tensor": {"dtype": "DT_INT32", "tensorShape": {"dim": [{"size": "1"}]}}}}}, {"name": "PartitionedCall/flatten/strided_slice/stack", "op": "Const", "attr": {"value": {"tensor": {"dtype": "DT_INT32", "tensorShape": {"dim": [{"size": "1"}]}}}, "dtype": {"type": "DT_INT32"}}}, {"name": "PartitionedCall/flatten/strided_slice/stack_1", "op": "Const", "attr": {"dtype": {"type": "DT_INT32"}, "value": {"tensor": {"dtype": "DT_INT32", "tensorShape": {"dim": [{"size": "1"}]}}}}}, {"name": "PartitionedCall/flatten/strided_slice/stack_2", "op": "Const", "attr": {"dtype": {"type": "DT_INT32"}, "value": {"tensor": {"dtype": "DT_INT32", "tensorShape": {"dim": [{"size": "1"}]}}}}}, {"name": "PartitionedCall/flatten/Reshape/shape/1", "op": "Const", "attr": {"value": {"tensor": {"dtype": "DT_INT32", "tensorShape": {}}}, "dtype": {"type": "DT_INT32"}}}, {"name": "PartitionedCall/transpose_204", "op": "Const", "attr": {"value": {"tensor": {"dtype": "DT_FLOAT", "tensorShape": {"dim": [{"size": "768"}, {"size": "1000"}]}}}, "dtype": {"type": "DT_FLOAT"}}}, {"name": "PartitionedCall/mul_1", "op": "Const", "attr": {"dtype": {"type": "DT_FLOAT"}, "value": {"tensor": {"dtype": "DT_FLOAT", "tensorShape": {"dim": [{"size": "1000"}]}}}}}, {"name": "input", "op": "Placeholder", "attr": {"dtype": {"type": "DT_FLOAT"}, "shape": {"shape": {"dim": [{"size": "-1"}, {"size": "3"}, {"size": "224"}, {"size": "224"}]}}}}, {"name": "PartitionedCall/transpose_1", "op": "Transpose", "input": ["input", "PartitionedCall/transpose_1/perm"], "attr": {"T": {"type": "DT_FLOAT"}, "Tperm": {"type": "DT_INT32"}}}, {"name": "PartitionedCall/Pad", "op": "Pad", "input": ["input", "PartitionedCall/Const"], "attr": {"Tpaddings": {"type": "DT_INT32"}, "T": {"type": "DT_FLOAT"}}}, {"name": "PartitionedCall/Add", "op": "_FusedConv2D", "input": ["PartitionedCall/transpose_1", "PartitionedCall/split", "unknown_20"], "device": "/device:CPU:0", "attr": {"filter_format": {"s": "SFdJTw=="}, "epsilon": {"f": 0.0}, "TArgs": {"list": {"type": ["DT_FLOAT"]}}, "dilations": {"list": {"i": ["1", "1", "1", "1"]}}, "explicit_paddings": {"list": {}}, "leakyrelu_alpha": {"f": 0.2}, "num_args": {"i": "1"}, "T": {"type": "DT_FLOAT"}, "data_format": {"s": "TkhXQw=="}, "strides": {"list": {"i": ["1", "2", "2", "1"]}}, "num_host_args": {"i": "0"}, "use_cudnn_on_gpu": {"b": true}, "fused_ops": {"list": {"s": ["Qmlhc0FkZA=="]}}, "padding": {"s": "VkFMSUQ="}}}, {"name": "PartitionedCall/transpose_4", "op": "Transpose", "input": ["PartitionedCall/Pad", "PartitionedCall/transpose_4/perm"], "attr": {"T": {"type": "DT_FLOAT"}, "Tperm": {"type": "DT_INT32"}}}, {"name": "PartitionedCall/transpose_2", "op": "Transpose", "input": ["PartitionedCall/Add", "PartitionedCall/transpose_2/perm"], "attr": {"Tperm": {"type": "DT_INT32"}, "T": {"type": "DT_FLOAT"}}}, {"name": "PartitionedCall/Add_1", "op": "_FusedConv2D", "input": ["PartitionedCall/transpose_4", "PartitionedCall/split_1", "unknown_22"], "device": "/device:CPU:0", "attr": {"num_args": {"i": "1"}, "epsilon": {"f": 0.0}, "leakyrelu_alpha": {"f": 0.2}, "dilations": {"list": {"i": ["1", "1", "1", "1"]}}, "data_format": {"s": "TkhXQw=="}, "T": {"type": "DT_FLOAT"}, "num_host_args": {"i": "0"}, "filter_format": {"s": "SFdJTw=="}, "explicit_paddings": {"list": {}}, "strides": {"list": {"i": ["1", "2", "2", "1"]}}, "fused_ops": {"list": {"s": ["Qmlhc0FkZA=="]}}, "use_cudnn_on_gpu": {"b": true}, "padding": {"s": "VkFMSUQ="}, "TArgs": {"list": {"type": ["DT_FLOAT"]}}}}, {"name": "PartitionedCall/transpose_5", "op": "Transpose", "input": ["PartitionedCall/Add_1", "PartitionedCall/transpose_5/perm"], "attr": {"T": {"type": "DT_FLOAT"}, "Tperm": {"type": "DT_INT32"}}}, {"name": "PartitionedCall/onnx_tf_prefix_/stem/stem.0/Add_1", "op": "AddV2", "input": ["PartitionedCall/transpose_2", "PartitionedCall/transpose_5"], "attr": {"T": {"type": "DT_FLOAT"}}}, {"name": "PartitionedCall/onnx_tf_prefix_/stem/stem.0/act/Mul", "op": "Mul", "input": ["PartitionedCall/onnx_tf_prefix_/stem/stem.0/act/Constant_2", "PartitionedCall/onnx_tf_prefix_/stem/stem.0/Add_1"], "attr": {"_grappler_ArithmeticOptimizer_MinimizeBroadcasts": {"b": true}, "T": {"type": "DT_FLOAT"}}}, {"name": "PartitionedCall/onnx_tf_prefix_/stem/stem.0/act/Div", "op": "Mul", "input": ["PartitionedCall/onnx_tf_prefix_/stem/stem.0/Add_1", "ConstantFolding/PartitionedCall/onnx_tf_prefix_/stem/stem.0/act/Div_recip"], "attr": {"T": {"type": "DT_FLOAT"}}}, {"name": "PartitionedCall/onnx_tf_prefix_/stem/stem.0/act/Erf", "op": "Erf", "input": ["PartitionedCall/onnx_tf_prefix_/stem/stem.0/act/Div"], "attr": {"T": {"type": "DT_FLOAT"}}}, {"name": "PartitionedCall/onnx_tf_prefix_/stem/stem.0/act/Add", "op": "AddV2", "input": ["PartitionedCall/onnx_tf_prefix_/stem/stem.0/act/Erf", "PartitionedCall/onnx_tf_prefix_/stem/stem.0/act/Constant_1"], "attr": {"T": {"type": "DT_FLOAT"}}}, {"name": "PartitionedCall/onnx_tf_prefix_/stem/stem.0/act/Mul_1", "op": "Mul", "input": ["PartitionedCall/onnx_tf_prefix_/stem/stem.0/act/Mul", "PartitionedCall/onnx_tf_prefix_/stem/stem.0/act/Add"], "attr": {"_grappler_ArithmeticOptimizer_MinimizeBroadcasts": {"b": true}, "T": {"type": "DT_FLOAT"}}}, {"name": "PartitionedCall/transpose_7", "op": "Transpose", "input": ["PartitionedCall/onnx_tf_prefix_/stem/stem.0/act/Mul_1", "PartitionedCall/transpose_7/perm"], "attr": {"Tperm": {"type": "DT_INT32"}, "T": {"type": "DT_FLOAT"}}}, {"name": "PartitionedCall/Pad_1", "op": "Pad", "input": ["PartitionedCall/onnx_tf_prefix_/stem/stem.0/act/Mul_1", "PartitionedCall/Const_1"], "attr": {"Tpaddings": {"type": "DT_INT32"}, "T": {"type": "DT_FLOAT"}}}, {"name": "PartitionedCall/depthwise", "op": "FusedDepthwiseConv2dNative", "input": ["PartitionedCall/transpose_7", "PartitionedCall/Reshape", "unknown_24"], "attr": {"padding": {"s": "VkFMSUQ="}, "T": {"type": "DT_FLOAT"}, "strides": {"list": {"i": ["1", "2", "2", "1"]}}, "explicit_paddings": {"list": {}}, "data_format": {"s": "TkhXQw=="}, "dilations": {"list": {"i": ["1", "1", "1", "1"]}}, "num_args": {"i": "1"}, "fused_ops": {"list": {"s": ["Qmlhc0FkZA=="]}}}}, {"name": "PartitionedCall/transpose_10", "op": "Transpose", "input": ["PartitionedCall/Pad_1", "PartitionedCall/transpose_10/perm"], "attr": {"Tperm": {"type": "DT_INT32"}, "T": {"type": "DT_FLOAT"}}}, {"name": "PartitionedCall/depthwise_1", "op": "FusedDepthwiseConv2dNative", "input": ["PartitionedCall/transpose_10", "PartitionedCall/Reshape_1", "unknown_26"], "attr": {"padding": {"s": "VkFMSUQ="}, "T": {"type": "DT_FLOAT"}, "dilations": {"list": {"i": ["1", "1", "1", "1"]}}, "explicit_paddings": {"list": {}}, "strides": {"list": {"i": ["1", "2", "2", "1"]}}, "data_format": {"s": "TkhXQw=="}, "num_args": {"i": "1"}, "fused_ops": {"list": {"s": ["Qmlhc0FkZA=="]}}}}, {"name": "PartitionedCall/transpose_8", "op": "Transpose", "input": ["PartitionedCall/depthwise", "PartitionedCall/transpose_8/perm"], "attr": {"Tperm": {"type": "DT_INT32"}, "T": {"type": "DT_FLOAT"}}}, {"name": "PartitionedCall/transpose_11", "op": "Transpose", "input": ["PartitionedCall/depthwise_1", "PartitionedCall/transpose_11/perm"], "attr": {"Tperm": {"type": "DT_INT32"}, "T": {"type": "DT_FLOAT"}}}, {"name": "PartitionedCall/onnx_tf_prefix_/stem/stem.1/Add_1", "op": "AddV2", "input": ["PartitionedCall/transpose_8", "PartitionedCall/transpose_11"], "attr": {"T": {"type": "DT_FLOAT"}}}, {"name": "PartitionedCall/onnx_tf_prefix_/stem/stem.1/act/Mul", "op": "Mul", "input": ["PartitionedCall/onnx_tf_prefix_/stem/stem.1/act/Constant_2", "PartitionedCall/onnx_tf_prefix_/stem/stem.1/Add_1"], "attr": {"_grappler_ArithmeticOptimizer_MinimizeBroadcasts": {"b": true}, "T": {"type": "DT_FLOAT"}}}, {"name": "PartitionedCall/onnx_tf_prefix_/stem/stem.1/act/Div", "op": "Mul", "input": ["PartitionedCall/onnx_tf_prefix_/stem/stem.1/Add_1", "ConstantFolding/PartitionedCall/onnx_tf_prefix_/stem/stem.1/act/Div_recip"], "attr": {"T": {"type": "DT_FLOAT"}}}, {"name": "PartitionedCall/onnx_tf_prefix_/stem/stem.1/act/Erf", "op": "Erf", "input": ["PartitionedCall/onnx_tf_prefix_/stem/stem.1/act/Div"], "attr": {"T": {"type": "DT_FLOAT"}}}, {"name": "PartitionedCall/onnx_tf_prefix_/stem/stem.1/act/Add", "op": "AddV2", "input": ["PartitionedCall/onnx_tf_prefix_/stem/stem.1/act/Erf", "PartitionedCall/onnx_tf_prefix_/stem/stem.1/act/Constant_1"], "attr": {"T": {"type": "DT_FLOAT"}}}, {"name": "PartitionedCall/onnx_tf_prefix_/stem/stem.1/act/Mul_1", "op": "Mul", "input": ["PartitionedCall/onnx_tf_prefix_/stem/stem.1/act/Mul", "PartitionedCall/onnx_tf_prefix_/stem/stem.1/act/Add"], "attr": {"_grappler_ArithmeticOptimizer_MinimizeBroadcasts": {"b": true}, "T": {"type": "DT_FLOAT"}}}, {"name": "PartitionedCall/onnx_tf_prefix_/stem/stem.2/identity/BatchNormalization/mul_1", "op": "Mul", "input": ["PartitionedCall/onnx_tf_prefix_/stem/stem.1/act/Mul_1", "PartitionedCall/onnx_tf_prefix_/stem/stem.2/identity/BatchNormalization/mul"], "attr": {"T": {"type": "DT_FLOAT"}}}, {"name": "PartitionedCall/transpose_13", "op": "Transpose", "input": ["PartitionedCall/onnx_tf_prefix_/stem/stem.1/act/Mul_1", "PartitionedCall/transpose_13/perm"], "attr": {"T": {"type": "DT_FLOAT"}, "Tperm": {"type": "DT_INT32"}}}, {"name": "PartitionedCall/onnx_tf_prefix_/stem/stem.2/identity/BatchNormalization/add_1", "op": "AddV2", "input": ["PartitionedCall/onnx_tf_prefix_/stem/stem.2/identity/BatchNormalization/mul_1", "PartitionedCall/onnx_tf_prefix_/stem/stem.2/identity/BatchNormalization/sub"], "attr": {"T": {"type": "DT_FLOAT"}}}, {"name": "PartitionedCall/Add_4", "op": "_FusedConv2D", "input": ["PartitionedCall/transpose_13", "PartitionedCall/split_2", "unknown_32"], "device": "/device:CPU:0", "attr": {"epsilon": {"f": 0.0}, "T": {"type": "DT_FLOAT"}, "data_format": {"s": "TkhXQw=="}, "filter_format": {"s": "SFdJTw=="}, "leakyrelu_alpha": {"f": 0.2}, "explicit_paddings": {"list": {}}, "use_cudnn_on_gpu": {"b": true}, "dilations": {"list": {"i": ["1", "1", "1", "1"]}}, "TArgs": {"list": {"type": ["DT_FLOAT"]}}, "num_host_args": {"i": "0"}, "num_args": {"i": "1"}, "padding": {"s": "VkFMSUQ="}, "strides": {"list": {"i": ["1", "1", "1", "1"]}}, "fused_ops": {"list": {"s": ["Qmlhc0FkZA=="]}}}}, {"name": "PartitionedCall/transpose_14", "op": "Transpose", "input": ["PartitionedCall/Add_4", "PartitionedCall/transpose_14/perm"], "attr": {"T": {"type": "DT_FLOAT"}, "Tperm": {"type": "DT_INT32"}}}, {"name": "PartitionedCall/onnx_tf_prefix_/stem/stem.2/Add_1", "op": "AddV2", "input": ["PartitionedCall/onnx_tf_prefix_/stem/stem.2/identity/BatchNormalization/add_1", "PartitionedCall/transpose_14"], "attr": {"T": {"type": "DT_FLOAT"}}}, {"name": "PartitionedCall/onnx_tf_prefix_/stem/stem.2/act/Mul", "op": "Mul", "input": ["PartitionedCall/onnx_tf_prefix_/stem/stem.2/act/Constant_2", "PartitionedCall/onnx_tf_prefix_/stem/stem.2/Add_1"], "attr": {"_grappler_ArithmeticOptimizer_MinimizeBroadcasts": {"b": true}, "T": {"type": "DT_FLOAT"}}}, {"name": "PartitionedCall/onnx_tf_prefix_/stem/stem.2/act/Div", "op": "Mul", "input": ["PartitionedCall/onnx_tf_prefix_/stem/stem.2/Add_1", "ConstantFolding/PartitionedCall/onnx_tf_prefix_/stem/stem.2/act/Div_recip"], "attr": {"T": {"type": "DT_FLOAT"}}}, {"name": "PartitionedCall/onnx_tf_prefix_/stem/stem.2/act/Erf", "op": "Erf", "input": ["PartitionedCall/onnx_tf_prefix_/stem/stem.2/act/Div"], "attr": {"T": {"type": "DT_FLOAT"}}}, {"name": "PartitionedCall/onnx_tf_prefix_/stem/stem.2/act/Add", "op": "AddV2", "input": ["PartitionedCall/onnx_tf_prefix_/stem/stem.2/act/Erf", "PartitionedCall/onnx_tf_prefix_/stem/stem.2/act/Constant_1"], "attr": {"T": {"type": "DT_FLOAT"}}}, {"name": "PartitionedCall/onnx_tf_prefix_/stem/stem.2/act/Mul_1", "op": "Mul", "input": ["PartitionedCall/onnx_tf_prefix_/stem/stem.2/act/Mul", "PartitionedCall/onnx_tf_prefix_/stem/stem.2/act/Add"], "attr": {"T": {"type": "DT_FLOAT"}, "_grappler_ArithmeticOptimizer_MinimizeBroadcasts": {"b": true}}}, {"name": "PartitionedCall/transpose_16", "op": "Transpose", "input": ["PartitionedCall/onnx_tf_prefix_/stem/stem.2/act/Mul_1", "PartitionedCall/transpose_16/perm"], "attr": {"Tperm": {"type": "DT_INT32"}, "T": {"type": "DT_FLOAT"}}}, {"name": "PartitionedCall/onnx_tf_prefix_/stages.0/blocks/blocks.0/token_mixer/mixer/identity/BatchNormalization/mul_1", "op": "Mul", "input": ["PartitionedCall/onnx_tf_prefix_/stem/stem.2/act/Mul_1", "PartitionedCall/onnx_tf_prefix_/stages.0/blocks/blocks.0/token_mixer/mixer/identity/BatchNormalization/mul"], "attr": {"T": {"type": "DT_FLOAT"}}}, {"name": "PartitionedCall/Pad_2", "op": "Pad", "input": ["PartitionedCall/onnx_tf_prefix_/stem/stem.2/act/Mul_1", "PartitionedCall/Const_2"], "attr": {"Tpaddings": {"type": "DT_INT32"}, "T": {"type": "DT_FLOAT"}}}, {"name": "PartitionedCall/onnx_tf_prefix_/stages.0/blocks/blocks.0/token_mixer/norm/identity/BatchNormalization/mul_1", "op": "Mul", "input": ["PartitionedCall/onnx_tf_prefix_/stem/stem.2/act/Mul_1", "PartitionedCall/onnx_tf_prefix_/stages.0/blocks/blocks.0/token_mixer/norm/identity/BatchNormalization/mul"], "attr": {"T": {"type": "DT_FLOAT"}}}, {"name": "PartitionedCall/depthwise_2", "op": "FusedDepthwiseConv2dNative", "input": ["PartitionedCall/transpose_16", "PartitionedCall/Reshape_10", "unknown_36"], "attr": {"dilations": {"list": {"i": ["1", "1", "1", "1"]}}, "T": {"type": "DT_FLOAT"}, "data_format": {"s": "TkhXQw=="}, "strides": {"list": {"i": ["1", "1", "1", "1"]}}, "padding": {"s": "VkFMSUQ="}, "explicit_paddings": {"list": {}}, "num_args": {"i": "1"}, "fused_ops": {"list": {"s": ["Qmlhc0FkZA=="]}}}}, {"name": "PartitionedCall/onnx_tf_prefix_/stages.0/blocks/blocks.0/token_mixer/mixer/identity/BatchNormalization/add_1", "op": "AddV2", "input": ["PartitionedCall/onnx_tf_prefix_/stages.0/blocks/blocks.0/token_mixer/mixer/identity/BatchNormalization/mul_1", "PartitionedCall/onnx_tf_prefix_/stages.0/blocks/blocks.0/token_mixer/mixer/identity/BatchNormalization/sub"], "attr": {"T": {"type": "DT_FLOAT"}}}, {"name": "PartitionedCall/transpose_19", "op": "Transpose", "input": ["PartitionedCall/Pad_2", "PartitionedCall/transpose_19/perm"], "attr": {"Tperm": {"type": "DT_INT32"}, "T": {"type": "DT_FLOAT"}}}, {"name": "PartitionedCall/onnx_tf_prefix_/stages.0/blocks/blocks.0/token_mixer/norm/identity/BatchNormalization/add_1", "op": "AddV2", "input": ["PartitionedCall/onnx_tf_prefix_/stages.0/blocks/blocks.0/token_mixer/norm/identity/BatchNormalization/mul_1", "PartitionedCall/onnx_tf_prefix_/stages.0/blocks/blocks.0/token_mixer/norm/identity/BatchNormalization/sub"], "attr": {"T": {"type": "DT_FLOAT"}}}, {"name": "PartitionedCall/depthwise_3", "op": "FusedDepthwiseConv2dNative", "input": ["PartitionedCall/transpose_19", "PartitionedCall/Reshape_11", "unknown_38"], "attr": {"data_format": {"s": "TkhXQw=="}, "T": {"type": "DT_FLOAT"}, "strides": {"list": {"i": ["1", "1", "1", "1"]}}, "explicit_paddings": {"list": {}}, "dilations": {"list": {"i": ["1", "1", "1", "1"]}}, "padding": {"s": "VkFMSUQ="}, "num_args": {"i": "1"}, "fused_ops": {"list": {"s": ["Qmlhc0FkZA=="]}}}}, {"name": "PartitionedCall/transpose_17", "op": "Transpose", "input": ["PartitionedCall/depthwise_2", "PartitionedCall/transpose_17/perm"], "attr": {"T": {"type": "DT_FLOAT"}, "Tperm": {"type": "DT_INT32"}}}, {"name": "PartitionedCall/onnx_tf_prefix_/stages.0/blocks/blocks.0/token_mixer/mixer/Add", "op": "AddV2", "input": ["PartitionedCall/transpose_17", "PartitionedCall/onnx_tf_prefix_/stages.0/blocks/blocks.0/token_mixer/mixer/identity/BatchNormalization/add_1"], "attr": {"T": {"type": "DT_FLOAT"}}}, {"name": "PartitionedCall/transpose_20", "op": "Transpose", "input": ["PartitionedCall/depthwise_3", "PartitionedCall/transpose_20/perm"], "attr": {"Tperm": {"type": "DT_INT32"}, "T": {"type": "DT_FLOAT"}}}, {"name": "PartitionedCall/onnx_tf_prefix_/stages.0/blocks/blocks.0/token_mixer/mixer/Add_1", "op": "AddV2", "input": ["PartitionedCall/onnx_tf_prefix_/stages.0/blocks/blocks.0/token_mixer/mixer/Add", "PartitionedCall/transpose_20"], "attr": {"T": {"type": "DT_FLOAT"}}}, {"name": "PartitionedCall/onnx_tf_prefix_/stages.0/blocks/blocks.0/token_mixer/Sub", "op": "Sub", "input": ["PartitionedCall/onnx_tf_prefix_/stages.0/blocks/blocks.0/token_mixer/mixer/Add_1", "PartitionedCall/onnx_tf_prefix_/stages.0/blocks/blocks.0/token_mixer/norm/identity/BatchNormalization/add_1"], "attr": {"T": {"type": "DT_FLOAT"}}}, {"name": "PartitionedCall/onnx_tf_prefix_/stages.0/blocks/blocks.0/token_mixer/layer_scale/Mul", "op": "Mul", "input": ["PartitionedCall/onnx_tf_prefix_/stages.0/blocks/blocks.0/token_mixer/Sub", "unknown_41"], "attr": {"T": {"type": "DT_FLOAT"}}}, {"name": "PartitionedCall/onnx_tf_prefix_/stages.0/blocks/blocks.0/token_mixer/Add", "op": "AddV2", "input": ["PartitionedCall/onnx_tf_prefix_/stem/stem.2/act/Mul_1", "PartitionedCall/onnx_tf_prefix_/stages.0/blocks/blocks.0/token_mixer/layer_scale/Mul"], "attr": {"T": {"type": "DT_FLOAT"}}}, {"name": "PartitionedCall/Pad_3", "op": "Pad", "input": ["PartitionedCall/onnx_tf_prefix_/stages.0/blocks/blocks.0/token_mixer/Add", "PartitionedCall/Const_3"], "attr": {"Tpaddings": {"type": "DT_INT32"}, "T": {"type": "DT_FLOAT"}}}, {"name": "PartitionedCall/transpose_22", "op": "Transpose", "input": ["PartitionedCall/Pad_3", "PartitionedCall/transpose_22/perm"], "attr": {"T": {"type": "DT_FLOAT"}, "Tperm": {"type": "DT_INT32"}}}, {"name": "PartitionedCall/depthwise_4", "op": "FusedDepthwiseConv2dNative", "input": ["PartitionedCall/transpose_22", "PartitionedCall/Reshape_16", "unknown_43"], "attr": {"strides": {"list": {"i": ["1", "1", "1", "1"]}}, "explicit_paddings": {"list": {}}, "padding": {"s": "VkFMSUQ="}, "dilations": {"list": {"i": ["1", "1", "1", "1"]}}, "data_format": {"s": "TkhXQw=="}, "T": {"type": "DT_FLOAT"}, "num_args": {"i": "1"}, "fused_ops": {"list": {"s": ["Qmlhc0FkZA=="]}}}}, {"name": "PartitionedCall/Add_8", "op": "_FusedConv2D", "input": ["PartitionedCall/depthwise_4", "PartitionedCall/split_3", "unknown_45"], "device": "/device:CPU:0", "attr": {"TArgs": {"list": {"type": ["DT_FLOAT"]}}, "epsilon": {"f": 0.0}, "dilations": {"list": {"i": ["1", "1", "1", "1"]}}, "num_args": {"i": "1"}, "padding": {"s": "VkFMSUQ="}, "strides": {"list": {"i": ["1", "1", "1", "1"]}}, "data_format": {"s": "TkhXQw=="}, "T": {"type": "DT_FLOAT"}, "fused_ops": {"list": {"s": ["Qmlhc0FkZA=="]}}, "explicit_paddings": {"list": {}}, "num_host_args": {"i": "0"}, "filter_format": {"s": "SFdJTw=="}, "use_cudnn_on_gpu": {"b": true}, "leakyrelu_alpha": {"f": 0.2}}}, {"name": "PartitionedCall/transpose_26", "op": "Transpose", "input": ["PartitionedCall/Add_8", "PartitionedCall/transpose_26/perm"], "attr": {"Tperm": {"type": "DT_INT32"}, "T": {"type": "DT_FLOAT"}}}, {"name": "PartitionedCall/onnx_tf_prefix_/stages.0/blocks/blocks.0/mlp/act/Mul", "op": "Mul", "input": ["PartitionedCall/onnx_tf_prefix_/stages.0/blocks/blocks.0/mlp/act/Constant_2", "PartitionedCall/transpose_26"], "attr": {"_grappler_ArithmeticOptimizer_MinimizeBroadcasts": {"b": true}, "T": {"type": "DT_FLOAT"}}}, {"name": "PartitionedCall/onnx_tf_prefix_/stages.0/blocks/blocks.0/mlp/act/Div", "op": "Mul", "input": ["PartitionedCall/transpose_26", "ConstantFolding/PartitionedCall/onnx_tf_prefix_/stages.0/blocks/blocks.0/mlp/act/Div_recip"], "attr": {"T": {"type": "DT_FLOAT"}}}, {"name": "PartitionedCall/onnx_tf_prefix_/stages.0/blocks/blocks.0/mlp/act/Erf", "op": "Erf", "input": ["PartitionedCall/onnx_tf_prefix_/stages.0/blocks/blocks.0/mlp/act/Div"], "attr": {"T": {"type": "DT_FLOAT"}}}, {"name": "PartitionedCall/onnx_tf_prefix_/stages.0/blocks/blocks.0/mlp/act/Add", "op": "AddV2", "input": ["PartitionedCall/onnx_tf_prefix_/stages.0/blocks/blocks.0/mlp/act/Erf", "PartitionedCall/onnx_tf_prefix_/stages.0/blocks/blocks.0/mlp/act/Constant_1"], "attr": {"T": {"type": "DT_FLOAT"}}}, {"name": "PartitionedCall/onnx_tf_prefix_/stages.0/blocks/blocks.0/mlp/act/Mul_1", "op": "Mul", "input": ["PartitionedCall/onnx_tf_prefix_/stages.0/blocks/blocks.0/mlp/act/Mul", "PartitionedCall/onnx_tf_prefix_/stages.0/blocks/blocks.0/mlp/act/Add"], "attr": {"T": {"type": "DT_FLOAT"}, "_grappler_ArithmeticOptimizer_MinimizeBroadcasts": {"b": true}}}, {"name": "PartitionedCall/transpose_28", "op": "Transpose", "input": ["PartitionedCall/onnx_tf_prefix_/stages.0/blocks/blocks.0/mlp/act/Mul_1", "PartitionedCall/transpose_28/perm"], "attr": {"T": {"type": "DT_FLOAT"}, "Tperm": {"type": "DT_INT32"}}}, {"name": "PartitionedCall/Add_9", "op": "_FusedConv2D", "input": ["PartitionedCall/transpose_28", "PartitionedCall/split_4", "unknown_47"], "device": "/device:CPU:0", "attr": {"TArgs": {"list": {"type": ["DT_FLOAT"]}}, "num_args": {"i": "1"}, "data_format": {"s": "TkhXQw=="}, "strides": {"list": {"i": ["1", "1", "1", "1"]}}, "filter_format": {"s": "SFdJTw=="}, "explicit_paddings": {"list": {}}, "fused_ops": {"list": {"s": ["Qmlhc0FkZA=="]}}, "padding": {"s": "VkFMSUQ="}, "T": {"type": "DT_FLOAT"}, "leakyrelu_alpha": {"f": 0.2}, "epsilon": {"f": 0.0}, "dilations": {"list": {"i": ["1", "1", "1", "1"]}}, "num_host_args": {"i": "0"}, "use_cudnn_on_gpu": {"b": true}}}, {"name": "PartitionedCall/transpose_29", "op": "Transpose", "input": ["PartitionedCall/Add_9", "PartitionedCall/transpose_29/perm"], "attr": {"T": {"type": "DT_FLOAT"}, "Tperm": {"type": "DT_INT32"}}}, {"name": "PartitionedCall/onnx_tf_prefix_/stages.0/blocks/blocks.0/layer_scale/Mul", "op": "Mul", "input": ["PartitionedCall/transpose_29", "unknown_48"], "attr": {"T": {"type": "DT_FLOAT"}}}, {"name": "PartitionedCall/onnx_tf_prefix_/stages.0/blocks/blocks.0/Add", "op": "AddV2", "input": ["PartitionedCall/onnx_tf_prefix_/stages.0/blocks/blocks.0/token_mixer/Add", "PartitionedCall/onnx_tf_prefix_/stages.0/blocks/blocks.0/layer_scale/Mul"], "attr": {"T": {"type": "DT_FLOAT"}}}, {"name": "PartitionedCall/transpose_31", "op": "Transpose", "input": ["PartitionedCall/onnx_tf_prefix_/stages.0/blocks/blocks.0/Add", "PartitionedCall/transpose_31/perm"], "attr": {"Tperm": {"type": "DT_INT32"}, "T": {"type": "DT_FLOAT"}}}, {"name": "PartitionedCall/onnx_tf_prefix_/stages.0/blocks/blocks.1/token_mixer/mixer/identity/BatchNormalization/mul_1", "op": "Mul", "input": ["PartitionedCall/onnx_tf_prefix_/stages.0/blocks/blocks.0/Add", "PartitionedCall/onnx_tf_prefix_/stages.0/blocks/blocks.1/token_mixer/mixer/identity/BatchNormalization/mul"], "attr": {"T": {"type": "DT_FLOAT"}}}, {"name": "PartitionedCall/Pad_4", "op": "Pad", "input": ["PartitionedCall/onnx_tf_prefix_/stages.0/blocks/blocks.0/Add", "PartitionedCall/Const_4"], "attr": {"T": {"type": "DT_FLOAT"}, "Tpaddings": {"type": "DT_INT32"}}}, {"name": "PartitionedCall/onnx_tf_prefix_/stages.0/blocks/blocks.1/token_mixer/norm/identity/BatchNormalization/mul_1", "op": "Mul", "input": ["PartitionedCall/onnx_tf_prefix_/stages.0/blocks/blocks.0/Add", "PartitionedCall/onnx_tf_prefix_/stages.0/blocks/blocks.1/token_mixer/norm/identity/BatchNormalization/mul"], "attr": {"T": {"type": "DT_FLOAT"}}}, {"name": "PartitionedCall/depthwise_5", "op": "FusedDepthwiseConv2dNative", "input": ["PartitionedCall/transpose_31", "PartitionedCall/Reshape_21", "unknown_52"], "attr": {"data_format": {"s": "TkhXQw=="}, "dilations": {"list": {"i": ["1", "1", "1", "1"]}}, "padding": {"s": "VkFMSUQ="}, "strides": {"list": {"i": ["1", "1", "1", "1"]}}, "explicit_paddings": {"list": {}}, "T": {"type": "DT_FLOAT"}, "num_args": {"i": "1"}, "fused_ops": {"list": {"s": ["Qmlhc0FkZA=="]}}}}, {"name": "PartitionedCall/onnx_tf_prefix_/stages.0/blocks/blocks.1/token_mixer/mixer/identity/BatchNormalization/add_1", "op": "AddV2", "input": ["PartitionedCall/onnx_tf_prefix_/stages.0/blocks/blocks.1/token_mixer/mixer/identity/BatchNormalization/mul_1", "PartitionedCall/onnx_tf_prefix_/stages.0/blocks/blocks.1/token_mixer/mixer/identity/BatchNormalization/sub"], "attr": {"T": {"type": "DT_FLOAT"}}}, {"name": "PartitionedCall/transpose_34", "op": "Transpose", "input": ["PartitionedCall/Pad_4", "PartitionedCall/transpose_34/perm"], "attr": {"Tperm": {"type": "DT_INT32"}, "T": {"type": "DT_FLOAT"}}}, {"name": "PartitionedCall/onnx_tf_prefix_/stages.0/blocks/blocks.1/token_mixer/norm/identity/BatchNormalization/add_1", "op": "AddV2", "input": ["PartitionedCall/onnx_tf_prefix_/stages.0/blocks/blocks.1/token_mixer/norm/identity/BatchNormalization/mul_1", "PartitionedCall/onnx_tf_prefix_/stages.0/blocks/blocks.1/token_mixer/norm/identity/BatchNormalization/sub"], "attr": {"T": {"type": "DT_FLOAT"}}}, {"name": "PartitionedCall/depthwise_6", "op": "FusedDepthwiseConv2dNative", "input": ["PartitionedCall/transpose_34", "PartitionedCall/Reshape_22", "unknown_54"], "attr": {"data_format": {"s": "TkhXQw=="}, "explicit_paddings": {"list": {}}, "padding": {"s": "VkFMSUQ="}, "strides": {"list": {"i": ["1", "1", "1", "1"]}}, "dilations": {"list": {"i": ["1", "1", "1", "1"]}}, "T": {"type": "DT_FLOAT"}, "num_args": {"i": "1"}, "fused_ops": {"list": {"s": ["Qmlhc0FkZA=="]}}}}, {"name": "PartitionedCall/transpose_32", "op": "Transpose", "input": ["PartitionedCall/depthwise_5", "PartitionedCall/transpose_32/perm"], "attr": {"Tperm": {"type": "DT_INT32"}, "T": {"type": "DT_FLOAT"}}}, {"name": "PartitionedCall/onnx_tf_prefix_/stages.0/blocks/blocks.1/token_mixer/mixer/Add", "op": "AddV2", "input": ["PartitionedCall/transpose_32", "PartitionedCall/onnx_tf_prefix_/stages.0/blocks/blocks.1/token_mixer/mixer/identity/BatchNormalization/add_1"], "attr": {"T": {"type": "DT_FLOAT"}}}, {"name": "PartitionedCall/transpose_35", "op": "Transpose", "input": ["PartitionedCall/depthwise_6", "PartitionedCall/transpose_35/perm"], "attr": {"T": {"type": "DT_FLOAT"}, "Tperm": {"type": "DT_INT32"}}}, {"name": "PartitionedCall/onnx_tf_prefix_/stages.0/blocks/blocks.1/token_mixer/mixer/Add_1", "op": "AddV2", "input": ["PartitionedCall/onnx_tf_prefix_/stages.0/blocks/blocks.1/token_mixer/mixer/Add", "PartitionedCall/transpose_35"], "attr": {"T": {"type": "DT_FLOAT"}}}, {"name": "PartitionedCall/onnx_tf_prefix_/stages.0/blocks/blocks.1/token_mixer/Sub", "op": "Sub", "input": ["PartitionedCall/onnx_tf_prefix_/stages.0/blocks/blocks.1/token_mixer/mixer/Add_1", "PartitionedCall/onnx_tf_prefix_/stages.0/blocks/blocks.1/token_mixer/norm/identity/BatchNormalization/add_1"], "attr": {"T": {"type": "DT_FLOAT"}}}, {"name": "PartitionedCall/onnx_tf_prefix_/stages.0/blocks/blocks.1/token_mixer/layer_scale/Mul", "op": "Mul", "input": ["PartitionedCall/onnx_tf_prefix_/stages.0/blocks/blocks.1/token_mixer/Sub", "unknown_57"], "attr": {"T": {"type": "DT_FLOAT"}}}, {"name": "PartitionedCall/onnx_tf_prefix_/stages.0/blocks/blocks.1/token_mixer/Add", "op": "AddV2", "input": ["PartitionedCall/onnx_tf_prefix_/stages.0/blocks/blocks.0/Add", "PartitionedCall/onnx_tf_prefix_/stages.0/blocks/blocks.1/token_mixer/layer_scale/Mul"], "attr": {"T": {"type": "DT_FLOAT"}}}, {"name": "PartitionedCall/Pad_5", "op": "Pad", "input": ["PartitionedCall/onnx_tf_prefix_/stages.0/blocks/blocks.1/token_mixer/Add", "PartitionedCall/Const_5"], "attr": {"Tpaddings": {"type": "DT_INT32"}, "T": {"type": "DT_FLOAT"}}}, {"name": "PartitionedCall/transpose_37", "op": "Transpose", "input": ["PartitionedCall/Pad_5", "PartitionedCall/transpose_37/perm"], "attr": {"Tperm": {"type": "DT_INT32"}, "T": {"type": "DT_FLOAT"}}}, {"name": "PartitionedCall/depthwise_7", "op": "FusedDepthwiseConv2dNative", "input": ["PartitionedCall/transpose_37", "PartitionedCall/Reshape_27", "unknown_59"], "attr": {"data_format": {"s": "TkhXQw=="}, "dilations": {"list": {"i": ["1", "1", "1", "1"]}}, "explicit_paddings": {"list": {}}, "padding": {"s": "VkFMSUQ="}, "T": {"type": "DT_FLOAT"}, "strides": {"list": {"i": ["1", "1", "1", "1"]}}, "num_args": {"i": "1"}, "fused_ops": {"list": {"s": ["Qmlhc0FkZA=="]}}}}, {"name": "PartitionedCall/Add_13", "op": "_FusedConv2D", "input": ["PartitionedCall/depthwise_7", "PartitionedCall/split_5", "unknown_61"], "device": "/device:CPU:0", "attr": {"num_args": {"i": "1"}, "epsilon": {"f": 0.0}, "dilations": {"list": {"i": ["1", "1", "1", "1"]}}, "T": {"type": "DT_FLOAT"}, "TArgs": {"list": {"type": ["DT_FLOAT"]}}, "fused_ops": {"list": {"s": ["Qmlhc0FkZA=="]}}, "use_cudnn_on_gpu": {"b": true}, "data_format": {"s": "TkhXQw=="}, "explicit_paddings": {"list": {}}, "strides": {"list": {"i": ["1", "1", "1", "1"]}}, "padding": {"s": "VkFMSUQ="}, "num_host_args": {"i": "0"}, "filter_format": {"s": "SFdJTw=="}, "leakyrelu_alpha": {"f": 0.2}}}, {"name": "PartitionedCall/transpose_41", "op": "Transpose", "input": ["PartitionedCall/Add_13", "PartitionedCall/transpose_41/perm"], "attr": {"T": {"type": "DT_FLOAT"}, "Tperm": {"type": "DT_INT32"}}}, {"name": "PartitionedCall/onnx_tf_prefix_/stages.0/blocks/blocks.1/mlp/act/Mul", "op": "Mul", "input": ["PartitionedCall/onnx_tf_prefix_/stages.0/blocks/blocks.1/mlp/act/Constant_2", "PartitionedCall/transpose_41"], "attr": {"_grappler_ArithmeticOptimizer_MinimizeBroadcasts": {"b": true}, "T": {"type": "DT_FLOAT"}}}, {"name": "PartitionedCall/onnx_tf_prefix_/stages.0/blocks/blocks.1/mlp/act/Div", "op": "Mul", "input": ["PartitionedCall/transpose_41", "ConstantFolding/PartitionedCall/onnx_tf_prefix_/stages.0/blocks/blocks.1/mlp/act/Div_recip"], "attr": {"T": {"type": "DT_FLOAT"}}}, {"name": "PartitionedCall/onnx_tf_prefix_/stages.0/blocks/blocks.1/mlp/act/Erf", "op": "Erf", "input": ["PartitionedCall/onnx_tf_prefix_/stages.0/blocks/blocks.1/mlp/act/Div"], "attr": {"T": {"type": "DT_FLOAT"}}}, {"name": "PartitionedCall/onnx_tf_prefix_/stages.0/blocks/blocks.1/mlp/act/Add", "op": "AddV2", "input": ["PartitionedCall/onnx_tf_prefix_/stages.0/blocks/blocks.1/mlp/act/Erf", "PartitionedCall/onnx_tf_prefix_/stages.0/blocks/blocks.1/mlp/act/Constant_1"], "attr": {"T": {"type": "DT_FLOAT"}}}, {"name": "PartitionedCall/onnx_tf_prefix_/stages.0/blocks/blocks.1/mlp/act/Mul_1", "op": "Mul", "input": ["PartitionedCall/onnx_tf_prefix_/stages.0/blocks/blocks.1/mlp/act/Mul", "PartitionedCall/onnx_tf_prefix_/stages.0/blocks/blocks.1/mlp/act/Add"], "attr": {"_grappler_ArithmeticOptimizer_MinimizeBroadcasts": {"b": true}, "T": {"type": "DT_FLOAT"}}}, {"name": "PartitionedCall/transpose_43", "op": "Transpose", "input": ["PartitionedCall/onnx_tf_prefix_/stages.0/blocks/blocks.1/mlp/act/Mul_1", "PartitionedCall/transpose_43/perm"], "attr": {"Tperm": {"type": "DT_INT32"}, "T": {"type": "DT_FLOAT"}}}, {"name": "PartitionedCall/Add_14", "op": "_FusedConv2D", "input": ["PartitionedCall/transpose_43", "PartitionedCall/split_6", "unknown_63"], "device": "/device:CPU:0", "attr": {"use_cudnn_on_gpu": {"b": true}, "strides": {"list": {"i": ["1", "1", "1", "1"]}}, "epsilon": {"f": 0.0}, "padding": {"s": "VkFMSUQ="}, "num_args": {"i": "1"}, "dilations": {"list": {"i": ["1", "1", "1", "1"]}}, "fused_ops": {"list": {"s": ["Qmlhc0FkZA=="]}}, "leakyrelu_alpha": {"f": 0.2}, "num_host_args": {"i": "0"}, "filter_format": {"s": "SFdJTw=="}, "explicit_paddings": {"list": {}}, "data_format": {"s": "TkhXQw=="}, "T": {"type": "DT_FLOAT"}, "TArgs": {"list": {"type": ["DT_FLOAT"]}}}}, {"name": "PartitionedCall/transpose_44", "op": "Transpose", "input": ["PartitionedCall/Add_14", "PartitionedCall/transpose_44/perm"], "attr": {"T": {"type": "DT_FLOAT"}, "Tperm": {"type": "DT_INT32"}}}, {"name": "PartitionedCall/onnx_tf_prefix_/stages.0/blocks/blocks.1/layer_scale/Mul", "op": "Mul", "input": ["PartitionedCall/transpose_44", "unknown_64"], "attr": {"T": {"type": "DT_FLOAT"}}}, {"name": "PartitionedCall/onnx_tf_prefix_/stages.0/blocks/blocks.1/Add", "op": "AddV2", "input": ["PartitionedCall/onnx_tf_prefix_/stages.0/blocks/blocks.1/token_mixer/Add", "PartitionedCall/onnx_tf_prefix_/stages.0/blocks/blocks.1/layer_scale/Mul"], "attr": {"T": {"type": "DT_FLOAT"}}}, {"name": "PartitionedCall/Pad_6", "op": "Pad", "input": ["PartitionedCall/onnx_tf_prefix_/stages.0/blocks/blocks.1/Add", "PartitionedCall/Const_6"], "attr": {"Tpaddings": {"type": "DT_INT32"}, "T": {"type": "DT_FLOAT"}}}, {"name": "PartitionedCall/Pad_7", "op": "Pad", "input": ["PartitionedCall/onnx_tf_prefix_/stages.0/blocks/blocks.1/Add", "PartitionedCall/Const_7"], "attr": {"T": {"type": "DT_FLOAT"}, "Tpaddings": {"type": "DT_INT32"}}}, {"name": "PartitionedCall/transpose_46", "op": "Transpose", "input": ["PartitionedCall/Pad_6", "PartitionedCall/transpose_46/perm"], "attr": {"T": {"type": "DT_FLOAT"}, "Tperm": {"type": "DT_INT32"}}}, {"name": "PartitionedCall/transpose_49", "op": "Transpose", "input": ["PartitionedCall/Pad_7", "PartitionedCall/transpose_49/perm"], "attr": {"T": {"type": "DT_FLOAT"}, "Tperm": {"type": "DT_INT32"}}}, {"name": "PartitionedCall/depthwise_8", "op": "FusedDepthwiseConv2dNative", "input": ["PartitionedCall/transpose_46", "PartitionedCall/Reshape_28", "unknown_66"], "attr": {"strides": {"list": {"i": ["1", "2", "2", "1"]}}, "data_format": {"s": "TkhXQw=="}, "padding": {"s": "VkFMSUQ="}, "T": {"type": "DT_FLOAT"}, "explicit_paddings": {"list": {}}, "dilations": {"list": {"i": ["1", "1", "1", "1"]}}, "num_args": {"i": "1"}, "fused_ops": {"list": {"s": ["Qmlhc0FkZA=="]}}}}, {"name": "PartitionedCall/depthwise_9", "op": "FusedDepthwiseConv2dNative", "input": ["PartitionedCall/transpose_49", "PartitionedCall/Reshape_29", "unknown_68"], "attr": {"data_format": {"s": "TkhXQw=="}, "dilations": {"list": {"i": ["1", "1", "1", "1"]}}, "strides": {"list": {"i": ["1", "2", "2", "1"]}}, "explicit_paddings": {"list": {}}, "padding": {"s": "VkFMSUQ="}, "T": {"type": "DT_FLOAT"}, "num_args": {"i": "1"}, "fused_ops": {"list": {"s": ["Qmlhc0FkZA=="]}}}}, {"name": "PartitionedCall/transpose_47", "op": "Transpose", "input": ["PartitionedCall/depthwise_8", "PartitionedCall/transpose_47/perm"], "attr": {"Tperm": {"type": "DT_INT32"}, "T": {"type": "DT_FLOAT"}}}, {"name": "PartitionedCall/transpose_50", "op": "Transpose", "input": ["PartitionedCall/depthwise_9", "PartitionedCall/transpose_50/perm"], "attr": {"T": {"type": "DT_FLOAT"}, "Tperm": {"type": "DT_INT32"}}}, {"name": "PartitionedCall/onnx_tf_prefix_/stages.1/downsample/proj/proj.0/Add", "op": "AddV2", "input": ["PartitionedCall/transpose_47", "PartitionedCall/transpose_50"], "attr": {"T": {"type": "DT_FLOAT"}}}, {"name": "PartitionedCall/onnx_tf_prefix_/stages.1/downsample/proj/proj.1/identity/BatchNormalization/mul_1", "op": "Mul", "input": ["PartitionedCall/onnx_tf_prefix_/stages.1/downsample/proj/proj.0/Add", "PartitionedCall/onnx_tf_prefix_/stages.1/downsample/proj/proj.1/identity/BatchNormalization/mul"], "attr": {"T": {"type": "DT_FLOAT"}}}, {"name": "PartitionedCall/transpose_52", "op": "Transpose", "input": ["PartitionedCall/onnx_tf_prefix_/stages.1/downsample/proj/proj.0/Add", "PartitionedCall/transpose_52/perm"], "attr": {"Tperm": {"type": "DT_INT32"}, "T": {"type": "DT_FLOAT"}}}, {"name": "PartitionedCall/onnx_tf_prefix_/stages.1/downsample/proj/proj.1/identity/BatchNormalization/add_1", "op": "AddV2", "input": ["PartitionedCall/onnx_tf_prefix_/stages.1/downsample/proj/proj.1/identity/BatchNormalization/mul_1", "PartitionedCall/onnx_tf_prefix_/stages.1/downsample/proj/proj.1/identity/BatchNormalization/sub"], "attr": {"T": {"type": "DT_FLOAT"}}}, {"name": "PartitionedCall/Add_17", "op": "_FusedConv2D", "input": ["PartitionedCall/transpose_52", "PartitionedCall/split_7", "unknown_74"], "device": "/device:CPU:0", "attr": {"use_cudnn_on_gpu": {"b": true}, "leakyrelu_alpha": {"f": 0.2}, "filter_format": {"s": "SFdJTw=="}, "explicit_paddings": {"list": {}}, "num_args": {"i": "1"}, "padding": {"s": "VkFMSUQ="}, "TArgs": {"list": {"type": ["DT_FLOAT"]}}, "strides": {"list": {"i": ["1", "1", "1", "1"]}}, "num_host_args": {"i": "0"}, "dilations": {"list": {"i": ["1", "1", "1", "1"]}}, "fused_ops": {"list": {"s": ["Qmlhc0FkZA=="]}}, "T": {"type": "DT_FLOAT"}, "epsilon": {"f": 0.0}, "data_format": {"s": "TkhXQw=="}}}, {"name": "PartitionedCall/transpose_53", "op": "Transpose", "input": ["PartitionedCall/Add_17", "PartitionedCall/transpose_53/perm"], "attr": {"Tperm": {"type": "DT_INT32"}, "T": {"type": "DT_FLOAT"}}}, {"name": "PartitionedCall/onnx_tf_prefix_/stages.1/downsample/proj/proj.1/Add_1", "op": "AddV2", "input": ["PartitionedCall/onnx_tf_prefix_/stages.1/downsample/proj/proj.1/identity/BatchNormalization/add_1", "PartitionedCall/transpose_53"], "attr": {"T": {"type": "DT_FLOAT"}}}, {"name": "PartitionedCall/onnx_tf_prefix_/stages.1/downsample/proj/proj.1/act/Mul", "op": "Mul", "input": ["PartitionedCall/onnx_tf_prefix_/stages.1/downsample/proj/proj.1/act/Constant_2", "PartitionedCall/onnx_tf_prefix_/stages.1/downsample/proj/proj.1/Add_1"], "attr": {"_grappler_ArithmeticOptimizer_MinimizeBroadcasts": {"b": true}, "T": {"type": "DT_FLOAT"}}}, {"name": "PartitionedCall/onnx_tf_prefix_/stages.1/downsample/proj/proj.1/act/Div", "op": "Mul", "input": ["PartitionedCall/onnx_tf_prefix_/stages.1/downsample/proj/proj.1/Add_1", "ConstantFolding/PartitionedCall/onnx_tf_prefix_/stages.1/downsample/proj/proj.1/act/Div_recip"], "attr": {"T": {"type": "DT_FLOAT"}}}, {"name": "PartitionedCall/onnx_tf_prefix_/stages.1/downsample/proj/proj.1/act/Erf", "op": "Erf", "input": ["PartitionedCall/onnx_tf_prefix_/stages.1/downsample/proj/proj.1/act/Div"], "attr": {"T": {"type": "DT_FLOAT"}}}, {"name": "PartitionedCall/onnx_tf_prefix_/stages.1/downsample/proj/proj.1/act/Add", "op": "AddV2", "input": ["PartitionedCall/onnx_tf_prefix_/stages.1/downsample/proj/proj.1/act/Erf", "PartitionedCall/onnx_tf_prefix_/stages.1/downsample/proj/proj.1/act/Constant_1"], "attr": {"T": {"type": "DT_FLOAT"}}}, {"name": "PartitionedCall/onnx_tf_prefix_/stages.1/downsample/proj/proj.1/act/Mul_1", "op": "Mul", "input": ["PartitionedCall/onnx_tf_prefix_/stages.1/downsample/proj/proj.1/act/Mul", "PartitionedCall/onnx_tf_prefix_/stages.1/downsample/proj/proj.1/act/Add"], "attr": {"_grappler_ArithmeticOptimizer_MinimizeBroadcasts": {"b": true}, "T": {"type": "DT_FLOAT"}}}, {"name": "PartitionedCall/transpose_55", "op": "Transpose", "input": ["PartitionedCall/onnx_tf_prefix_/stages.1/downsample/proj/proj.1/act/Mul_1", "PartitionedCall/transpose_55/perm"], "attr": {"Tperm": {"type": "DT_INT32"}, "T": {"type": "DT_FLOAT"}}}, {"name": "PartitionedCall/onnx_tf_prefix_/stages.1/blocks/blocks.0/token_mixer/mixer/identity/BatchNormalization/mul_1", "op": "Mul", "input": ["PartitionedCall/onnx_tf_prefix_/stages.1/downsample/proj/proj.1/act/Mul_1", "PartitionedCall/onnx_tf_prefix_/stages.1/blocks/blocks.0/token_mixer/mixer/identity/BatchNormalization/mul"], "attr": {"T": {"type": "DT_FLOAT"}}}, {"name": "PartitionedCall/Pad_8", "op": "Pad", "input": ["PartitionedCall/onnx_tf_prefix_/stages.1/downsample/proj/proj.1/act/Mul_1", "PartitionedCall/Const_8"], "attr": {"Tpaddings": {"type": "DT_INT32"}, "T": {"type": "DT_FLOAT"}}}, {"name": "PartitionedCall/onnx_tf_prefix_/stages.1/blocks/blocks.0/token_mixer/norm/identity/BatchNormalization/mul_1", "op": "Mul", "input": ["PartitionedCall/onnx_tf_prefix_/stages.1/downsample/proj/proj.1/act/Mul_1", "PartitionedCall/onnx_tf_prefix_/stages.1/blocks/blocks.0/token_mixer/norm/identity/BatchNormalization/mul"], "attr": {"T": {"type": "DT_FLOAT"}}}, {"name": "PartitionedCall/depthwise_10", "op": "FusedDepthwiseConv2dNative", "input": ["PartitionedCall/transpose_55", "PartitionedCall/Reshape_38", "unknown_78"], "attr": {"data_format": {"s": "TkhXQw=="}, "dilations": {"list": {"i": ["1", "1", "1", "1"]}}, "padding": {"s": "VkFMSUQ="}, "T": {"type": "DT_FLOAT"}, "strides": {"list": {"i": ["1", "1", "1", "1"]}}, "explicit_paddings": {"list": {}}, "num_args": {"i": "1"}, "fused_ops": {"list": {"s": ["Qmlhc0FkZA=="]}}}}, {"name": "PartitionedCall/onnx_tf_prefix_/stages.1/blocks/blocks.0/token_mixer/mixer/identity/BatchNormalization/add_1", "op": "AddV2", "input": ["PartitionedCall/onnx_tf_prefix_/stages.1/blocks/blocks.0/token_mixer/mixer/identity/BatchNormalization/mul_1", "PartitionedCall/onnx_tf_prefix_/stages.1/blocks/blocks.0/token_mixer/mixer/identity/BatchNormalization/sub"], "attr": {"T": {"type": "DT_FLOAT"}}}, {"name": "PartitionedCall/transpose_58", "op": "Transpose", "input": ["PartitionedCall/Pad_8", "PartitionedCall/transpose_58/perm"], "attr": {"T": {"type": "DT_FLOAT"}, "Tperm": {"type": "DT_INT32"}}}, {"name": "PartitionedCall/onnx_tf_prefix_/stages.1/blocks/blocks.0/token_mixer/norm/identity/BatchNormalization/add_1", "op": "AddV2", "input": ["PartitionedCall/onnx_tf_prefix_/stages.1/blocks/blocks.0/token_mixer/norm/identity/BatchNormalization/mul_1", "PartitionedCall/onnx_tf_prefix_/stages.1/blocks/blocks.0/token_mixer/norm/identity/BatchNormalization/sub"], "attr": {"T": {"type": "DT_FLOAT"}}}, {"name": "PartitionedCall/depthwise_11", "op": "FusedDepthwiseConv2dNative", "input": ["PartitionedCall/transpose_58", "PartitionedCall/Reshape_39", "unknown_80"], "attr": {"padding": {"s": "VkFMSUQ="}, "T": {"type": "DT_FLOAT"}, "explicit_paddings": {"list": {}}, "strides": {"list": {"i": ["1", "1", "1", "1"]}}, "data_format": {"s": "TkhXQw=="}, "dilations": {"list": {"i": ["1", "1", "1", "1"]}}, "num_args": {"i": "1"}, "fused_ops": {"list": {"s": ["Qmlhc0FkZA=="]}}}}, {"name": "PartitionedCall/transpose_56", "op": "Transpose", "input": ["PartitionedCall/depthwise_10", "PartitionedCall/transpose_56/perm"], "attr": {"Tperm": {"type": "DT_INT32"}, "T": {"type": "DT_FLOAT"}}}, {"name": "PartitionedCall/onnx_tf_prefix_/stages.1/blocks/blocks.0/token_mixer/mixer/Add", "op": "AddV2", "input": ["PartitionedCall/transpose_56", "PartitionedCall/onnx_tf_prefix_/stages.1/blocks/blocks.0/token_mixer/mixer/identity/BatchNormalization/add_1"], "attr": {"T": {"type": "DT_FLOAT"}}}, {"name": "PartitionedCall/transpose_59", "op": "Transpose", "input": ["PartitionedCall/depthwise_11", "PartitionedCall/transpose_59/perm"], "attr": {"Tperm": {"type": "DT_INT32"}, "T": {"type": "DT_FLOAT"}}}, {"name": "PartitionedCall/onnx_tf_prefix_/stages.1/blocks/blocks.0/token_mixer/mixer/Add_1", "op": "AddV2", "input": ["PartitionedCall/onnx_tf_prefix_/stages.1/blocks/blocks.0/token_mixer/mixer/Add", "PartitionedCall/transpose_59"], "attr": {"T": {"type": "DT_FLOAT"}}}, {"name": "PartitionedCall/onnx_tf_prefix_/stages.1/blocks/blocks.0/token_mixer/Sub", "op": "Sub", "input": ["PartitionedCall/onnx_tf_prefix_/stages.1/blocks/blocks.0/token_mixer/mixer/Add_1", "PartitionedCall/onnx_tf_prefix_/stages.1/blocks/blocks.0/token_mixer/norm/identity/BatchNormalization/add_1"], "attr": {"T": {"type": "DT_FLOAT"}}}, {"name": "PartitionedCall/onnx_tf_prefix_/stages.1/blocks/blocks.0/token_mixer/layer_scale/Mul", "op": "Mul", "input": ["PartitionedCall/onnx_tf_prefix_/stages.1/blocks/blocks.0/token_mixer/Sub", "unknown_83"], "attr": {"T": {"type": "DT_FLOAT"}}}, {"name": "PartitionedCall/onnx_tf_prefix_/stages.1/blocks/blocks.0/token_mixer/Add", "op": "AddV2", "input": ["PartitionedCall/onnx_tf_prefix_/stages.1/downsample/proj/proj.1/act/Mul_1", "PartitionedCall/onnx_tf_prefix_/stages.1/blocks/blocks.0/token_mixer/layer_scale/Mul"], "attr": {"T": {"type": "DT_FLOAT"}}}, {"name": "PartitionedCall/Pad_9", "op": "Pad", "input": ["PartitionedCall/onnx_tf_prefix_/stages.1/blocks/blocks.0/token_mixer/Add", "PartitionedCall/Const_9"], "attr": {"T": {"type": "DT_FLOAT"}, "Tpaddings": {"type": "DT_INT32"}}}, {"name": "PartitionedCall/transpose_61", "op": "Transpose", "input": ["PartitionedCall/Pad_9", "PartitionedCall/transpose_61/perm"], "attr": {"T": {"type": "DT_FLOAT"}, "Tperm": {"type": "DT_INT32"}}}, {"name": "PartitionedCall/depthwise_12", "op": "FusedDepthwiseConv2dNative", "input": ["PartitionedCall/transpose_61", "PartitionedCall/Reshape_44", "unknown_85"], "attr": {"data_format": {"s": "TkhXQw=="}, "explicit_paddings": {"list": {}}, "padding": {"s": "VkFMSUQ="}, "strides": {"list": {"i": ["1", "1", "1", "1"]}}, "T": {"type": "DT_FLOAT"}, "dilations": {"list": {"i": ["1", "1", "1", "1"]}}, "num_args": {"i": "1"}, "fused_ops": {"list": {"s": ["Qmlhc0FkZA=="]}}}}, {"name": "PartitionedCall/Add_21", "op": "_FusedConv2D", "input": ["PartitionedCall/depthwise_12", "PartitionedCall/split_8", "unknown_87"], "device": "/device:CPU:0", "attr": {"use_cudnn_on_gpu": {"b": true}, "explicit_paddings": {"list": {}}, "data_format": {"s": "TkhXQw=="}, "padding": {"s": "VkFMSUQ="}, "dilations": {"list": {"i": ["1", "1", "1", "1"]}}, "num_host_args": {"i": "0"}, "epsilon": {"f": 0.0}, "fused_ops": {"list": {"s": ["Qmlhc0FkZA=="]}}, "strides": {"list": {"i": ["1", "1", "1", "1"]}}, "leakyrelu_alpha": {"f": 0.2}, "T": {"type": "DT_FLOAT"}, "num_args": {"i": "1"}, "TArgs": {"list": {"type": ["DT_FLOAT"]}}, "filter_format": {"s": "SFdJTw=="}}}, {"name": "PartitionedCall/transpose_65", "op": "Transpose", "input": ["PartitionedCall/Add_21", "PartitionedCall/transpose_65/perm"], "attr": {"Tperm": {"type": "DT_INT32"}, "T": {"type": "DT_FLOAT"}}}, {"name": "PartitionedCall/onnx_tf_prefix_/stages.1/blocks/blocks.0/mlp/act/Mul", "op": "Mul", "input": ["PartitionedCall/onnx_tf_prefix_/stages.1/blocks/blocks.0/mlp/act/Constant_2", "PartitionedCall/transpose_65"], "attr": {"_grappler_ArithmeticOptimizer_MinimizeBroadcasts": {"b": true}, "T": {"type": "DT_FLOAT"}}}, {"name": "PartitionedCall/onnx_tf_prefix_/stages.1/blocks/blocks.0/mlp/act/Div", "op": "Mul", "input": ["PartitionedCall/transpose_65", "ConstantFolding/PartitionedCall/onnx_tf_prefix_/stages.1/blocks/blocks.0/mlp/act/Div_recip"], "attr": {"T": {"type": "DT_FLOAT"}}}, {"name": "PartitionedCall/onnx_tf_prefix_/stages.1/blocks/blocks.0/mlp/act/Erf", "op": "Erf", "input": ["PartitionedCall/onnx_tf_prefix_/stages.1/blocks/blocks.0/mlp/act/Div"], "attr": {"T": {"type": "DT_FLOAT"}}}, {"name": "PartitionedCall/onnx_tf_prefix_/stages.1/blocks/blocks.0/mlp/act/Add", "op": "AddV2", "input": ["PartitionedCall/onnx_tf_prefix_/stages.1/blocks/blocks.0/mlp/act/Erf", "PartitionedCall/onnx_tf_prefix_/stages.1/blocks/blocks.0/mlp/act/Constant_1"], "attr": {"T": {"type": "DT_FLOAT"}}}, {"name": "PartitionedCall/onnx_tf_prefix_/stages.1/blocks/blocks.0/mlp/act/Mul_1", "op": "Mul", "input": ["PartitionedCall/onnx_tf_prefix_/stages.1/blocks/blocks.0/mlp/act/Mul", "PartitionedCall/onnx_tf_prefix_/stages.1/blocks/blocks.0/mlp/act/Add"], "attr": {"T": {"type": "DT_FLOAT"}, "_grappler_ArithmeticOptimizer_MinimizeBroadcasts": {"b": true}}}, {"name": "PartitionedCall/transpose_67", "op": "Transpose", "input": ["PartitionedCall/onnx_tf_prefix_/stages.1/blocks/blocks.0/mlp/act/Mul_1", "PartitionedCall/transpose_67/perm"], "attr": {"T": {"type": "DT_FLOAT"}, "Tperm": {"type": "DT_INT32"}}}, {"name": "PartitionedCall/Add_22", "op": "_FusedConv2D", "input": ["PartitionedCall/transpose_67", "PartitionedCall/split_9", "unknown_89"], "device": "/device:CPU:0", "attr": {"data_format": {"s": "TkhXQw=="}, "num_host_args": {"i": "0"}, "fused_ops": {"list": {"s": ["Qmlhc0FkZA=="]}}, "explicit_paddings": {"list": {}}, "leakyrelu_alpha": {"f": 0.2}, "num_args": {"i": "1"}, "padding": {"s": "VkFMSUQ="}, "dilations": {"list": {"i": ["1", "1", "1", "1"]}}, "use_cudnn_on_gpu": {"b": true}, "epsilon": {"f": 0.0}, "TArgs": {"list": {"type": ["DT_FLOAT"]}}, "T": {"type": "DT_FLOAT"}, "strides": {"list": {"i": ["1", "1", "1", "1"]}}, "filter_format": {"s": "SFdJTw=="}}}, {"name": "PartitionedCall/transpose_68", "op": "Transpose", "input": ["PartitionedCall/Add_22", "PartitionedCall/transpose_68/perm"], "attr": {"Tperm": {"type": "DT_INT32"}, "T": {"type": "DT_FLOAT"}}}, {"name": "PartitionedCall/onnx_tf_prefix_/stages.1/blocks/blocks.0/layer_scale/Mul", "op": "Mul", "input": ["PartitionedCall/transpose_68", "unknown_90"], "attr": {"T": {"type": "DT_FLOAT"}}}, {"name": "PartitionedCall/onnx_tf_prefix_/stages.1/blocks/blocks.0/Add", "op": "AddV2", "input": ["PartitionedCall/onnx_tf_prefix_/stages.1/blocks/blocks.0/token_mixer/Add", "PartitionedCall/onnx_tf_prefix_/stages.1/blocks/blocks.0/layer_scale/Mul"], "attr": {"T": {"type": "DT_FLOAT"}}}, {"name": "PartitionedCall/transpose_70", "op": "Transpose", "input": ["PartitionedCall/onnx_tf_prefix_/stages.1/blocks/blocks.0/Add", "PartitionedCall/transpose_70/perm"], "attr": {"T": {"type": "DT_FLOAT"}, "Tperm": {"type": "DT_INT32"}}}, {"name": "PartitionedCall/onnx_tf_prefix_/stages.1/blocks/blocks.1/token_mixer/mixer/identity/BatchNormalization/mul_1", "op": "Mul", "input": ["PartitionedCall/onnx_tf_prefix_/stages.1/blocks/blocks.0/Add", "PartitionedCall/onnx_tf_prefix_/stages.1/blocks/blocks.1/token_mixer/mixer/identity/BatchNormalization/mul"], "attr": {"T": {"type": "DT_FLOAT"}}}, {"name": "PartitionedCall/Pad_10", "op": "Pad", "input": ["PartitionedCall/onnx_tf_prefix_/stages.1/blocks/blocks.0/Add", "PartitionedCall/Const_10"], "attr": {"T": {"type": "DT_FLOAT"}, "Tpaddings": {"type": "DT_INT32"}}}, {"name": "PartitionedCall/onnx_tf_prefix_/stages.1/blocks/blocks.1/token_mixer/norm/identity/BatchNormalization/mul_1", "op": "Mul", "input": ["PartitionedCall/onnx_tf_prefix_/stages.1/blocks/blocks.0/Add", "PartitionedCall/onnx_tf_prefix_/stages.1/blocks/blocks.1/token_mixer/norm/identity/BatchNormalization/mul"], "attr": {"T": {"type": "DT_FLOAT"}}}, {"name": "PartitionedCall/depthwise_13", "op": "FusedDepthwiseConv2dNative", "input": ["PartitionedCall/transpose_70", "PartitionedCall/Reshape_49", "unknown_94"], "attr": {"data_format": {"s": "TkhXQw=="}, "dilations": {"list": {"i": ["1", "1", "1", "1"]}}, "T": {"type": "DT_FLOAT"}, "strides": {"list": {"i": ["1", "1", "1", "1"]}}, "explicit_paddings": {"list": {}}, "padding": {"s": "VkFMSUQ="}, "num_args": {"i": "1"}, "fused_ops": {"list": {"s": ["Qmlhc0FkZA=="]}}}}, {"name": "PartitionedCall/onnx_tf_prefix_/stages.1/blocks/blocks.1/token_mixer/mixer/identity/BatchNormalization/add_1", "op": "AddV2", "input": ["PartitionedCall/onnx_tf_prefix_/stages.1/blocks/blocks.1/token_mixer/mixer/identity/BatchNormalization/mul_1", "PartitionedCall/onnx_tf_prefix_/stages.1/blocks/blocks.1/token_mixer/mixer/identity/BatchNormalization/sub"], "attr": {"T": {"type": "DT_FLOAT"}}}, {"name": "PartitionedCall/transpose_73", "op": "Transpose", "input": ["PartitionedCall/Pad_10", "PartitionedCall/transpose_73/perm"], "attr": {"T": {"type": "DT_FLOAT"}, "Tperm": {"type": "DT_INT32"}}}, {"name": "PartitionedCall/onnx_tf_prefix_/stages.1/blocks/blocks.1/token_mixer/norm/identity/BatchNormalization/add_1", "op": "AddV2", "input": ["PartitionedCall/onnx_tf_prefix_/stages.1/blocks/blocks.1/token_mixer/norm/identity/BatchNormalization/mul_1", "PartitionedCall/onnx_tf_prefix_/stages.1/blocks/blocks.1/token_mixer/norm/identity/BatchNormalization/sub"], "attr": {"T": {"type": "DT_FLOAT"}}}, {"name": "PartitionedCall/depthwise_14", "op": "FusedDepthwiseConv2dNative", "input": ["PartitionedCall/transpose_73", "PartitionedCall/Reshape_50", "unknown_96"], "attr": {"strides": {"list": {"i": ["1", "1", "1", "1"]}}, "data_format": {"s": "TkhXQw=="}, "T": {"type": "DT_FLOAT"}, "explicit_paddings": {"list": {}}, "dilations": {"list": {"i": ["1", "1", "1", "1"]}}, "padding": {"s": "VkFMSUQ="}, "num_args": {"i": "1"}, "fused_ops": {"list": {"s": ["Qmlhc0FkZA=="]}}}}, {"name": "PartitionedCall/transpose_71", "op": "Transpose", "input": ["PartitionedCall/depthwise_13", "PartitionedCall/transpose_71/perm"], "attr": {"Tperm": {"type": "DT_INT32"}, "T": {"type": "DT_FLOAT"}}}, {"name": "PartitionedCall/onnx_tf_prefix_/stages.1/blocks/blocks.1/token_mixer/mixer/Add", "op": "AddV2", "input": ["PartitionedCall/transpose_71", "PartitionedCall/onnx_tf_prefix_/stages.1/blocks/blocks.1/token_mixer/mixer/identity/BatchNormalization/add_1"], "attr": {"T": {"type": "DT_FLOAT"}}}, {"name": "PartitionedCall/transpose_74", "op": "Transpose", "input": ["PartitionedCall/depthwise_14", "PartitionedCall/transpose_74/perm"], "attr": {"Tperm": {"type": "DT_INT32"}, "T": {"type": "DT_FLOAT"}}}, {"name": "PartitionedCall/onnx_tf_prefix_/stages.1/blocks/blocks.1/token_mixer/mixer/Add_1", "op": "AddV2", "input": ["PartitionedCall/onnx_tf_prefix_/stages.1/blocks/blocks.1/token_mixer/mixer/Add", "PartitionedCall/transpose_74"], "attr": {"T": {"type": "DT_FLOAT"}}}, {"name": "PartitionedCall/onnx_tf_prefix_/stages.1/blocks/blocks.1/token_mixer/Sub", "op": "Sub", "input": ["PartitionedCall/onnx_tf_prefix_/stages.1/blocks/blocks.1/token_mixer/mixer/Add_1", "PartitionedCall/onnx_tf_prefix_/stages.1/blocks/blocks.1/token_mixer/norm/identity/BatchNormalization/add_1"], "attr": {"T": {"type": "DT_FLOAT"}}}, {"name": "PartitionedCall/onnx_tf_prefix_/stages.1/blocks/blocks.1/token_mixer/layer_scale/Mul", "op": "Mul", "input": ["PartitionedCall/onnx_tf_prefix_/stages.1/blocks/blocks.1/token_mixer/Sub", "unknown_99"], "attr": {"T": {"type": "DT_FLOAT"}}}, {"name": "PartitionedCall/onnx_tf_prefix_/stages.1/blocks/blocks.1/token_mixer/Add", "op": "AddV2", "input": ["PartitionedCall/onnx_tf_prefix_/stages.1/blocks/blocks.0/Add", "PartitionedCall/onnx_tf_prefix_/stages.1/blocks/blocks.1/token_mixer/layer_scale/Mul"], "attr": {"T": {"type": "DT_FLOAT"}}}, {"name": "PartitionedCall/Pad_11", "op": "Pad", "input": ["PartitionedCall/onnx_tf_prefix_/stages.1/blocks/blocks.1/token_mixer/Add", "PartitionedCall/Const_11"], "attr": {"Tpaddings": {"type": "DT_INT32"}, "T": {"type": "DT_FLOAT"}}}, {"name": "PartitionedCall/transpose_76", "op": "Transpose", "input": ["PartitionedCall/Pad_11", "PartitionedCall/transpose_76/perm"], "attr": {"Tperm": {"type": "DT_INT32"}, "T": {"type": "DT_FLOAT"}}}, {"name": "PartitionedCall/depthwise_15", "op": "FusedDepthwiseConv2dNative", "input": ["PartitionedCall/transpose_76", "PartitionedCall/Reshape_55", "unknown_101"], "attr": {"strides": {"list": {"i": ["1", "1", "1", "1"]}}, "T": {"type": "DT_FLOAT"}, "data_format": {"s": "TkhXQw=="}, "dilations": {"list": {"i": ["1", "1", "1", "1"]}}, "explicit_paddings": {"list": {}}, "padding": {"s": "VkFMSUQ="}, "num_args": {"i": "1"}, "fused_ops": {"list": {"s": ["Qmlhc0FkZA=="]}}}}, {"name": "PartitionedCall/Add_26", "op": "_FusedConv2D", "input": ["PartitionedCall/depthwise_15", "PartitionedCall/split_10", "unknown_103"], "device": "/device:CPU:0", "attr": {"T": {"type": "DT_FLOAT"}, "dilations": {"list": {"i": ["1", "1", "1", "1"]}}, "num_host_args": {"i": "0"}, "epsilon": {"f": 0.0}, "data_format": {"s": "TkhXQw=="}, "use_cudnn_on_gpu": {"b": true}, "TArgs": {"list": {"type": ["DT_FLOAT"]}}, "leakyrelu_alpha": {"f": 0.2}, "num_args": {"i": "1"}, "padding": {"s": "VkFMSUQ="}, "strides": {"list": {"i": ["1", "1", "1", "1"]}}, "filter_format": {"s": "SFdJTw=="}, "explicit_paddings": {"list": {}}, "fused_ops": {"list": {"s": ["Qmlhc0FkZA=="]}}}}, {"name": "PartitionedCall/transpose_80", "op": "Transpose", "input": ["PartitionedCall/Add_26", "PartitionedCall/transpose_80/perm"], "attr": {"T": {"type": "DT_FLOAT"}, "Tperm": {"type": "DT_INT32"}}}, {"name": "PartitionedCall/onnx_tf_prefix_/stages.1/blocks/blocks.1/mlp/act/Mul", "op": "Mul", "input": ["PartitionedCall/onnx_tf_prefix_/stages.1/blocks/blocks.1/mlp/act/Constant_2", "PartitionedCall/transpose_80"], "attr": {"_grappler_ArithmeticOptimizer_MinimizeBroadcasts": {"b": true}, "T": {"type": "DT_FLOAT"}}}, {"name": "PartitionedCall/onnx_tf_prefix_/stages.1/blocks/blocks.1/mlp/act/Div", "op": "Mul", "input": ["PartitionedCall/transpose_80", "ConstantFolding/PartitionedCall/onnx_tf_prefix_/stages.1/blocks/blocks.1/mlp/act/Div_recip"], "attr": {"T": {"type": "DT_FLOAT"}}}, {"name": "PartitionedCall/onnx_tf_prefix_/stages.1/blocks/blocks.1/mlp/act/Erf", "op": "Erf", "input": ["PartitionedCall/onnx_tf_prefix_/stages.1/blocks/blocks.1/mlp/act/Div"], "attr": {"T": {"type": "DT_FLOAT"}}}, {"name": "PartitionedCall/onnx_tf_prefix_/stages.1/blocks/blocks.1/mlp/act/Add", "op": "AddV2", "input": ["PartitionedCall/onnx_tf_prefix_/stages.1/blocks/blocks.1/mlp/act/Erf", "PartitionedCall/onnx_tf_prefix_/stages.1/blocks/blocks.1/mlp/act/Constant_1"], "attr": {"T": {"type": "DT_FLOAT"}}}, {"name": "PartitionedCall/onnx_tf_prefix_/stages.1/blocks/blocks.1/mlp/act/Mul_1", "op": "Mul", "input": ["PartitionedCall/onnx_tf_prefix_/stages.1/blocks/blocks.1/mlp/act/Mul", "PartitionedCall/onnx_tf_prefix_/stages.1/blocks/blocks.1/mlp/act/Add"], "attr": {"T": {"type": "DT_FLOAT"}, "_grappler_ArithmeticOptimizer_MinimizeBroadcasts": {"b": true}}}, {"name": "PartitionedCall/transpose_82", "op": "Transpose", "input": ["PartitionedCall/onnx_tf_prefix_/stages.1/blocks/blocks.1/mlp/act/Mul_1", "PartitionedCall/transpose_82/perm"], "attr": {"T": {"type": "DT_FLOAT"}, "Tperm": {"type": "DT_INT32"}}}, {"name": "PartitionedCall/Add_27", "op": "_FusedConv2D", "input": ["PartitionedCall/transpose_82", "PartitionedCall/split_11", "unknown_105"], "device": "/device:CPU:0", "attr": {"padding": {"s": "VkFMSUQ="}, "TArgs": {"list": {"type": ["DT_FLOAT"]}}, "num_args": {"i": "1"}, "leakyrelu_alpha": {"f": 0.2}, "explicit_paddings": {"list": {}}, "strides": {"list": {"i": ["1", "1", "1", "1"]}}, "T": {"type": "DT_FLOAT"}, "epsilon": {"f": 0.0}, "data_format": {"s": "TkhXQw=="}, "filter_format": {"s": "SFdJTw=="}, "fused_ops": {"list": {"s": ["Qmlhc0FkZA=="]}}, "use_cudnn_on_gpu": {"b": true}, "dilations": {"list": {"i": ["1", "1", "1", "1"]}}, "num_host_args": {"i": "0"}}}, {"name": "PartitionedCall/transpose_83", "op": "Transpose", "input": ["PartitionedCall/Add_27", "PartitionedCall/transpose_83/perm"], "attr": {"T": {"type": "DT_FLOAT"}, "Tperm": {"type": "DT_INT32"}}}, {"name": "PartitionedCall/onnx_tf_prefix_/stages.1/blocks/blocks.1/layer_scale/Mul", "op": "Mul", "input": ["PartitionedCall/transpose_83", "unknown_106"], "attr": {"T": {"type": "DT_FLOAT"}}}, {"name": "PartitionedCall/onnx_tf_prefix_/stages.1/blocks/blocks.1/Add", "op": "AddV2", "input": ["PartitionedCall/onnx_tf_prefix_/stages.1/blocks/blocks.1/token_mixer/Add", "PartitionedCall/onnx_tf_prefix_/stages.1/blocks/blocks.1/layer_scale/Mul"], "attr": {"T": {"type": "DT_FLOAT"}}}, {"name": "PartitionedCall/Pad_12", "op": "Pad", "input": ["PartitionedCall/onnx_tf_prefix_/stages.1/blocks/blocks.1/Add", "PartitionedCall/Const_12"], "attr": {"T": {"type": "DT_FLOAT"}, "Tpaddings": {"type": "DT_INT32"}}}, {"name": "PartitionedCall/Pad_13", "op": "Pad", "input": ["PartitionedCall/onnx_tf_prefix_/stages.1/blocks/blocks.1/Add", "PartitionedCall/Const_13"], "attr": {"Tpaddings": {"type": "DT_INT32"}, "T": {"type": "DT_FLOAT"}}}, {"name": "PartitionedCall/transpose_85", "op": "Transpose", "input": ["PartitionedCall/Pad_12", "PartitionedCall/transpose_85/perm"], "attr": {"T": {"type": "DT_FLOAT"}, "Tperm": {"type": "DT_INT32"}}}, {"name": "PartitionedCall/transpose_88", "op": "Transpose", "input": ["PartitionedCall/Pad_13", "PartitionedCall/transpose_88/perm"], "attr": {"Tperm": {"type": "DT_INT32"}, "T": {"type": "DT_FLOAT"}}}, {"name": "PartitionedCall/depthwise_16", "op": "FusedDepthwiseConv2dNative", "input": ["PartitionedCall/transpose_85", "PartitionedCall/Reshape_56", "unknown_108"], "attr": {"dilations": {"list": {"i": ["1", "1", "1", "1"]}}, "explicit_paddings": {"list": {}}, "strides": {"list": {"i": ["1", "2", "2", "1"]}}, "padding": {"s": "VkFMSUQ="}, "data_format": {"s": "TkhXQw=="}, "T": {"type": "DT_FLOAT"}, "num_args": {"i": "1"}, "fused_ops": {"list": {"s": ["Qmlhc0FkZA=="]}}}}, {"name": "PartitionedCall/depthwise_17", "op": "FusedDepthwiseConv2dNative", "input": ["PartitionedCall/transpose_88", "PartitionedCall/Reshape_57", "unknown_110"], "attr": {"data_format": {"s": "TkhXQw=="}, "dilations": {"list": {"i": ["1", "1", "1", "1"]}}, "padding": {"s": "VkFMSUQ="}, "explicit_paddings": {"list": {}}, "strides": {"list": {"i": ["1", "2", "2", "1"]}}, "T": {"type": "DT_FLOAT"}, "num_args": {"i": "1"}, "fused_ops": {"list": {"s": ["Qmlhc0FkZA=="]}}}}, {"name": "PartitionedCall/transpose_86", "op": "Transpose", "input": ["PartitionedCall/depthwise_16", "PartitionedCall/transpose_86/perm"], "attr": {"T": {"type": "DT_FLOAT"}, "Tperm": {"type": "DT_INT32"}}}, {"name": "PartitionedCall/transpose_89", "op": "Transpose", "input": ["PartitionedCall/depthwise_17", "PartitionedCall/transpose_89/perm"], "attr": {"T": {"type": "DT_FLOAT"}, "Tperm": {"type": "DT_INT32"}}}, {"name": "PartitionedCall/onnx_tf_prefix_/stages.2/downsample/proj/proj.0/Add", "op": "AddV2", "input": ["PartitionedCall/transpose_86", "PartitionedCall/transpose_89"], "attr": {"T": {"type": "DT_FLOAT"}}}, {"name": "PartitionedCall/onnx_tf_prefix_/stages.2/downsample/proj/proj.1/identity/BatchNormalization/mul_1", "op": "Mul", "input": ["PartitionedCall/onnx_tf_prefix_/stages.2/downsample/proj/proj.0/Add", "PartitionedCall/onnx_tf_prefix_/stages.2/downsample/proj/proj.1/identity/BatchNormalization/mul"], "attr": {"T": {"type": "DT_FLOAT"}}}, {"name": "PartitionedCall/transpose_91", "op": "Transpose", "input": ["PartitionedCall/onnx_tf_prefix_/stages.2/downsample/proj/proj.0/Add", "PartitionedCall/transpose_91/perm"], "attr": {"Tperm": {"type": "DT_INT32"}, "T": {"type": "DT_FLOAT"}}}, {"name": "PartitionedCall/onnx_tf_prefix_/stages.2/downsample/proj/proj.1/identity/BatchNormalization/add_1", "op": "AddV2", "input": ["PartitionedCall/onnx_tf_prefix_/stages.2/downsample/proj/proj.1/identity/BatchNormalization/mul_1", "PartitionedCall/onnx_tf_prefix_/stages.2/downsample/proj/proj.1/identity/BatchNormalization/sub"], "attr": {"T": {"type": "DT_FLOAT"}}}, {"name": "PartitionedCall/Add_30", "op": "_FusedConv2D", "input": ["PartitionedCall/transpose_91", "PartitionedCall/split_12", "unknown_116"], "device": "/device:CPU:0", "attr": {"fused_ops": {"list": {"s": ["Qmlhc0FkZA=="]}}, "leakyrelu_alpha": {"f": 0.2}, "num_args": {"i": "1"}, "explicit_paddings": {"list": {}}, "data_format": {"s": "TkhXQw=="}, "strides": {"list": {"i": ["1", "1", "1", "1"]}}, "use_cudnn_on_gpu": {"b": true}, "padding": {"s": "VkFMSUQ="}, "filter_format": {"s": "SFdJTw=="}, "epsilon": {"f": 0.0}, "dilations": {"list": {"i": ["1", "1", "1", "1"]}}, "TArgs": {"list": {"type": ["DT_FLOAT"]}}, "T": {"type": "DT_FLOAT"}, "num_host_args": {"i": "0"}}}, {"name": "PartitionedCall/transpose_92", "op": "Transpose", "input": ["PartitionedCall/Add_30", "PartitionedCall/transpose_92/perm"], "attr": {"Tperm": {"type": "DT_INT32"}, "T": {"type": "DT_FLOAT"}}}, {"name": "PartitionedCall/onnx_tf_prefix_/stages.2/downsample/proj/proj.1/Add_1", "op": "AddV2", "input": ["PartitionedCall/onnx_tf_prefix_/stages.2/downsample/proj/proj.1/identity/BatchNormalization/add_1", "PartitionedCall/transpose_92"], "attr": {"T": {"type": "DT_FLOAT"}}}, {"name": "PartitionedCall/onnx_tf_prefix_/stages.2/downsample/proj/proj.1/act/Mul", "op": "Mul", "input": ["PartitionedCall/onnx_tf_prefix_/stages.2/downsample/proj/proj.1/act/Constant_2", "PartitionedCall/onnx_tf_prefix_/stages.2/downsample/proj/proj.1/Add_1"], "attr": {"T": {"type": "DT_FLOAT"}, "_grappler_ArithmeticOptimizer_MinimizeBroadcasts": {"b": true}}}, {"name": "PartitionedCall/onnx_tf_prefix_/stages.2/downsample/proj/proj.1/act/Div", "op": "Mul", "input": ["PartitionedCall/onnx_tf_prefix_/stages.2/downsample/proj/proj.1/Add_1", "ConstantFolding/PartitionedCall/onnx_tf_prefix_/stages.2/downsample/proj/proj.1/act/Div_recip"], "attr": {"T": {"type": "DT_FLOAT"}}}, {"name": "PartitionedCall/onnx_tf_prefix_/stages.2/downsample/proj/proj.1/act/Erf", "op": "Erf", "input": ["PartitionedCall/onnx_tf_prefix_/stages.2/downsample/proj/proj.1/act/Div"], "attr": {"T": {"type": "DT_FLOAT"}}}, {"name": "PartitionedCall/onnx_tf_prefix_/stages.2/downsample/proj/proj.1/act/Add", "op": "AddV2", "input": ["PartitionedCall/onnx_tf_prefix_/stages.2/downsample/proj/proj.1/act/Erf", "PartitionedCall/onnx_tf_prefix_/stages.2/downsample/proj/proj.1/act/Constant_1"], "attr": {"T": {"type": "DT_FLOAT"}}}, {"name": "PartitionedCall/onnx_tf_prefix_/stages.2/downsample/proj/proj.1/act/Mul_1", "op": "Mul", "input": ["PartitionedCall/onnx_tf_prefix_/stages.2/downsample/proj/proj.1/act/Mul", "PartitionedCall/onnx_tf_prefix_/stages.2/downsample/proj/proj.1/act/Add"], "attr": {"T": {"type": "DT_FLOAT"}, "_grappler_ArithmeticOptimizer_MinimizeBroadcasts": {"b": true}}}, {"name": "PartitionedCall/transpose_94", "op": "Transpose", "input": ["PartitionedCall/onnx_tf_prefix_/stages.2/downsample/proj/proj.1/act/Mul_1", "PartitionedCall/transpose_94/perm"], "attr": {"T": {"type": "DT_FLOAT"}, "Tperm": {"type": "DT_INT32"}}}, {"name": "PartitionedCall/onnx_tf_prefix_/stages.2/blocks/blocks.0/token_mixer/mixer/identity/BatchNormalization/mul_1", "op": "Mul", "input": ["PartitionedCall/onnx_tf_prefix_/stages.2/downsample/proj/proj.1/act/Mul_1", "PartitionedCall/onnx_tf_prefix_/stages.2/…
e_190", "PartitionedCall/split_25", "unknown_221"], "device": "/device:CPU:0", "attr": {"num_args": {"i": "1"}, "TArgs": {"list": {"type": ["DT_FLOAT"]}}, "data_format": {"s": "TkhXQw=="}, "explicit_paddings": {"list": {}}, "filter_format": {"s": "SFdJTw=="}, "leakyrelu_alpha": {"f": 0.2}, "padding": {"s": "VkFMSUQ="}, "num_host_args": {"i": "0"}, "strides": {"list": {"i": ["1", "1", "1", "1"]}}, "T": {"type": "DT_FLOAT"}, "fused_ops": {"list": {"s": ["Qmlhc0FkZA=="]}}, "epsilon": {"f": 0.0}, "dilations": {"list": {"i": ["1", "1", "1", "1"]}}, "use_cudnn_on_gpu": {"b": true}}}, {"name": "PartitionedCall/transpose_191", "op": "Transpose", "input": ["PartitionedCall/Add_63", "PartitionedCall/transpose_191/perm"], "attr": {"Tperm": {"type": "DT_INT32"}, "T": {"type": "DT_FLOAT"}}}, {"name": "PartitionedCall/onnx_tf_prefix_/stages.3/blocks/blocks.1/layer_scale/Mul", "op": "Mul", "input": ["PartitionedCall/transpose_191", "unknown_222"], "attr": {"T": {"type": "DT_FLOAT"}}}, {"name": "PartitionedCall/onnx_tf_prefix_/stages.3/blocks/blocks.1/Add", "op": "AddV2", "input": ["PartitionedCall/onnx_tf_prefix_/stages.3/blocks/blocks.1/token_mixer/Add", "PartitionedCall/onnx_tf_prefix_/stages.3/blocks/blocks.1/layer_scale/Mul"], "attr": {"T": {"type": "DT_FLOAT"}}}, {"name": "PartitionedCall/transpose_193", "op": "Transpose", "input": ["PartitionedCall/onnx_tf_prefix_/stages.3/blocks/blocks.1/Add", "PartitionedCall/transpose_193/perm"], "attr": {"T": {"type": "DT_FLOAT"}, "Tperm": {"type": "DT_INT32"}}}, {"name": "PartitionedCall/Pad_28", "op": "Pad", "input": ["PartitionedCall/onnx_tf_prefix_/stages.3/blocks/blocks.1/Add", "PartitionedCall/Const_28"], "attr": {"Tpaddings": {"type": "DT_INT32"}, "T": {"type": "DT_FLOAT"}}}, {"name": "PartitionedCall/depthwise_38", "op": "FusedDepthwiseConv2dNative", "input": ["PartitionedCall/transpose_193", "PartitionedCall/Reshape_134", "unknown_224"], "attr": {"padding": {"s": "VkFMSUQ="}, "T": {"type": "DT_FLOAT"}, "explicit_paddings": {"list": {}}, "dilations": {"list": {"i": ["1", "1", "1", "1"]}}, "strides": {"list": {"i": ["1", "1", "1", "1"]}}, "data_format": {"s": "TkhXQw=="}, "num_args": {"i": "1"}, "fused_ops": {"list": {"s": ["Qmlhc0FkZA=="]}}}}, {"name": "PartitionedCall/transpose_196", "op": "Transpose", "input": ["PartitionedCall/Pad_28", "PartitionedCall/transpose_196/perm"], "attr": {"Tperm": {"type": "DT_INT32"}, "T": {"type": "DT_FLOAT"}}}, {"name": "PartitionedCall/depthwise_39", "op": "FusedDepthwiseConv2dNative", "input": ["PartitionedCall/transpose_196", "PartitionedCall/Reshape_135", "unknown_226"], "attr": {"strides": {"list": {"i": ["1", "1", "1", "1"]}}, "data_format": {"s": "TkhXQw=="}, "explicit_paddings": {"list": {}}, "T": {"type": "DT_FLOAT"}, "dilations": {"list": {"i": ["1", "1", "1", "1"]}}, "padding": {"s": "VkFMSUQ="}, "num_args": {"i": "1"}, "fused_ops": {"list": {"s": ["Qmlhc0FkZA=="]}}}}, {"name": "PartitionedCall/transpose_194", "op": "Transpose", "input": ["PartitionedCall/depthwise_38", "PartitionedCall/transpose_194/perm"], "attr": {"T": {"type": "DT_FLOAT"}, "Tperm": {"type": "DT_INT32"}}}, {"name": "PartitionedCall/transpose_197", "op": "Transpose", "input": ["PartitionedCall/depthwise_39", "PartitionedCall/transpose_197/perm"], "attr": {"Tperm": {"type": "DT_INT32"}, "T": {"type": "DT_FLOAT"}}}, {"name": "PartitionedCall/onnx_tf_prefix_/final_conv/Add_1", "op": "AddV2", "input": ["PartitionedCall/transpose_194", "PartitionedCall/transpose_197"], "attr": {"T": {"type": "DT_FLOAT"}}}, {"name": "PartitionedCall/onnx_tf_prefix_/final_conv/se/ReduceMean", "op": "Mean", "input": ["PartitionedCall/onnx_tf_prefix_/final_conv/Add_1", "PartitionedCall/onnx_tf_prefix_/final_conv/se/ReduceMean/reduction_indices"], "attr": {"T": {"type": "DT_FLOAT"}, "keep_dims": {"b": true}, "Tidx": {"type": "DT_INT32"}}}, {"name": "PartitionedCall/transpose_199", "op": "Transpose", "input": ["PartitionedCall/onnx_tf_prefix_/final_conv/se/ReduceMean", "PartitionedCall/transpose_199/perm"], "attr": {"Tperm": {"type": "DT_INT32"}, "T": {"type": "DT_FLOAT"}}}, {"name": "PartitionedCall/Add_66", "op": "_FusedConv2D", "input": ["PartitionedCall/transpose_199", "PartitionedCall/split_26", "unknown_228"], "device": "/device:CPU:0", "attr": {"num_host_args": {"i": "0"}, "T": {"type": "DT_FLOAT"}, "filter_format": {"s": "SFdJTw=="}, "num_args": {"i": "1"}, "padding": {"s": "VkFMSUQ="}, "use_cudnn_on_gpu": {"b": true}, "strides": {"list": {"i": ["1", "1", "1", "1"]}}, "explicit_paddings": {"list": {}}, "epsilon": {"f": 0.0}, "leakyrelu_alpha": {"f": 0.2}, "TArgs": {"list": {"type": ["DT_FLOAT"]}}, "data_format": {"s": "TkhXQw=="}, "fused_ops": {"list": {"s": ["Qmlhc0FkZA=="]}}, "dilations": {"list": {"i": ["1", "1", "1", "1"]}}}}, {"name": "PartitionedCall/transpose_200", "op": "Transpose", "input": ["PartitionedCall/Add_66", "PartitionedCall/transpose_200/perm"], "attr": {"Tperm": {"type": "DT_INT32"}, "T": {"type": "DT_FLOAT"}}}, {"name": "PartitionedCall/onnx_tf_prefix_/final_conv/se/act/Relu", "op": "Relu", "input": ["PartitionedCall/transpose_200"], "attr": {"T": {"type": "DT_FLOAT"}}}, {"name": "PartitionedCall/transpose_202", "op": "Transpose", "input": ["PartitionedCall/onnx_tf_prefix_/final_conv/se/act/Relu", "PartitionedCall/transpose_202/perm"], "attr": {"T": {"type": "DT_FLOAT"}, "Tperm": {"type": "DT_INT32"}}}, {"name": "PartitionedCall/Add_67", "op": "_FusedConv2D", "input": ["PartitionedCall/transpose_202", "PartitionedCall/split_27", "unknown_230"], "device": "/device:CPU:0", "attr": {"filter_format": {"s": "SFdJTw=="}, "TArgs": {"list": {"type": ["DT_FLOAT"]}}, "num_args": {"i": "1"}, "fused_ops": {"list": {"s": ["Qmlhc0FkZA=="]}}, "data_format": {"s": "TkhXQw=="}, "T": {"type": "DT_FLOAT"}, "padding": {"s": "VkFMSUQ="}, "epsilon": {"f": 0.0}, "dilations": {"list": {"i": ["1", "1", "1", "1"]}}, "use_cudnn_on_gpu": {"b": true}, "explicit_paddings": {"list": {}}, "leakyrelu_alpha": {"f": 0.2}, "num_host_args": {"i": "0"}, "strides": {"list": {"i": ["1", "1", "1", "1"]}}}}, {"name": "PartitionedCall/transpose_203", "op": "Transpose", "input": ["PartitionedCall/Add_67", "PartitionedCall/transpose_203/perm"], "attr": {"T": {"type": "DT_FLOAT"}, "Tperm": {"type": "DT_INT32"}}}, {"name": "PartitionedCall/onnx_tf_prefix_/final_conv/se/gate/Sigmoid", "op": "Sigmoid", "input": ["PartitionedCall/transpose_203"], "attr": {"T": {"type": "DT_FLOAT"}}}, {"name": "PartitionedCall/onnx_tf_prefix_/final_conv/se/Mul", "op": "Mul", "input": ["PartitionedCall/onnx_tf_prefix_/final_conv/Add_1", "PartitionedCall/onnx_tf_prefix_/final_conv/se/gate/Sigmoid"], "attr": {"T": {"type": "DT_FLOAT"}}}, {"name": "PartitionedCall/onnx_tf_prefix_/final_conv/act/Mul", "op": "Mul", "input": ["PartitionedCall/onnx_tf_prefix_/final_conv/act/Constant_2", "PartitionedCall/onnx_tf_prefix_/final_conv/se/Mul"], "attr": {"T": {"type": "DT_FLOAT"}, "_grappler_ArithmeticOptimizer_MinimizeBroadcasts": {"b": true}}}, {"name": "PartitionedCall/onnx_tf_prefix_/final_conv/act/Div", "op": "Mul", "input": ["PartitionedCall/onnx_tf_prefix_/final_conv/se/Mul", "ConstantFolding/PartitionedCall/onnx_tf_prefix_/final_conv/act/Div_recip"], "attr": {"T": {"type": "DT_FLOAT"}}}, {"name": "PartitionedCall/onnx_tf_prefix_/final_conv/act/Erf", "op": "Erf", "input": ["PartitionedCall/onnx_tf_prefix_/final_conv/act/Div"], "attr": {"T": {"type": "DT_FLOAT"}}}, {"name": "PartitionedCall/onnx_tf_prefix_/final_conv/act/Add", "op": "AddV2", "input": ["PartitionedCall/onnx_tf_prefix_/final_conv/act/Erf", "PartitionedCall/onnx_tf_prefix_/final_conv/act/Constant_1"], "attr": {"T": {"type": "DT_FLOAT"}}}, {"name": "PartitionedCall/onnx_tf_prefix_/final_conv/act/Mul_1", "op": "Mul", "input": ["PartitionedCall/onnx_tf_prefix_/final_conv/act/Mul", "PartitionedCall/onnx_tf_prefix_/final_conv/act/Add"], "attr": {"_grappler_ArithmeticOptimizer_MinimizeBroadcasts": {"b": true}, "T": {"type": "DT_FLOAT"}}}, {"name": "PartitionedCall/Mean", "op": "Mean", "input": ["PartitionedCall/onnx_tf_prefix_/final_conv/act/Mul_1", "ConstantFolding/PartitionedCall/split_28-folded-1"], "attr": {"T": {"type": "DT_FLOAT"}, "Tidx": {"type": "DT_INT32"}, "keep_dims": {"b": true}}}, {"name": "PartitionedCall/Shape_68", "op": "Shape", "input": ["PartitionedCall/Mean"], "attr": {"out_type": {"type": "DT_INT32"}, "T": {"type": "DT_FLOAT"}}, "experimentalType": {"typeId": "TFT_PRODUCT", "args": [{"typeId": "TFT_SHAPE_TENSOR", "args": [{"typeId": "TFT_INT32"}]}]}}, {"name": "PartitionedCall/strided_slice", "op": "StridedSlice", "input": ["PartitionedCall/Shape_68", "PartitionedCall/strided_slice/stack", "PartitionedCall/strided_slice/stack_1", "PartitionedCall/strided_slice/stack_2"], "attr": {"end_mask": {"i": "0"}, "T": {"type": "DT_INT32"}, "ellipsis_mask": {"i": "0"}, "new_axis_mask": {"i": "0"}, "begin_mask": {"i": "0"}, "shrink_axis_mask": {"i": "0"}, "Index": {"type": "DT_INT32"}}}, {"name": "PartitionedCall/strided_slice_1", "op": "StridedSlice", "input": ["PartitionedCall/Shape_68", "PartitionedCall/strided_slice_1/stack", "PartitionedCall/strided_slice_1/stack_1", "PartitionedCall/strided_slice_1/stack_2"], "attr": {"Index": {"type": "DT_INT32"}, "ellipsis_mask": {"i": "0"}, "begin_mask": {"i": "0"}, "end_mask": {"i": "0"}, "new_axis_mask": {"i": "0"}, "shrink_axis_mask": {"i": "0"}, "T": {"type": "DT_INT32"}}}, {"name": "PartitionedCall/Prod", "op": "Prod", "input": ["PartitionedCall/strided_slice", "PartitionedCall/Const_29"], "attr": {"Tidx": {"type": "DT_INT32"}, "T": {"type": "DT_INT32"}, "keep_dims": {"b": false}}}, {"name": "PartitionedCall/Prod_1", "op": "Prod", "input": ["PartitionedCall/strided_slice_1", "PartitionedCall/Const_31"], "attr": {"T": {"type": "DT_INT32"}, "keep_dims": {"b": false}, "Tidx": {"type": "DT_INT32"}}}, {"name": "PartitionedCall/Reshape_136/shape", "op": "Pack", "input": ["PartitionedCall/Prod", "PartitionedCall/Prod_1"], "attr": {"axis": {"i": "0"}, "N": {"i": "2"}, "T": {"type": "DT_INT32"}}}, {"name": "PartitionedCall/Reshape_136", "op": "Reshape", "input": ["PartitionedCall/Mean", "PartitionedCall/Reshape_136/shape"], "attr": {"Tshape": {"type": "DT_INT32"}, "T": {"type": "DT_FLOAT"}}}, {"name": "PartitionedCall/flatten/Shape", "op": "Shape", "input": ["PartitionedCall/Reshape_136"], "attr": {"T": {"type": "DT_FLOAT"}, "out_type": {"type": "DT_INT32"}}, "experimentalType": {"typeId": "TFT_PRODUCT", "args": [{"typeId": "TFT_SHAPE_TENSOR", "args": [{"typeId": "TFT_INT32"}]}]}}, {"name": "PartitionedCall/flatten/strided_slice", "op": "StridedSlice", "input": ["PartitionedCall/flatten/Shape", "PartitionedCall/flatten/strided_slice/stack", "PartitionedCall/flatten/strided_slice/stack_1", "PartitionedCall/flatten/strided_slice/stack_2"], "attr": {"new_axis_mask": {"i": "0"}, "T": {"type": "DT_INT32"}, "shrink_axis_mask": {"i": "1"}, "begin_mask": {"i": "0"}, "ellipsis_mask": {"i": "0"}, "Index": {"type": "DT_INT32"}, "end_mask": {"i": "0"}}}, {"name": "PartitionedCall/flatten/Reshape/shape", "op": "Pack", "input": ["PartitionedCall/flatten/strided_slice", "PartitionedCall/flatten/Reshape/shape/1"], "attr": {"N": {"i": "2"}, "T": {"type": "DT_INT32"}, "axis": {"i": "0"}}}, {"name": "PartitionedCall/flatten/Reshape", "op": "Reshape", "input": ["PartitionedCall/Reshape_136", "PartitionedCall/flatten/Reshape/shape"], "attr": {"Tshape": {"type": "DT_INT32"}, "T": {"type": "DT_FLOAT"}}}, {"name": "PartitionedCall/add_68", "op": "_FusedMatMul", "input": ["PartitionedCall/flatten/Reshape", "PartitionedCall/transpose_204", "PartitionedCall/mul_1"], "device": "/device:CPU:0", "attr": {"fused_ops": {"list": {"s": ["Qmlhc0FkZA=="]}}, "T": {"type": "DT_FLOAT"}, "transpose_a": {"b": false}, "epsilon": {"f": 0.0}, "leakyrelu_alpha": {"f": 0.2}, "transpose_b": {"b": false}, "num_args": {"i": "1"}}}, {"name": "Identity", "op": "Identity", "input": ["PartitionedCall/add_68"], "attr": {"T": {"type": "DT_FLOAT"}}}], "library": {}, "versions": {"producer": 1994}}, "weightsManifest": [{"paths": ["group1-shard1of4.bin", "group1-shard2of4.bin", "group1-shard3of4.bin", "group1-shard4of4.bin"], "weights": [{"name": "PartitionedCall/strided_slice/stack", "shape": [1], "dtype": "int32"}, {"name": "PartitionedCall/strided_slice/stack_1", "shape": [1], "dtype": "int32"}, {"name": "PartitionedCall/strided_slice/stack_2", "shape": [1], "dtype": "int32"}, {"name": "PartitionedCall/Const_29", "shape": [1], "dtype": "int32"}, {"name": "PartitionedCall/onnx_tf_prefix_/final_conv/act/Constant_2", "shape": [], "dtype": "float32"}, {"name": "PartitionedCall/transpose_193/perm", "shape": [4], "dtype": "int32"}, {"name": "PartitionedCall/Reshape_134", "shape": [1, 1, 384, 2], "dtype": "float32"}, {"name": "unknown_224", "shape": [768], "dtype": "float32"}, {"name": "PartitionedCall/transpose_194/perm", "shape": [4], "dtype": "int32"}, {"name": "PartitionedCall/onnx_tf_prefix_/stages.3/blocks/blocks.1/mlp/act/Constant_2", "shape": [], "dtype": "float32"}, {"name": "PartitionedCall/transpose_178/perm", "shape": [4], "dtype": "int32"}, {"name": "PartitionedCall/Reshape_127", "shape": [1, 1, 384, 1], "dtype": "float32"}, {"name": "unknown_210", "shape": [384], "dtype": "float32"}, {"name": "PartitionedCall/transpose_179/perm", "shape": [4], "dtype": "int32"}, {"name": "PartitionedCall/onnx_tf_prefix_/stages.3/blocks/blocks.1/token_mixer/mixer/identity/BatchNormalization/mul", "shape": [1, 384, 1, 1], "dtype": "float32"}, {"name": "PartitionedCall/onnx_tf_prefix_/stages.3/blocks/blocks.1/token_mixer/mixer/identity/BatchNormalization/sub", "shape": [1, 384, 1, 1], "dtype": "float32"}, {"name": "PartitionedCall/Const_26", "shape": [4, 2], "dtype": "int32"}, {"name": "PartitionedCall/transpose_181/perm", "shape": [4], "dtype": "int32"}, {"name": "PartitionedCall/Reshape_128", "shape": [3, 3, 384, 1], "dtype": "float32"}, {"name": "unknown_212", "shape": [384], "dtype": "float32"}, {"name": "PartitionedCall/transpose_182/perm", "shape": [4], "dtype": "int32"}, {"name": "PartitionedCall/onnx_tf_prefix_/stages.3/blocks/blocks.0/mlp/act/Constant_2", "shape": [], "dtype": "float32"}, {"name": "PartitionedCall/transpose_163/perm", "shape": [4], "dtype": "int32"}, {"name": "PartitionedCall/Reshape_116", "shape": [1, 1, 384, 1], "dtype": "float32"}, {"name": "unknown_194", "shape": [384], "dtype": "float32"}, {"name": "PartitionedCall/transpose_164/perm", "shape": [4], "dtype": "int32"}, {"name": "PartitionedCall/onnx_tf_prefix_/stages.3/blocks/blocks.0/token_mixer/mixer/identity/BatchNormalization/mul", "shape": [1, 384, 1, 1], "dtype": "float32"}, {"name": "PartitionedCall/onnx_tf_prefix_/stages.3/blocks/blocks.0/token_mixer/mixer/identity/BatchNormalization/sub", "shape": [1, 384, 1, 1], "dtype": "float32"}, {"name": "PartitionedCall/Const_24", "shape": [4, 2], "dtype": "int32"}, {"name": "PartitionedCall/transpose_166/perm", "shape": [4], "dtype": "int32"}, {"name": "PartitionedCall/Reshape_117", "shape": [3, 3, 384, 1], "dtype": "float32"}, {"name": "unknown_196", "shape": [384], "dtype": "float32"}, {"name": "PartitionedCall/transpose_167/perm", "shape": [4], "dtype": "int32"}, {"name": "PartitionedCall/onnx_tf_prefix_/stages.3/downsample/proj/proj.1/act/Constant_2", "shape": [], "dtype": "float32"}, {"name": "PartitionedCall/onnx_tf_prefix_/stages.3/downsample/proj/proj.1/identity/BatchNormalization/mul", "shape": [1, 384, 1, 1], "dtype": "float32"}, {"name": "PartitionedCall/onnx_tf_prefix_/stages.3/downsample/proj/proj.1/identity/BatchNormalization/sub", "shape": [1, 384, 1, 1], "dtype": "float32"}, {"name": "PartitionedCall/Const_22", "shape": [4, 2], "dtype": "int32"}, {"name": "PartitionedCall/transpose_154/perm", "shape": [4], "dtype": "int32"}, {"name": "PartitionedCall/Reshape_106", "shape": [7, 7, 192, 2], "dtype": "float32"}, {"name": "unknown_182", "shape": [384], "dtype": "float32"}, {"name": "PartitionedCall/transpose_155/perm", "shape": [4], "dtype": "int32"}, {"name": "PartitionedCall/onnx_tf_prefix_/stages.2/blocks/blocks.3/mlp/act/Constant_2", "shape": [], "dtype": "float32"}, {"name": "PartitionedCall/transpose_139/perm", "shape": [4], "dtype": "int32"}, {"name": "PartitionedCall/Reshape_99", "shape": [1, 1, 192, 1], "dtype": "float32"}, {"name": "unknown_168", "shape": [192], "dtype": "float32"}, {"name": "PartitionedCall/transpose_140/perm", "shape": [4], "dtype": "int32"}, {"name": "PartitionedCall/onnx_tf_prefix_/stages.2/blocks/blocks.3/token_mixer/mixer/identity/BatchNormalization/mul", "shape": [1, 192, 1, 1], "dtype": "float32"}, {"name": "PartitionedCall/onnx_tf_prefix_/stages.2/blocks/blocks.3/token_mixer/mixer/identity/BatchNormalization/sub", "shape": [1, 192, 1, 1], "dtype": "float32"}, {"name": "PartitionedCall/Const_20", "shape": [4, 2], "dtype": "int32"}, {"name": "PartitionedCall/transpose_142/perm", "shape": [4], "dtype": "int32"}, {"name": "PartitionedCall/Reshape_100", "shape": [3, 3, 192, 1], "dtype": "float32"}, {"name": "unknown_170", "shape": [192], "dtype": "float32"}, {"name": "PartitionedCall/transpose_143/perm", "shape": [4], "dtype": "int32"}, {"name": "PartitionedCall/onnx_tf_prefix_/stages.2/blocks/blocks.2/mlp/act/Constant_2", "shape": [], "dtype": "float32"}, {"name": "PartitionedCall/transpose_124/perm", "shape": [4], "dtype": "int32"}, {"name": "PartitionedCall/Reshape_88", "shape": [1, 1, 192, 1], "dtype": "float32"}, {"name": "unknown_152", "shape": [192], "dtype": "float32"}, {"name": "PartitionedCall/transpose_125/perm", "shape": [4], "dtype": "int32"}, {"name": "PartitionedCall/onnx_tf_prefix_/stages.2/blocks/blocks.2/token_mixer/mixer/identity/BatchNormalization/mul", "shape": [1, 192, 1, 1], "dtype": "float32"}, {"name": "PartitionedCall/onnx_tf_prefix_/stages.2/blocks/blocks.2/token_mixer/mixer/identity/BatchNormalization/sub", "shape": [1, 192, 1, 1], "dtype": "float32"}, {"name": "PartitionedCall/Const_18", "shape": [4, 2], "dtype": "int32"}, {"name": "PartitionedCall/transpose_127/perm", "shape": [4], "dtype": "int32"}, {"name": "PartitionedCall/Reshape_89", "shape": [3, 3, 192, 1], "dtype": "float32"}, {"name": "unknown_154", "shape": [192], "dtype": "float32"}, {"name": "PartitionedCall/transpose_128/perm", "shape": [4], "dtype": "int32"}, {"name": "PartitionedCall/onnx_tf_prefix_/stages.2/blocks/blocks.1/mlp/act/Constant_2", "shape": [], "dtype": "float32"}, {"name": "PartitionedCall/transpose_109/perm", "shape": [4], "dtype": "int32"}, {"name": "PartitionedCall/Reshape_77", "shape": [1, 1, 192, 1], "dtype": "float32"}, {"name": "unknown_136", "shape": [192], "dtype": "float32"}, {"name": "PartitionedCall/transpose_110/perm", "shape": [4], "dtype": "int32"}, {"name": "PartitionedCall/onnx_tf_prefix_/stages.2/blocks/blocks.1/token_mixer/mixer/identity/BatchNormalization/mul", "shape": [1, 192, 1, 1], "dtype": "float32"}, {"name": "PartitionedCall/onnx_tf_prefix_/stages.2/blocks/blocks.1/token_mixer/mixer/identity/BatchNormalization/sub", "shape": [1, 192, 1, 1], "dtype": "float32"}, {"name": "PartitionedCall/Const_16", "shape": [4, 2], "dtype": "int32"}, {"name": "PartitionedCall/transpose_112/perm", "shape": [4], "dtype": "int32"}, {"name": "PartitionedCall/Reshape_78", "shape": [3, 3, 192, 1], "dtype": "float32"}, {"name": "unknown_138", "shape": [192], "dtype": "float32"}, {"name": "PartitionedCall/transpose_113/perm", "shape": [4], "dtype": "int32"}, {"name": "PartitionedCall/onnx_tf_prefix_/stages.2/blocks/blocks.0/mlp/act/Constant_2", "shape": [], "dtype": "float32"}, {"name": "PartitionedCall/transpose_94/perm", "shape": [4], "dtype": "int32"}, {"name": "PartitionedCall/Reshape_66", "shape": [1, 1, 192, 1], "dtype": "float32"}, {"name": "unknown_120", "shape": [192], "dtype": "float32"}, {"name": "PartitionedCall/transpose_95/perm", "shape": [4], "dtype": "int32"}, {"name": "PartitionedCall/onnx_tf_prefix_/stages.2/blocks/blocks.0/token_mixer/mixer/identity/BatchNormalization/mul", "shape": [1, 192, 1, 1], "dtype": "float32"}, {"name": "PartitionedCall/onnx_tf_prefix_/stages.2/blocks/blocks.0/token_mixer/mixer/identity/BatchNormalization/sub", "shape": [1, 192, 1, 1], "dtype": "float32"}, {"name": "PartitionedCall/Const_14", "shape": [4, 2], "dtype": "int32"}, {"name": "PartitionedCall/transpose_97/perm", "shape": [4], "dtype": "int32"}, {"name": "PartitionedCall/Reshape_67", "shape": [3, 3, 192, 1], "dtype": "float32"}, {"name": "unknown_122", "shape": [192], "dtype": "float32"}, {"name": "PartitionedCall/transpose_98/perm", "shape": [4], "dtype": "int32"}, {"name": "PartitionedCall/onnx_tf_prefix_/stages.2/downsample/proj/proj.1/act/Constant_2", "shape": [], "dtype": "float32"}, {"name": "PartitionedCall/onnx_tf_prefix_/stages.2/downsample/proj/proj.1/identity/BatchNormalization/mul", "shape": [1, 192, 1, 1], "dtype": "float32"}, {"name": "PartitionedCall/onnx_tf_prefix_/stages.2/downsample/proj/proj.1/identity/BatchNormalization/sub", "shape": [1, 192, 1, 1], "dtype": "float32"}, {"name": "PartitionedCall/Const_12", "shape": [4, 2], "dtype": "int32"}, {"name": "PartitionedCall/transpose_85/perm", "shape": [4], "dtype": "int32"}, {"name": "PartitionedCall/Reshape_56", "shape": [7, 7, 96, 2], "dtype": "float32"}, {"name": "unknown_108", "shape": [192], "dtype": "float32"}, {"name": "PartitionedCall/transpose_86/perm", "shape": [4], "dtype": "int32"}, {"name": "PartitionedCall/onnx_tf_prefix_/stages.1/blocks/blocks.1/mlp/act/Constant_2", "shape": [], "dtype": "float32"}, {"name": "PartitionedCall/transpose_70/perm", "shape": [4], "dtype": "int32"}, {"name": "PartitionedCall/Reshape_49", "shape": [1, 1, 96, 1], "dtype": "float32"}, {"name": "unknown_94", "shape": [96], "dtype": "float32"}, {"name": "PartitionedCall/transpose_71/perm", "shape": [4], "dtype": "int32"}, {"name": "PartitionedCall/onnx_tf_prefix_/stages.1/blocks/blocks.1/token_mixer/mixer/identity/BatchNormalization/mul", "shape": [1, 96, 1, 1], "dtype": "float32"}, {"name": "PartitionedCall/onnx_tf_prefix_/stages.1/blocks/blocks.1/token_mixer/mixer/identity/BatchNormalization/sub", "shape": [1, 96, 1, 1], "dtype": "float32"}, {"name": "PartitionedCall/Const_10", "shape": [4, 2], "dtype": "int32"}, {"name": "PartitionedCall/transpose_73/perm", "shape": [4], "dtype": "int32"}, {"name": "PartitionedCall/Reshape_50", "shape": [3, 3, 96, 1], "dtype": "float32"}, {"name": "unknown_96", "shape": [96], "dtype": "float32"}, {"name": "PartitionedCall/transpose_74/perm", "shape": [4], "dtype": "int32"}, {"name": "PartitionedCall/onnx_tf_prefix_/stages.1/blocks/blocks.0/mlp/act/Constant_2", "shape": [], "dtype": "float32"}, {"name": "PartitionedCall/transpose_55/perm", "shape": [4], "dtype": "int32"}, {"name": "PartitionedCall/Reshape_38", "shape": [1, 1, 96, 1], "dtype": "float32"}, {"name": "unknown_78", "shape": [96], "dtype": "float32"}, {"name": "PartitionedCall/transpose_56/perm", "shape": [4], "dtype": "int32"}, {"name": "PartitionedCall/onnx_tf_prefix_/stages.1/blocks/blocks.0/token_mixer/mixer/identity/BatchNormalization/mul", "shape": [1, 96, 1, 1], "dtype": "float32"}, {"name": "PartitionedCall/onnx_tf_prefix_/stages.1/blocks/blocks.0/token_mixer/mixer/identity/BatchNormalization/sub", "shape": [1, 96, 1, 1], "dtype": "float32"}, {"name": "PartitionedCall/Const_8", "shape": [4, 2], "dtype": "int32"}, {"name": "PartitionedCall/transpose_58/perm", "shape": [4], "dtype": "int32"}, {"name": "PartitionedCall/Reshape_39", "shape": [3, 3, 96, 1], "dtype": "float32"}, {"name": "unknown_80", "shape": [96], "dtype": "float32"}, {"name": "PartitionedCall/transpose_59/perm", "shape": [4], "dtype": "int32"}, {"name": "PartitionedCall/onnx_tf_prefix_/stages.1/downsample/proj/proj.1/act/Constant_2", "shape": [], "dtype": "float32"}, {"name": "PartitionedCall/onnx_tf_prefix_/stages.1/downsample/proj/proj.1/identity/BatchNormalization/mul", "shape": [1, 96, 1, 1], "dtype": "float32"}, {"name": "PartitionedCall/onnx_tf_prefix_/stages.1/downsample/proj/proj.1/identity/BatchNormalization/sub", "shape": [1, 96, 1, 1], "dtype": "float32"}, {"name": "PartitionedCall/Const_6", "shape": [4, 2], "dtype": "int32"}, {"name": "PartitionedCall/transpose_46/perm", "shape": [4], "dtype": "int32"}, {"name": "PartitionedCall/Reshape_28", "shape": [7, 7, 48, 2], "dtype": "float32"}, {"name": "unknown_66", "shape": [96], "dtype": "float32"}, {"name": "PartitionedCall/transpose_47/perm", "shape": [4], "dtype": "int32"}, {"name": "PartitionedCall/onnx_tf_prefix_/stages.0/blocks/blocks.1/mlp/act/Constant_2", "shape": [], "dtype": "float32"}, {"name": "PartitionedCall/transpose_31/perm", "shape": [4], "dtype": "int32"}, {"name": "PartitionedCall/Reshape_21", "shape": [1, 1, 48, 1], "dtype": "float32"}, {"name": "unknown_52", "shape": [48], "dtype": "float32"}, {"name": "PartitionedCall/transpose_32/perm", "shape": [4], "dtype": "int32"}, {"name": "PartitionedCall/onnx_tf_prefix_/stages.0/blocks/blocks.1/token_mixer/mixer/identity/BatchNormalization/mul", "shape": [1, 48, 1, 1], "dtype": "float32"}, {"name": "PartitionedCall/onnx_tf_prefix_/stages.0/blocks/blocks.1/token_mixer/mixer/identity/BatchNormalization/sub", "shape": [1, 48, 1, 1], "dtype": "float32"}, {"name": "PartitionedCall/Const_4", "shape": [4, 2], "dtype": "int32"}, {"name": "PartitionedCall/transpose_34/perm", "shape": [4], "dtype": "int32"}, {"name": "PartitionedCall/Reshape_22", "shape": [3, 3, 48, 1], "dtype": "float32"}, {"name": "unknown_54", "shape": [48], "dtype": "float32"}, {"name": "PartitionedCall/transpose_35/perm", "shape": [4], "dtype": "int32"}, {"name": "PartitionedCall/onnx_tf_prefix_/stages.0/blocks/blocks.0/mlp/act/Constant_2", "shape": [], "dtype": "float32"}, {"name": "PartitionedCall/transpose_16/perm", "shape": [4], "dtype": "int32"}, {"name": "PartitionedCall/Reshape_10", "shape": [1, 1, 48, 1], "dtype": "float32"}, {"name": "unknown_36", "shape": [48], "dtype": "float32"}, {"name": "PartitionedCall/transpose_17/perm", "shape": [4], "dtype": "int32"}, {"name": "PartitionedCall/onnx_tf_prefix_/stages.0/blocks/blocks.0/token_mixer/mixer/identity/BatchNormalization/mul", "shape": [1, 48, 1, 1], "dtype": "float32"}, {"name": "PartitionedCall/onnx_tf_prefix_/stages.0/blocks/blocks.0/token_mixer/mixer/identity/BatchNormalization/sub", "shape": [1, 48, 1, 1], "dtype": "float32"}, {"name": "PartitionedCall/Const_2", "shape": [4, 2], "dtype": "int32"}, {"name": "PartitionedCall/transpose_19/perm", "shape": [4], "dtype": "int32"}, {"name": "PartitionedCall/Reshape_11", "shape": [3, 3, 48, 1], "dtype": "float32"}, {"name": "unknown_38", "shape": [48], "dtype": "float32"}, {"name": "PartitionedCall/transpose_20/perm", "shape": [4], "dtype": "int32"}, {"name": "PartitionedCall/onnx_tf_prefix_/stem/stem.2/act/Constant_2", "shape": [], "dtype": "float32"}, {"name": "PartitionedCall/onnx_tf_prefix_/stem/stem.2/identity/BatchNormalization/mul", "shape": [1, 48, 1, 1], "dtype": "float32"}, {"name": "PartitionedCall/onnx_tf_prefix_/stem/stem.2/identity/BatchNormalization/sub", "shape": [1, 48, 1, 1], "dtype": "float32"}, {"name": "PartitionedCall/onnx_tf_prefix_/stem/stem.1/act/Constant_2", "shape": [], "dtype": "float32"}, {"name": "PartitionedCall/transpose_7/perm", "shape": [4], "dtype": "int32"}, {"name": "PartitionedCall/Reshape", "shape": [1, 1, 48, 1], "dtype": "float32"}, {"name": "unknown_24", "shape": [48], "dtype": "float32"}, {"name": "PartitionedCall/transpose_8/perm", "shape": [4], "dtype": "int32"}, {"name": "PartitionedCall/onnx_tf_prefix_/stem/stem.0/act/Constant_2", "shape": [], "dtype": "float32"}, {"name": "PartitionedCall/transpose_1/perm", "shape": [4], "dtype": "int32"}, {"name": "PartitionedCall/split", "shape": [1, 1, 3, 48], "dtype": "float32"}, {"name": "unknown_20", "shape": [48], "dtype": "float32"}, {"name": "PartitionedCall/transpose_2/perm", "shape": [4], "dtype": "int32"}, {"name": "PartitionedCall/Const", "shape": [4, 2], "dtype": "int32"}, {"name": "PartitionedCall/transpose_4/perm", "shape": [4], "dtype": "int32"}, {"name": "PartitionedCall/split_1", "shape": [3, 3, 3, 48], "dtype": "float32"}, {"name": "unknown_22", "shape": [48], "dtype": "float32"}, {"name": "PartitionedCall/transpose_5/perm", "shape": [4], "dtype": "int32"}, {"name": "ConstantFolding/PartitionedCall/onnx_tf_prefix_/stem/stem.0/act/Div_recip", "shape": [], "dtype": "float32"}, {"name": "PartitionedCall/onnx_tf_prefix_/stem/stem.0/act/Constant_1", "shape": [], "dtype": "float32"}, {"name": "PartitionedCall/Const_1", "shape": [4, 2], "dtype": "int32"}, {"name": "PartitionedCall/transpose_10/perm", "shape": [4], "dtype": "int32"}, {"name": "PartitionedCall/Reshape_1", "shape": [3, 3, 48, 1], "dtype": "float32"}, {"name": "unknown_26", "shape": [48], "dtype": "float32"}, {"name": "PartitionedCall/transpose_11/perm", "shape": [4], "dtype": "int32"}, {"name": "ConstantFolding/PartitionedCall/onnx_tf_prefix_/stem/stem.1/act/Div_recip", "shape": [], "dtype": "float32"}, {"name": "PartitionedCall/onnx_tf_prefix_/stem/stem.1/act/Constant_1", "shape": [], "dtype": "float32"}, {"name": "PartitionedCall/transpose_13/perm", "shape": [4], "dtype": "int32"}, {"name": "PartitionedCall/split_2", "shape": [1, 1, 48, 48], "dtype": "float32"}, {"name": "unknown_32", "shape": [48], "dtype": "float32"}, {"name": "PartitionedCall/transpose_14/perm", "shape": [4], "dtype": "int32"}, {"name": "ConstantFolding/PartitionedCall/onnx_tf_prefix_/stem/stem.2/act/Div_recip", "shape": [], "dtype": "float32"}, {"name": "PartitionedCall/onnx_tf_prefix_/stem/stem.2/act/Constant_1", "shape": [], "dtype": "float32"}, {"name": "PartitionedCall/onnx_tf_prefix_/stages.0/blocks/blocks.0/token_mixer/norm/identity/BatchNormalization/mul", "shape": [1, 48, 1, 1], "dtype": "float32"}, {"name": "PartitionedCall/onnx_tf_prefix_/stages.0/blocks/blocks.0/token_mixer/norm/identity/BatchNormalization/sub", "shape": [1, 48, 1, 1], "dtype": "float32"}, {"name": "unknown_41", "shape": [48, 1, 1], "dtype": "float32"}, {"name": "PartitionedCall/Const_3", "shape": [4, 2], "dtype": "int32"}, {"name": "PartitionedCall/transpose_22/perm", "shape": [4], "dtype": "int32"}, {"name": "PartitionedCall/Reshape_16", "shape": [7, 7, 48, 1], "dtype": "float32"}, {"name": "unknown_43", "shape": [48], "dtype": "float32"}, {"name": "PartitionedCall/split_3", "shape": [1, 1, 48, 144], "dtype": "float32"}, {"name": "unknown_45", "shape": [144], "dtype": "float32"}, {"name": "PartitionedCall/transpose_26/perm", "shape": [4], "dtype": "int32"}, {"name": "ConstantFolding/PartitionedCall/onnx_tf_prefix_/stages.0/blocks/blocks.0/mlp/act/Div_recip", "shape": [], "dtype": "float32"}, {"name": "PartitionedCall/onnx_tf_prefix_/stages.0/blocks/blocks.0/mlp/act/Constant_1", "shape": [], "dtype": "float32"}, {"name": "PartitionedCall/transpose_28/perm", "shape": [4], "dtype": "int32"}, {"name": "PartitionedCall/split_4", "shape": [1, 1, 144, 48], "dtype": "float32"}, {"name": "unknown_47", "shape": [48], "dtype": "float32"}, {"name": "PartitionedCall/transpose_29/perm", "shape": [4], "dtype": "int32"}, {"name": "unknown_48", "shape": [48, 1, 1], "dtype": "float32"}, {"name": "PartitionedCall/onnx_tf_prefix_/stages.0/blocks/blocks.1/token_mixer/norm/identity/BatchNormalization/mul", "shape": [1, 48, 1, 1], "dtype": "float32"}, {"name": "PartitionedCall/onnx_tf_prefix_/stages.0/blocks/blocks.1/token_mixer/norm/identity/BatchNormalization/sub", "shape": [1, 48, 1, 1], "dtype": "float32"}, {"name": "unknown_57", "shape": [48, 1, 1], "dtype": "float32"}, {"name": "PartitionedCall/Const_5", "shape": [4, 2], "dtype": "int32"}, {"name": "PartitionedCall/transpose_37/perm", "shape": [4], "dtype": "int32"}, {"name": "PartitionedCall/Reshape_27", "shape": [7, 7, 48, 1], "dtype": "float32"}, {"name": "unknown_59", "shape": [48], "dtype": "float32"}, {"name": "PartitionedCall/split_5", "shape": [1, 1, 48, 144], "dtype": "float32"}, {"name": "unknown_61", "shape": [144], "dtype": "float32"}, {"name": "PartitionedCall/transpose_41/perm", "shape": [4], "dtype": "int32"}, {"name": "ConstantFolding/PartitionedCall/onnx_tf_prefix_/stages.0/blocks/blocks.1/mlp/act/Div_recip", "shape": [], "dtype": "float32"}, {"name": "PartitionedCall/onnx_tf_prefix_/stages.0/blocks/blocks.1/mlp/act/Constant_1", "shape": [], "dtype": "float32"}, {"name": "PartitionedCall/transpose_43/perm", "shape": [4], "dtype": "int32"}, {"name": "PartitionedCall/split_6", "shape": [1, 1, 144, 48], "dtype": "float32"}, {"name": "unknown_63", "shape": [48], "dtype": "float32"}, {"name": "PartitionedCall/transpose_44/perm", "shape": [4], "dtype": "int32"}, {"name": "unknown_64", "shape": [48, 1, 1], "dtype": "float32"}, {"name": "PartitionedCall/Const_7", "shape": [4, 2], "dtype": "int32"}, {"name": "PartitionedCall/transpose_49/perm", "shape": [4], "dtype": "int32"}, {"name": "PartitionedCall/Reshape_29", "shape": [3, 3, 48, 2], "dtype": "float32"}, {"name": "unknown_68", "shape": [96], "dtype": "float32"}, {"name": "PartitionedCall/transpose_50/perm", "shape": [4], "dtype": "int32"}, {"name": "PartitionedCall/transpose_52/perm", "shape": [4], "dtype": "int32"}, {"name": "PartitionedCall/split_7", "shape": [1, 1, 96, 96], "dtype": "float32"}, {"name": "unknown_74", "shape": [96], "dtype": "float32"}, {"name": "PartitionedCall/transpose_53/perm", "shape": [4], "dtype": "int32"}, {"name": "ConstantFolding/PartitionedCall/onnx_tf_prefix_/stages.1/downsample/proj/proj.1/act/Div_recip", "shape": [], "dtype": "float32"}, {"name": "PartitionedCall/onnx_tf_prefix_/stages.1/downsample/proj/proj.1/act/Constant_1", "shape": [], "dtype": "float32"}, {"name": "PartitionedCall/onnx_tf_prefix_/stages.1/blocks/blocks.0/token_mixer/norm/identity/BatchNormalization/mul", "shape": [1, 96, 1, 1], "dtype": "float32"}, {"name": "PartitionedCall/onnx_tf_prefix_/stages.1/blocks/blocks.0/token_mixer/norm/identity/BatchNormalization/sub", "shape": [1, 96, 1, 1], "dtype": "float32"}, {"name": "unknown_83", "shape": [96, 1, 1], "dtype": "float32"}, {"name": "PartitionedCall/Const_9", "shape": [4, 2], "dtype": "int32"}, {"name": "PartitionedCall/transpose_61/perm", "shape": [4], "dtype": "int32"}, {"name": "PartitionedCall/Reshape_44", "shape": [7, 7, 96, 1], "dtype": "float32"}, {"name": "unknown_85", "shape": [96], "dtype": "float32"}, {"name": "PartitionedCall/split_8", "shape": [1, 1, 96, 288], "dtype": "float32"}, {"name": "unknown_87", "shape": [288], "dtype": "float32"}, {"name": "PartitionedCall/transpose_65/perm", "shape": [4], "dtype": "int32"}, {"name": "ConstantFolding/PartitionedCall/onnx_tf_prefix_/stages.1/blocks/blocks.0/mlp/act/Div_recip", "shape": [], "dtype": "float32"}, {"name": "PartitionedCall/onnx_tf_prefix_/stages.1/blocks/blocks.0/mlp/act/Constant_1", "shape": [], "dtype": "float32"}, {"name": "PartitionedCall/transpose_67/perm", "shape": [4], "dtype": "int32"}, {"name": "PartitionedCall/split_9", "shape": [1, 1, 288, 96], "dtype": "float32"}, {"name": "unknown_89", "shape": [96], "dtype": "float32"}, {"name": "PartitionedCall/transpose_68/perm", "shape": [4], "dtype": "int32"}, {"name": "unknown_90", "shape": [96, 1, 1], "dtype": "float32"}, {"name": "PartitionedCall/onnx_tf_prefix_/stages.1/blocks/blocks.1/token_mixer/norm/identity/BatchNormalization/mul", "shape": [1, 96, 1, 1], "dtype": "float32"}, {"name": "PartitionedCall/onnx_tf_prefix_/stages.1/blocks/blocks.1/token_mixer/norm/identity/BatchNormalization/sub", "shape": [1, 96, 1, 1], "dtype": "float32"}, {"name": "unknown_99", "shape": [96, 1, 1], "dtype": "float32"}, {"name": "PartitionedCall/Const_11", "shape": [4, 2], "dtype": "int32"}, {"name": "PartitionedCall/transpose_76/perm", "shape": [4], "dtype": "int32"}, {"name": "PartitionedCall/Reshape_55", "shape": [7, 7, 96, 1], "dtype": "float32"}, {"name": "unknown_101", "shape": [96], "dtype": "float32"}, {"name": "PartitionedCall/split_10", "shape": [1, 1, 96, 288], "dtype": "float32"}, {"name": "unknown_103", "shape": [288], "dtype": "float32"}, {"name": "PartitionedCall/transpose_80/perm", "shape": [4], "dtype": "int32"}, {"name": "ConstantFolding/PartitionedCall/onnx_tf_prefix_/stages.1/blocks/blocks.1/mlp/act/Div_recip", "shape": [], "dtype": "float32"}, {"name": "PartitionedCall/onnx_tf_prefix_/stages.1/blocks/blocks.1/mlp/act/Constant_1", "shape": [], "dtype": "float32"}, {"name": "PartitionedCall/transpose_82/perm", "shape": [4], "dtype": "int32"}, {"name": "PartitionedCall/split_11", "shape": [1, 1, 288, 96], "dtype": "float32"}, {"name": "unknown_105", "shape": [96], "dtype": "float32"}, {"name": "PartitionedCall/transpose_83/perm", "shape": [4], "dtype": "int32"}, {"name": "unknown_106", "shape": [96, 1, 1], "dtype": "float32"}, {"name": "PartitionedCall/Const_13", "shape": [4, 2], "dtype": "int32"}, {"name": "PartitionedCall/transpose_88/perm", "shape": [4], "dtype": "int32"}, {"name": "PartitionedCall/Reshape_57", "shape": [3, 3, 96, 2], "dtype": "float32"}, {"name": "unknown_110", "shape": [192], "dtype": "float32"}, {"name": "PartitionedCall/transpose_89/perm", "shape": [4], "dtype": "int32"}, {"name": "PartitionedCall/transpose_91/perm", "shape": [4], "dtype": "int32"}, {"name": "PartitionedCall/split_12", "shape": [1, 1, 192, 192], "dtype": "float32"}, {"name": "unknown_116", "shape": [192], "dtype": "float32"}, {"name": "PartitionedCall/transpose_92/perm", "shape": [4], "dtype": "int32"}, {"name": "ConstantFolding/PartitionedCall/onnx_tf_prefix_/stages.2/downsample/proj/proj.1/act/Div_recip", "shape": [], "dtype": "float32"}, {"name": "PartitionedCall/onnx_tf_prefix_/stages.2/downsample/proj/proj.1/act/Constant_1", "shape": [], "dtype": "float32"}, {"name": "PartitionedCall/onnx_tf_prefix_/stages.2/blocks/blocks.0/token_mixer/norm/identity/BatchNormalization/mul", "shape": [1, 192, 1, 1], "dtype": "float32"}, {"name": "PartitionedCall/onnx_tf_prefix_/stages.2/blocks/blocks.0/token_mixer/norm/identity/BatchNormalization/sub", "shape": [1, 192, 1, 1], "dtype": "float32"}, {"name": "unknown_125", "shape": [192, 1, 1], "dtype": "float32"}, {"name": "PartitionedCall/Const_15", "shape": [4, 2], "dtype": "int32"}, {"name": "PartitionedCall/transpose_100/perm", "shape": [4], "dtype": "int32"}, {"name": "PartitionedCall/Reshape_72", "shape": [7, 7, 192, 1], "dtype": "float32"}, {"name": "unknown_127", "shape": [192], "dtype": "float32"}, {"name": "PartitionedCall/split_13", "shape": [1, 1, 192, 576], "dtype": "float32"}, {"name": "unknown_129", "shape": [576], "dtype": "float32"}, {"name": "PartitionedCall/transpose_104/perm", "shape": [4], "dtype": "int32"}, {"name": "ConstantFolding/PartitionedCall/onnx_tf_prefix_/stages.2/blocks/blocks.0/mlp/act/Div_recip", "shape": [], "dtype": "float32"}, {"name": "PartitionedCall/onnx_tf_prefix_/stages.2/blocks/blocks.0/mlp/act/Constant_1", "shape": [], "dtype": "float32"}, {"name": "PartitionedCall/transpose_106/perm", "shape": [4], "dtype": "int32"}, {"name": "PartitionedCall/split_14", "shape": [1, 1, 576, 192], "dtype": "float32"}, {"name": "unknown_131", "shape": [192], "dtype": "float32"}, {"name": "PartitionedCall/transpose_107/perm", "shape": [4], "dtype": "int32"}, {"name": "unknown_132", "shape": [192, 1, 1], "dtype": "float32"}, {"name": "PartitionedCall/onnx_tf_prefix_/stages.2/blocks/blocks.1/token_mixer/norm/identity/BatchNormalization/mul", "shape": [1, 192, 1, 1], "dtype": "float32"}, {"name": "PartitionedCall/onnx_tf_prefix_/stages.2/blocks/blocks.1/token_mixer/norm/identity/BatchNormalization/sub", "shape": [1, 192, 1, 1], "dtype": "float32"}, {"name": "unknown_141", "shape": [192, 1, 1], "dtype": "float32"}, {"name": "PartitionedCall/Const_17", "shape": [4, 2], "dtype": "int32"}, {"name": "PartitionedCall/transpose_115/perm", "shape": [4], "dtype": "int32"}, {"name": "PartitionedCall/Reshape_83", "shape": [7, 7, 192, 1], "dtype": "float32"}, {"name": "unknown_143", "shape": [192], "dtype": "float32"}, {"name": "PartitionedCall/split_15", "shape": [1, 1, 192, 576], "dtype": "float32"}, {"name": "unknown_145", "shape": [576], "dtype": "float32"}, {"name": "PartitionedCall/transpose_119/perm", "shape": [4], "dtype": "int32"}, {"name": "ConstantFolding/PartitionedCall/onnx_tf_prefix_/stages.2/blocks/blocks.1/mlp/act/Div_recip", "shape": [], "dtype": "float32"}, {"name": "PartitionedCall/onnx_tf_prefix_/stages.2/blocks/blocks.1/mlp/act/Constant_1", "shape": [], "dtype": "float32"}, {"name": "PartitionedCall/transpose_121/perm", "shape": [4], "dtype": "int32"}, {"name": "PartitionedCall/split_16", "shape": [1, 1, 576, 192], "dtype": "float32"}, {"name": "unknown_147", "shape": [192], "dtype": "float32"}, {"name": "PartitionedCall/transpose_122/perm", "shape": [4], "dtype": "int32"}, {"name": "unknown_148", "shape": [192, 1, 1], "dtype": "float32"}, {"name": "PartitionedCall/onnx_tf_prefix_/stages.2/blocks/blocks.2/token_mixer/norm/identity/BatchNormalization/mul", "shape": [1, 192, 1, 1], "dtype": "float32"}, {"name": "PartitionedCall/onnx_tf_prefix_/stages.2/blocks/blocks.2/token_mixer/norm/identity/BatchNormalization/sub", "shape": [1, 192, 1, 1], "dtype": "float32"}, {"name": "unknown_157", "shape": [192, 1, 1], "dtype": "float32"}, {"name": "PartitionedCall/Const_19", "shape": [4, 2], "dtype": "int32"}, {"name": "PartitionedCall/transpose_130/perm", "shape": [4], "dtype": "int32"}, {"name": "PartitionedCall/Reshape_94", "shape": [7, 7, 192, 1], "dtype": "float32"}, {"name": "unknown_159", "shape": [192], "dtype": "float32"}, {"name": "PartitionedCall/split_17", "shape": [1, 1, 192, 576], "dtype": "float32"}, {"name": "unknown_161", "shape": [576], "dtype": "float32"}, {"name": "PartitionedCall/transpose_134/perm", "shape": [4], "dtype": "int32"}, {"name": "ConstantFolding/PartitionedCall/onnx_tf_prefix_/stages.2/blocks/blocks.2/mlp/act/Div_recip", "shape": [], "dtype": "float32"}, {"name": "PartitionedCall/onnx_tf_prefix_/stages.2/blocks/blocks.2/mlp/act/Constant_1", "shape": [], "dtype": "float32"}, {"name": "PartitionedCall/transpose_136/perm", "shape": [4], "dtype": "int32"}, {"name": "PartitionedCall/split_18", "shape": [1, 1, 576, 192], "dtype": "float32"}, {"name": "unknown_163", "shape": [192], "dtype": "float32"}, {"name": "PartitionedCall/transpose_137/perm", "shape": [4], "dtype": "int32"}, {"name": "unknown_164", "shape": [192, 1, 1], "dtype": "float32"}, {"name": "PartitionedCall/onnx_tf_prefix_/stages.2/blocks/blocks.3/token_mixer/norm/identity/BatchNormalization/mul", "shape": [1, 192, 1, 1], "dtype": "float32"}, {"name": "PartitionedCall/onnx_tf_prefix_/stages.2/blocks/blocks.3/token_mixer/norm/identity/BatchNormalization/sub", "shape": [1, 192, 1, 1], "dtype": "float32"}, {"name": "unknown_173", "shape": [192, 1, 1], "dtype": "float32"}, {"name": "PartitionedCall/Const_21", "shape": [4, 2], "dtype": "int32"}, {"name": "PartitionedCall/transpose_145/perm", "shape": [4], "dtype": "int32"}, {"name": "PartitionedCall/Reshape_105", "shape": [7, 7, 192, 1], "dtype": "float32"}, {"name": "unknown_175", "shape": [192], "dtype": "float32"}, {"name": "PartitionedCall/split_19", "shape": [1, 1, 192, 576], "dtype": "float32"}, {"name": "unknown_177", "shape": [576], "dtype": "float32"}, {"name": "PartitionedCall/transpose_149/perm", "shape": [4], "dtype": "int32"}, {"name": "ConstantFolding/PartitionedCall/onnx_tf_prefix_/stages.2/blocks/blocks.3/mlp/act/Div_recip", "shape": [], "dtype": "float32"}, {"name": "PartitionedCall/onnx_tf_prefix_/stages.2/blocks/blocks.3/mlp/act/Constant_1", "shape": [], "dtype": "float32"}, {"name": "PartitionedCall/transpose_151/perm", "shape": [4], "dtype": "int32"}, {"name": "PartitionedCall/split_20", "shape": [1, 1, 576, 192], "dtype": "float32"}, {"name": "unknown_179", "shape": [192], "dtype": "float32"}, {"name": "PartitionedCall/transpose_152/perm", "shape": [4], "dtype": "int32"}, {"name": "unknown_180", "shape": [192, 1, 1], "dtype": "float32"}, {"name": "PartitionedCall/Const_23", "shape": [4, 2], "dtype": "int32"}, {"name": "PartitionedCall/transpose_157/perm", "shape": [4], "dtype": "int32"}, {"name": "PartitionedCall/Reshape_107", "shape": [3, 3, 192, 2], "dtype": "float32"}, {"name": "unknown_184", "shape": [384], "dtype": "float32"}, {"name": "PartitionedCall/transpose_158/perm", "shape": [4], "dtype": "int32"}, {"name": "PartitionedCall/transpose_160/perm", "shape": [4], "dtype": "int32"}, {"name": "PartitionedCall/split_21", "shape": [1, 1, 384, 384], "dtype": "float32"}, {"name": "unknown_190", "shape": [384], "dtype": "float32"}, {"name": "PartitionedCall/transpose_161/perm", "shape": [4], "dtype": "int32"}, {"name": "ConstantFolding/PartitionedCall/onnx_tf_prefix_/stages.3/downsample/proj/proj.1/act/Div_recip", "shape": [], "dtype": "float32"}, {"name": "PartitionedCall/onnx_tf_prefix_/stages.3/downsample/proj/proj.1/act/Constant_1", "shape": [], "dtype": "float32"}, {"name": "PartitionedCall/onnx_tf_prefix_/stages.3/blocks/blocks.0/token_mixer/norm/identity/BatchNormalization/mul", "shape": [1, 384, 1, 1], "dtype": "float32"}, {"name": "PartitionedCall/onnx_tf_prefix_/stages.3/blocks/blocks.0/token_mixer/norm/identity/BatchNormalization/sub", "shape": [1, 384, 1, 1], "dtype": "float32"}, {"name": "unknown_199", "shape": [384, 1, 1], "dtype": "float32"}, {"name": "PartitionedCall/Const_25", "shape": [4, 2], "dtype": "int32"}, {"name": "PartitionedCall/transpose_169/perm", "shape": [4], "dtype": "int32"}, {"name": "PartitionedCall/Reshape_122", "shape": [7, 7, 384, 1], "dtype": "float32"}, {"name": "unknown_201", "shape": [384], "dtype": "float32"}, {"name": "PartitionedCall/split_22", "shape": [1, 1, 384, 1152], "dtype": "float32"}, {"name": "unknown_203", "shape": [1152], "dtype": "float32"}, {"name": "PartitionedCall/transpose_173/perm", "shape": [4], "dtype": "int32"}, {"name": "ConstantFolding/PartitionedCall/onnx_tf_prefix_/stages.3/blocks/blocks.0/mlp/act/Div_recip", "shape": [], "dtype": "float32"}, {"name": "PartitionedCall/onnx_tf_prefix_/stages.3/blocks/blocks.0/mlp/act/Constant_1", "shape": [], "dtype": "float32"}, {"name": "PartitionedCall/transpose_175/perm", "shape": [4], "dtype": "int32"}, {"name": "PartitionedCall/split_23", "shape": [1, 1, 1152, 384], "dtype": "float32"}, {"name": "unknown_205", "shape": [384], "dtype": "float32"}, {"name": "PartitionedCall/transpose_176/perm", "shape": [4], "dtype": "int32"}, {"name": "unknown_206", "shape": [384, 1, 1], "dtype": "float32"}, {"name": "PartitionedCall/onnx_tf_prefix_/stages.3/blocks/blocks.1/token_mixer/norm/identity/BatchNormalization/mul", "shape": [1, 384, 1, 1], "dtype": "float32"}, {"name": "PartitionedCall/onnx_tf_prefix_/stages.3/blocks/blocks.1/token_mixer/norm/identity/BatchNormalization/sub", "shape": [1, 384, 1, 1], "dtype": "float32"}, {"name": "unknown_215", "shape": [384, 1, 1], "dtype": "float32"}, {"name": "PartitionedCall/Const_27", "shape": [4, 2], "dtype": "int32"}, {"name": "PartitionedCall/transpose_184/perm", "shape": [4], "dtype": "int32"}, {"name": "PartitionedCall/Reshape_133", "shape": [7, 7, 384, 1], "dtype": "float32"}, {"name": "unknown_217", "shape": [384], "dtype": "float32"}, {"name": "PartitionedCall/split_24", "shape": [1, 1, 384, 1152], "dtype": "float32"}, {"name": "unknown_219", "shape": [1152], "dtype": "float32"}, {"name": "PartitionedCall/transpose_188/perm", "shape": [4], "dtype": "int32"}, {"name": "ConstantFolding/PartitionedCall/onnx_tf_prefix_/stages.3/blocks/blocks.1/mlp/act/Div_recip", "shape": [], "dtype": "float32"}, {"name": "PartitionedCall/onnx_tf_prefix_/stages.3/blocks/blocks.1/mlp/act/Constant_1", "shape": [], "dtype": "float32"}, {"name": "PartitionedCall/transpose_190/perm", "shape": [4], "dtype": "int32"}, {"name": "PartitionedCall/split_25", "shape": [1, 1, 1152, 384], "dtype": "float32"}, {"name": "unknown_221", "shape": [384], "dtype": "float32"}, {"name": "PartitionedCall/transpose_191/perm", "shape": [4], "dtype": "int32"}, {"name": "unknown_222", "shape": [384, 1, 1], "dtype": "float32"}, {"name": "PartitionedCall/Const_28", "shape": [4, 2], "dtype": "int32"}, {"name": "PartitionedCall/transpose_196/perm", "shape": [4], "dtype": "int32"}, {"name": "PartitionedCall/Reshape_135", "shape": [3, 3, 384, 2], "dtype": "float32"}, {"name": "unknown_226", "shape": [768], "dtype": "float32"}, {"name": "PartitionedCall/transpose_197/perm", "shape": [4], "dtype": "int32"}, {"name": "PartitionedCall/onnx_tf_prefix_/final_conv/se/ReduceMean/reduction_indices", "shape": [2], "dtype": "int32"}, {"name": "PartitionedCall/transpose_199/perm", "shape": [4], "dtype": "int32"}, {"name": "PartitionedCall/split_26", "shape": [1, 1, 768, 48], "dtype": "float32"}, {"name": "unknown_228", "shape": [48], "dtype": "float32"}, {"name": "PartitionedCall/transpose_200/perm", "shape": [4], "dtype": "int32"}, {"name": "PartitionedCall/transpose_202/perm", "shape": [4], "dtype": "int32"}, {"name": "PartitionedCall/split_27", "shape": [1, 1, 48, 768], "dtype": "float32"}, {"name": "unknown_230", "shape": [768], "dtype": "float32"}, {"name": "PartitionedCall/transpose_203/perm", "shape": [4], "dtype": "int32"}, {"name": "ConstantFolding/PartitionedCall/onnx_tf_prefix_/final_conv/act/Div_recip", "shape": [], "dtype": "float32"}, {"name": "PartitionedCall/onnx_tf_prefix_/final_conv/act/Constant_1", "shape": [], "dtype": "float32"}, {"name": "ConstantFolding/PartitionedCall/split_28-folded-1", "shape": [2], "dtype": "int32"}, {"name": "PartitionedCall/strided_slice_1/stack", "shape": [1], "dtype": "int32"}, {"name": "PartitionedCall/strided_slice_1/stack_1", "shape": [1], "dtype": "int32"}, {"name": "PartitionedCall/strided_slice_1/stack_2", "shape": [1], "dtype": "int32"}, {"name": "PartitionedCall/Const_31", "shape": [1], "dtype": "int32"}, {"name": "PartitionedCall/flatten/strided_slice/stack", "shape": [1], "dtype": "int32"}, {"name": "PartitionedCall/flatten/strided_slice/stack_1", "shape": [1], "dtype": "int32"}, {"name": "PartitionedCall/flatten/strided_slice/stack_2", "shape": [1], "dtype": "int32"}, {"name": "PartitionedCall/flatten/Reshape/shape/1", "shape": [], "dtype": "int32"}, {"name": "PartitionedCall/transpose_204", "shape": [768, 1000], "dtype": "float32"}, {"name": "PartitionedCall/mul_1", "shape": [1000], "dtype": "float32"}]}]}